Models/CNN.pt (torch, 25005 bytes, 14 tensors)

conv_and_fc.0.weight f4 [6, 1, 5, 5]
00000000: 0ad1 44be a907 b9bd f3aa 81bf 47cb 1bbd
00000010: 0e79 203c 735c 6cbd f3cf d7be c831 bbbf
00000020: d280 e7be 0932 f43d a998 733e 3ca8 243d
00000030: 2657 02be 0955 cfbd 2081 3cbe b2bc 963b
00000040: d21f 833d ff4f 9d3d b091 b8bd 705a 50be
00000050: b7e9 c53c 6396 d73d 58f9 7ebd 7c16 bbbd
00000060: 4218 23bd 9f31 bb3d e7e6 d33d 17e3 833d
00000070: 0011 103c 48e1 91bd 6a28 e23d e68a 823d
00000080: e4a0 243e 8fdd 663c 6598 5abd a53b c9bd
00000090: f589 0f3e 9ebe e4bd cc71 bcbd 13d0 ed3d
000000a0: 4071 a5bd c806 b3be 35c9 20be 2bfd 9a3d
000000b0: 17df 0f3d 0e81 c3be f57b dabf 5489 aebe
000000c0: 990c 18be 722b a9bc b1b2 9ebf 0b00 7ebe
000000d0: 4900 4cbc e3e8 47bd 3476 c23d a411 eabe
000000e0: 16c6 19be f7f7 c73d 2bc5 903d 9cfc 0e3e
000000f0: 2281 edbd 5578 edbd 8239 c63c f9ec 533e
00000100: 5d8e d93a 6ffb 02be 6b12 a43c c2a9 313e
00000110: 2e55 bc3d 5fa5 d0bb f32d 883b 69a0 cf3d
00000120: 8ad1 a43d 4a83 403c b7e2 9e3d 2966 0c3d
00000130: 0757 903d a331 82bd e6be 55be ed77 a13d
00000140: a48a 04bd 5536 33be 533a 26be afe8 8c3d
00000150: afe1 823e 20b2 1e3e 3c4a 1f3e 778f 953e
00000160: 64de d73e 8835 79be bf87 c63e 1198 b33e
00000170: c9a6 eb3e 4eba 093e 7eec dbbe dcee 923d
00000180: d3a1 a6bc 0c2a 1f3e 10c9 783e fc21 8abe
00000190: 551f 313d 1356 48bd 3f60 463d 450d b6bd
000001a0: afcf 1e3d 8c68 c93c 64ca 52bd 7132 323d
000001b0: 3907 1dbd 6404 b13c 874d fabd 0c90 90bd
000001c0: 4921 c23d d6e7 0f3e c33c 4abd 98cc a53d
000001d0: e301 38bf 58a8 e53e 50f7 5d3e deb5 d7bc
000001e0: c0c7 823e 6b16 cbbe d727 dcbd 90bd 533e
000001f0: f3c8 2b3d a430 5cbe 43d5 923e a9ed 633e
00000200: 357c 3d3e c534 18be fcd2 89be 18d3 743c
00000210: 18d1 3c3e b8ed a63e 98d4 c4bb 243c 84be
00000220: 6fd1 8a3d 60b8 313e 6b78 4dbc 1922 b1bd
00000230: 10f5 9c3c 7e98 063e 375f 243e 5f87 2dbe
00000240: dd35 ccbe 9552 8f3e bf20 aa3d f631 933e
00000250: febe 6abe 13cb dabe
-0.19220367 -0.09034664 -1.0130295 -0.038035657 0.009794487 -0.057705354 -0.4215084 -1.4624567
-0.4521547 0.11923606 0.23788704 0.040199503 -0.12728557 -0.10123641 -0.18408632 0.004600131
0.064025536 0.07681274 -0.09012163 -0.20346999 0.024159295 0.10526731 -0.06224951 -0.09135148
-0.039818056 0.09140324 0.103467755 0.06439798 0.008793116 -0.07123047 0.110428646 0.06374149
0.16077 0.01409091 -0.05336799 -0.098258294 0.1401747 -0.1116917 -0.092013925 0.11611953
-0.08078241 -0.3496611 -0.15701754 0.07567819 0.035124864 -0.38184398 -1.7069079 -0.34089148
-0.14848556 -0.0206506 -1.2398282 -0.24804704 -0.01245124 -0.048806082 0.09495202 -0.45716584
-0.1501697 0.097640924 0.07068857 0.1396355 -0.11596896 -0.11595217 0.024197344 0.20695867
0.0016598214 -0.12791227 0.020028314 0.17349914 0.09195934 -0.00636737 0.004155868 0.10138018
0.08047779 0.011750052 0.07758086 0.034277115 0.07047849 -0.06357124 -0.20873603 0.07884202
-0.03235878 -0.17501195 -0.16233186 0.068803184 0.25562808 0.15497637 0.15555662 0.29211017
0.42161858 -0.24336827 0.3877544 0.35076955 0.46025684 0.13449976 -0.42953867 0.07174465
-0.020340836 0.15543383 0.2429545 -0.26979053 0.04324277 -0.04891021 0.04843163 -0.0888925
0.03877228 0.024585985 -0.051462546 0.043505136 -0.038336966 0.021608539 -0.122218184 -0.07058725
0.09479005 0.14053282 -0.049374353 0.08095664 -0.7187788 0.44855 0.21676373 -0.026331838
0.25543022 -0.3966554 -0.10749786 0.20677781 0.041939687 -0.2150293 0.2867833 0.22258629
0.18504412 -0.1486388 -0.2691878 0.014942907 0.18439138 0.3260324 -0.0060067885 -0.25827134
0.067782275 0.1735549 -0.012540917 -0.08649082 0.019159824 0.13144109 0.16051947 -0.16946171
-0.39884844 0.27992693 0.08307027 0.28749055 -0.2292442 -0.42733058

conv_and_fc.0.bias f4 [6]
00000000: fe8e 293e acd6 4ebe 38f1 b5bd ad91 283e
00000010: d469 273e e741 c3bc
0.16558453 -0.20199078 -0.088838995 0.16461821 0.16348964 -0.023835136

conv_and_fc.1.weight f4 [6]
00000000: e2e5 bb3f adbb c33f 3aa8 483f c807 913e
00000010: 7acc 563e ea17 4f3e
1.467953 1.5291649 0.78381693 0.2832625 0.20976439 0.20223966

conv_and_fc.1.bias f4 [6]
00000000: 70e6 45bf f3db 60bf a959 d2be 6531 9e3d
00000010: 6d24 d2bb b2f7 0b3b
-0.77304745 -0.87835616 -0.4108403 0.07724265 -0.0064130337 0.0021357355

conv_and_fc.1.running_mean f4 [6]
00000000: 1e51 6abf 011f 67bf bb87 ddbe 8ce2 243f
00000010: b59e 293e 2c33 243d
-0.91530025 -0.90281683 -0.43267617 0.64408183 0.16564448 0.040087864

conv_and_fc.1.running_var f4 [6]
00000000: 0bdb cb3f 5990 4e3f d8d6 c13e 025e b43e
00000010: dafc 283d 3858 d13d
1.5926222 0.8068901 0.37859225 0.35227972 0.041256763 0.102219045

conv_and_fc.4.weight f4 [12, 6, 5, 5]
00000000: 424b ef3e f203 8b3e a9ba 613d 5dd2 e1bb
00000010: 3602 633d cdd9 77bd ac59 35be d6bf 8dbd
00000020: 69b8 213e 9a49 e2bd 1ba1 8e3e 60e0 cf3b
00000030: 35bb a3be 5c37 7fbe e342 6c3d 3138 e73d
00000040: 4fad 4f3e 5ca5 503e 17cd 183e 6f3b dd3c
00000050: 06ca 4d3e a4a1 013f c4f6 413e 7075 573e
00000060: edaa 8e3e 9ba5 cbbd df93 7cbc ef7a 99bf
00000070: 0ba6 66be d709 25be aec7 10be 8623 90bc
00000080: 0626 f9be cca3 0bbe 253a 30bd ab00 95be
00000090: 8332 0fbd c27f 7bbf 6bd1 073d f831 31be
000000a0: 3b39 12bf 8e3c 4a3e 68fc 64bf 8fbb c83d
000000b0: 6e35 fabb feb7 b0be 16f8 a73e 6387 8fbe
000000c0: 9006 5abd cb3d 073e 213e bebc 5d73 ac3d
000000d0: aff7 03bd a920 e0be 800d b23e b7a7 9a3e
000000e0: fbd1 363d 946c 08be 1ee1 cdbe 458a aebe
000000f0: bace 043e 45ce 83bc 3155 103d 6c15 13bc
00000100: 128a 073e 89ba b33d 6d17 c4bc 91e4 e53d
00000110: 55a2 23bd fffa 9cbc e750 25bd 3e7c 6bbd
00000120: 45ec 943d 76a3 053e b429 4bbd 03b3 3f3e
00000130: eb15 d8be dd76 20bd 27f8 2e3d 5c31 563b
00000140: ff4f bdbd 3746 a7be 1352 3f3c 72f7 8ebd
00000150: ea44 3f3e 7cc7 22bb 63ff 16be 4fab 133d
00000160: 4e26 b53c 7e2e a6bb 6e08 f43d 1e51 34be
00000170: a86c 05be 43f7 df3d 3f1f 983e 747d 653e
00000180: b6c7 26be f9bd 85be 458f d23c 6066 9ebe
00000190: 1b87 1fbc b5db 763e c96b e4bd 1831 1abe
000001a0: 8206 06be 35b5 23be c218 ec3d ef24 aabd
000001b0: 2d28 dabd 8c8c 1ebe 593d a0bd 63de 293e
000001c0: 695e 0ebe 3b2e 49bd f5e3 ccbb 1c3d 0dbe
000001d0: dc5a 5a3d 20c9 603d 0210 8f3e 2628 86bd
000001e0: 9b55 07be bcdc 783e 9bcb e0bd ad32 b2be
000001f0: ef6c fb3d 20eb 3dbe 07d5 db3b 8127 e93a
00000200: 52c4 80bd 3b60 2dbe 421a 203e b983 df3e
00000210: af66 493e c830 ad3d de52 803e b236 fe3d
00000220: ab13 103e 3623 8d3d 59d8 853e 5aeb 42bd
00000230: f511 493b 7e91 b53d 4a5b 663e 9390 dcbd
00000240: 55f2 173e a282 333d b676 103e a53d 6dbd
00000250: d9f5 27bd 20db 8dbd 8a0c 1b3e df41 673e
00000260: 3733 adbd df19 273e 2d4b 283e 8141 b43e
00000270: 4bc6 9ebe e222 6b3e a26a a73d 92b2 1a3d
00000280: ae72 2f3e 0e11 c7be 0166 84be 8972 ca3b
00000290: a544 a23e 90f8 dcbe 05da 903e 8366 cdbe
000002a0: 9fea ec3e 933d b63d 4351 e0be 2f86 c13e
000002b0: 0221 29bf 59e8 e3be 3a74 c4be 7439 37be
000002c0: 72eb 223d 444d ecbe ce70 923e 40fd 023e
000002d0: 0a4d 8bbe 330e 0dbe 4990 be3c 61de 22bd
000002e0: d017 963e 79ed 53be 6ab0 45bd b9a2 86be
000002f0: af4d 2b3d fd5b 2dbe 7883 cbbe 1ffa 613e
00000300: f82a 1dbe 2a5f 65bd b4e8 1bbf 0e69 783e
00000310: 9e98 0ebd 752a 3b3e 39a7 673d ba86 d93c
00000320: 52f8 efbc 4a4a 7dbe 9e9e 5a3e c199 de3d
00000330: be93 d3be 4ed4 0d3e 5eec 6d3e 6d1c 823d
00000340: 1cab 1fbf 8706 e53e 968f 743d 8dbf 82be
00000350: 519c dcbd beaa bdbe 9514 6b3e 448b 103d
00000360: 2ae6 bc3d 7d8d b1be cae2 63bd b03e 143e
00000370: b34d 4abc 3c52 0cbe 3c97 02bf 39e6 55be
00000380: c271 67be df93 08bd 6925 e43d 04db 513e
00000390: cff3 0b3d 17bf bbbd e01b 1b3e b939 ab3d
000003a0: 78de 90be b694 babc 6ed7 7abe 887e 393e
000003b0: 5d12 ad3d ae42 b6bd 59a7 32be e22b 363e
000003c0: 65d9 3bbd 32b5 43bd 9719 e0bd 0857 6d3e
000003d0: 5b73 813e f099 82bd c137 71be da8d a43d
000003e0: aa67 3dbe 6447 203e 87f0 d6bd 6d7a 203d
000003f0: 320c d83d 705c 0ebe 33b9 173e 6164 8e3d
0.46737105 0.27151448 0.055109654 -0.0068915323 0.05542203 -0.060510445 -0.17709988 -0.069213554
0.15793003 -0.11049195 0.2785729 0.0063438863 -0.31978765 -0.24923462 0.057680976 0.112900145
0.20280956 0.2037558 0.14921986 0.02700588 0.20096597 0.5063727 0.1894179 0.21040893
0.2786478 -0.09943696 -0.015416115 -1.1990641 -0.22524278 -0.16117035 -0.14138672 -0.017595064
-0.48661822 -0.13636702 -0.0430242 -0.29102072 -0.03496028 -0.9824182 0.0331587 -0.17304218
-0.57118577 0.19749662 -0.8944764 0.09801399 -0.007635764 -0.34515375 0.32806462 -0.2803298
-0.053228915 0.13207166 -0.023222985 0.08420441 -0.03221863 -0.43774918 0.34775925 0.3020608
0.044633847 -0.1332267 -0.40210813 -0.34089866 0.12969485 -0.016089568 0.035237495 -0.008977275
0.13236263 0.08775813 -0.023936952 0.11225236 -0.039949734 -0.019162653 -0.040360358 -0.057491533
0.07271627 0.13050637 -0.049600318 0.18720631 -0.42204222 -0.039175857 0.042717125 0.003268323
-0.09243774 -0.32670757 0.011677283 -0.0698079 0.18678632 -0.002483814 -0.1474586 0.036052044
0.022112992 -0.0050714603 0.1191567 -0.17609069 -0.1302973 0.10935833 0.2971134 0.22411138
-0.16287121 -0.261215 0.025703082 -0.3093748 -0.0097368015 0.24107249 -0.11153371 -0.1505779
-0.1308842 -0.15987094 0.1152816 -0.08307826 -0.10652194 -0.15483302 -0.07824201 0.1658874
-0.13903202 -0.049116354 -0.0062527605 -0.13792843 0.053309307 0.054879308 0.279419 -0.065506265
-0.1321625 0.24302953 -0.10976335 -0.34804288 0.12276637 -0.18546724 0.0067087444 0.0017788262
-0.06287445 -0.1693124 0.15635017 0.43655184 0.19668077 0.0845657 0.25063223 0.12412776
0.14070003 0.068914816 0.26141623 -0.04758773 0.003068087 0.08865641 0.22495762 -0.10769763
0.14838536 0.043825753 0.14107785 -0.057920117 -0.041005943 -0.069265604 0.15141502 0.22583722
-0.08457034 0.16318463 0.16434927 0.35206226 -0.3101066 0.22962525 0.081746355 0.037767954
0.1713359 -0.388802 -0.25859073 0.0061782044 0.31692997 -0.43158388 0.28291336 -0.40117273
0.46272752 0.08898463 -0.43811998 0.37797686 -0.6606599 -0.44513205 -0.38369924 -0.1789301
0.03977532 -0.461527 0.28601688 0.1279192 -0.27207214 -0.13774948 0.02326216 -0.03976286
0.29315042 -0.20696057 -0.048263945 -0.26296023 0.04182213 -0.16929622 -0.3974874 0.2206807
-0.15348423 -0.05599896 -0.6090195 0.24258825 -0.034813516 0.18277915 0.05655596 0.0265535
-0.029293213 -0.2473537 0.2134957 0.1086917 -0.41323656 0.13850519 0.23234698 0.06353078
-0.6237047 0.44731542 0.059707247 -0.25536767 -0.107720025 -0.37044328 0.2295707 0.035289064
0.09223588 -0.3467826 -0.055636205 0.14477038 -0.0123476265 -0.13703245 -0.51012015 -0.20888604
-0.22601989 -0.033344146 0.11139948 0.20493704 0.03416806 -0.09167307 0.15147352 0.08360619
-0.2829473 -0.022775989 -0.24496242 0.18114674 0.08450768 -0.08899437 -0.1744665 0.17790177
-0.04586162 -0.047780223 -0.10942381 0.23177731 0.25283322 -0.063770175 -0.23556425 0.080348685
-0.18496576 0.15652233 -0.10495096 0.039179254 0.10549201 -0.1390245 0.14816742 0.069527395

conv_and_fc.4.bias f4 [12]
00000000: 3f81 033d 7c98 253d bfe6 28bd 37d6 afbc
00000010: 683a 673d 0d65 82bd a176 623c 5f8c 6dbb
00000020: f54a a3bd 5c71 b23c c3f1 2f3d d2aa b2bb
0.03210568 0.040428624 -0.04123568 -0.02146445 0.056452185 -0.0636693 0.013822229 -0.0036246998
-0.07973281 0.02178257 0.04295517 -0.0054524923

conv_and_fc.5.weight f4 [12]
00000000: 8a9a 893e 00bf 6f3e 5229 bb3e 28b3 6d3e
00000010: 30dd f33e 360f fe3e d5a0 db3e 73c0 b53e
00000020: 7a1b a23e 8cdb 923e 562c 5c3e 47be 013f
0.26875716 0.23412704 0.36554962 0.23212874 0.4762969 0.4962098 0.42896143 0.3549839
0.31661588 0.28683126 0.21501288 0.50680965

conv_and_fc.5.bias f4 [12]
00000000: b983 70be 6e98 49be 398c d6be 0dde 68be
00000010: 396b a2be c565 16bf 41d1 f2be a61d e7be
00000020: a9ab 88be fc9f 28be 93f6 3cbe a9af dcbe
-0.23487748 -0.19687054 -0.41903856 -0.22740956 -0.3172243 -0.5874904 -0.47425273 -0.45139807
-0.26693466 -0.16467279 -0.18453436 -0.43102768

conv_and_fc.5.running_mean f4 [12]
00000000: b6f4 dfbe f8ac 2abf 4ed5 4c3d 64d9 d3bd
00000010: 51ce 82bf ac5d 8fbf 5d49 10bf 87af 8abf
00000020: 3121 52bf 3976 b5bf 6682 1fbf d46f 61bf
-0.43741387 -0.6667018 0.05000811 -0.10344198 -1.0219213 -1.1200461 -0.56361943 -1.0834817
-0.82081896 -1.4176704 -0.6230835 -0.8806126

conv_and_fc.5.running_var f4 [12]
00000000: 8b92 c83e 3810 113f 383e 0f3f 25bd 073f
00000010: 2299 cf3f eac7 053f e048 073f 83e3 c23e
00000020: 4c6e 253f 47cf 973f 4719 a23e a76e 373f
0.39174303 0.5666537 0.55954313 0.53022987 1.6218607 0.5225817 0.52845573 0.38064203
0.64621425 1.1860131 0.3165991 0.7165322

conv_and_fc.9.weight f4 [10, 300]
00000000: 4bb6 15be 2e88 f33c dcc9 a73c f6e6 20be
00000010: f7f3 223e 87a1 63bd c32e f83d 2a02 98bb
00000020: 65f6 783d 82ad aebc 98b0 dbbd a12e 613d
00000030: 6fe3 b53c 01e5 e5bd 50e5 7ebd 2e46 7f3d
00000040: 5473 a63c b373 fdbc b9e6 95bd b1f6 42bc
00000050: 7a81 18bc e205 93bd 3337 f0bc 9729 18be
00000060: 5ff3 5d39 b547 fa3d 4482 5cbc 985c e1bd
00000070: 6a61 393c be6c 0f3d 8f79 b33c 75c5 c5ba
00000080: 1763 f53c 856a 1f3c aecd 3ebc 8bca fa3c
00000090: 4d13 d33a 6eb6 a33c 1a9c 19bd 32d2 6f3c
000000a0: 7931 0a3c 99e7 1dbd a275 823d c029 2cbd
000000b0: 41d7 9c3c 30c3 cdbc ecaf adbc 12e5 243c
000000c0: 746f b3bd de17 1fbd a1dd b93d 42cf ecbc
000000d0: e2ac 1b3d 1d2b f6bd 5de3 d5bd 1368 62bd
000000e0: 856b 9bbd af49 f53c 5d0f b3bc 1c77 0abd
000000f0: 8174 9fbc 385e 19bb f890 62bd 9732 97bc
00000100: 5554 acbd c4ff 11bc 1dcd aa3d b297 e6bc
00000110: 3127 d83c 85b9 a8bc 6386 bdbc a27f c63b
00000120: bfa1 933c b2cb c4bc 6340 ae3e d8f5 353d
00000130: 5e78 c3be 8c24 c43c 95b7 643b 5bf2 28bd
00000140: 8b3d 313e 4785 02be c9e5 6f3d a00b 83bc
00000150: 3d94 c9bd ed90 183e 58d6 843b 634a 0d3d
00000160: fde8 303d 5047 d43b ba6d d63c 393b d9bc
00000170: 0702 143d 43f7 2fbc 933f 82bd 4efe cfbc
00000180: db0c e83d d326 95bc 380e d4bc c9c8 bf3c
00000190: cef9 2dbe a2ba 54bd b751 d23c bcd2 28bc
000001a0: 194b c4bd bf72 df3c 2eee 6a3d c7cc bebb
000001b0: 51d4 cfbd 13c1 eb3d a56f 483d 4313 d5bd
000001c0: 4e8e 853e 2f7b 1abe afcb 023e 3cab e5bc
000001d0: 089a b3bd c7e0 193e eb40 12bd 5680 503d
000001e0: 86c7 ddbb c469 33bd 9d72 643e 64a6 1fbd
000001f0: 8115 5a3c 3395 8a3d 8f0e 343d f0cd 4d3d
00000200: 7b19 793d a87f 66bd 1934 033f 5185 e7bd
00000210: 5c30 db3d 2e85 a0bc be23 48bc c420 c43e
00000220: a2ef 82bd dfbd 253d 165d 05bd de76 c83c
00000230: 697a d53d 3536 59bd 84cb 8e3b 605b b5bb
00000240: 0b57 f7bb afc6 d53d a0b0 acbd a60c 0f3e
00000250: 0684 6dbe 3245 07be fa4e 74be 7507 01bc
00000260: ee0f 68bd 7e0f 293e 412b a23b 1d09 d13b
00000270: 7280 febd 0271 e5bd 84b8 48bb 1424 2bbd
00000280: 865e afbd babd 26bd 7428 4ebd 4f8c 973c
00000290: 846b 473b 4f25 3fbc d208 e6bd 88b0 833c
000002a0: d896 463d bc7f 2dbc 5d84 c93c e1aa 893b
000002b0: 8137 5e3d 110a 4abc 74e8 2a3d 9ffe 083e
000002c0: af16 5ebe 5e1e 8b3d fd11 80be 669e c8bd
000002d0: 2485 463d 0c31 c6bd ba65 393c a353 8dbc
000002e0: 9f83 5cbd ae64 f2bc f3ff d33c 8673 3a3d
000002f0: 6e07 b43d 7368 a83b b02b bcbd 0dce 3d3c
00000300: 1421 413c b8f4 103a c98f 30bd d5bf afbd
00000310: ceb2 8f3e 9a02 8d3d c224 a63e 6e0b 483d
00000320: 9061 0ebe 9f67 71bd 2115 023d 9ad6 4c3b
00000330: 25e3 293f 786a 8b3d 8d13 0b3e c7bb 3c3c
00000340: e242 01be 5bcb 053e 43ef bcbc 7ce4 2d3d
00000350: 38a3 b03c 43a7 fdbd 1628 393c 3fba 0e3d
00000360: aaf2 7cbb 85f4 8bbd 28b4 8bbd 7498 afbc
00000370: a208 723c 3e8d 0b3d e43f 8fbc cefb f6ba
00000380: 62f4 eabb ad99 003f 0dfe 023c 888e d53d
00000390: 6105 733d 8a00 e33c e3d6 83be dab3 013d
000003a0: 8656 233d f09a 81bd 8df8 01be 9af3 c23c
000003b0: 7efa 43bd a8c3 0c3d 9fbb f7bd 36e2 36bc
000003c0: 1c82 0d3b a9c9 66bd 4bc1 6c3d 819a 4e3c
000003d0: 1ffe 24bc 5cc1 46bd 2650 893c 5574 603d
000003e0: 9abd 3b3d 6f2a ffbc cc5a 45bd 2098 22bb
000003f0: 7d9c dcbc d96d 41be 2a25 8dbd fb7a 723d
-0.1462032 0.029728021 0.020481996 -0.15713105 0.15913378 -0.055573966 0.12118294 -0.00463893
0.060781855 -0.02132297 -0.10727042 0.05497611 0.022203175 -0.1122532 -0.06223041 0.062322788
0.020318665 -0.030938959 -0.073193975 -0.011899636 -0.009308213 -0.071788564 -0.029323196 -0.14859615
0.00021166865 0.12220708 -0.013458792 -0.11003989 0.011314729 0.035015814 0.02190855 -0.0015088754
0.029954476 0.009729986 -0.011645718 0.030614158 0.0016103775 0.01998445 -0.037502386 0.014637517
0.008434647 -0.038550947 0.06370093 -0.042032003 0.01914561 -0.025117487 -0.02120205 0.01006438
-0.08761492 -0.03884112 0.090754755 -0.028907422 0.03800667 -0.12019942 -0.10443757 -0.055275034
-0.07588867 0.029942362 -0.021857912 -0.033804998 -0.019464733 -0.0023402106 -0.055314034 -0.01845674
-0.084145226 -0.008911077 0.083399035 -0.028148506 0.026385875 -0.020596275 -0.02313537 0.0060576955
0.018021462 -0.02402291 0.34033498 0.044423908 -0.3817777 0.023943208 0.0034899462 -0.041246753
0.17308633 -0.12746154 0.05856875 -0.015996754 -0.09842727 0.14899035 0.004053872 0.03449477
0.043190945 0.0064782277 0.026175369 -0.026517497 0.036134746 -0.010740104 -0.06359782 -0.025389817
0.11330577 -0.01820699 -0.025885686 0.023411172 -0.16989824 -0.0519358 0.02567373 -0.010304149
-0.09584636 0.027276395 0.057356052 -0.005822751 -0.10147918 0.11511435 0.048934598 -0.104040645
0.26085132 -0.15086053 0.12773012 -0.028035752 -0.087696135 0.15027152 -0.03570644 0.05090364
-0.00676817 -0.043802038 0.22309346 -0.03897704 0.013310791 0.06766739 0.043959197 0.050245225
0.060815316 -0.056274086 0.5125137 -0.11304725 0.10702583 -0.019594755 -0.012215553 0.38306248
-0.063933626 0.04046428 -0.032559477 0.024470743 0.104237385 -0.05303021 0.004357757 -0.0055345744
-0.007548218 0.104382865 -0.08432126 0.13969669 -0.23194894 -0.1320999 -0.23858252 -0.007875313
-0.056655817 0.16509816 0.004949004 0.00637926 -0.12426843 -0.11203195 -0.0030627558 -0.041782454
-0.08562951 -0.04070828 -0.050331548 0.018499522 0.0030429075 -0.01166661 -0.11232151 0.016075388
0.0484837 -0.010589536 0.024599249 0.0042012786 0.05425215 -0.012331502 0.04172559 0.1337838
-0.2168834 0.067929015 -0.25013724 -0.09795837 0.048466817 -0.09677324 0.011315757 -0.017251795
-0.05383646 -0.029589023 0.025878882 0.045520328 0.087904796 0.0051394044 -0.0918802 0.011584771
0.011787672 0.000552963 -0.043105874 -0.08581511 0.28066105 0.06885262 0.3244992 0.048839025
-0.13904405 -0.05893671 0.03175843 0.0031255842 0.6636222 0.06807417 0.13581677 0.011519379
-0.1262317 0.13065855 -0.023063308 0.042454228 0.021562204 -0.12385418 0.011301061 0.034845587
-0.0038596787 -0.06833748 -0.068214715 -0.021435 0.014772566 0.034070246 -0.01748652 -0.0018843354
-0.007170246 0.5023449 0.007995141 0.10427576 0.0593313 0.027710218 -0.25749883 0.03166566
0.039877437 -0.0632838 -0.12692471 0.023797799 -0.04784631 0.03436628 -0.12096333 -0.011162331
0.0021592444 -0.05634466 0.057801526 0.012610079 -0.010070353 -0.048524246 0.01676185 0.054798443
0.045835115 -0.031148164 -0.048182294 -0.0024809912 -0.026930088 -0.1888956 -0.06891854 0.059199315

conv_and_fc.9.bias f4 [10]
00000000: 8ec3 a33d 4aff f03d 0f67 e33d fff2 d43d
00000010: c02c a43d 2e2f 0a3e 22b1 023e fd83 b63d
00000020: ed20 1c3e b80c bd3c
0.079962835 0.117674425 0.11103641 0.1039791 0.08016348 0.1349456 0.12762883 0.089118935
0.15246935 0.023077354
