Models/CNN.pt (torch, 202513 bytes, 18 tensors)

conv_and_fc.0.weight f4 [6, 1, 5, 5]
00000000: 0969 9abc 96db 90be b2aa 673e ba05 d7bd
00000010: 661d 633e b2ad b53d ad6e 22bb 806c 75bd
00000020: 0ab1 b1be cb1d 933e 2458 473e 23f3 76ba
00000030: 8f4b ba3c adc5 1ebe 2162 b4b5 6c99 ff3e
00000040: a468 443e efc1 d53c e67b a5be 6390 ccbe
00000050: 646a a23e 19a5 543d c53d 45be 6f60 a5be
00000060: 1934 333b 66d3 2c3a abf1 063d 9142 833c
00000070: 9468 0d3e 9173 bcbc 0043 873d 071f 67bc
00000080: 48cc 8a3e c3e8 613c f449 17bd ee27 143e
00000090: 3749 11be 8817 bdbd 4f73 123e ae95 eabd
000000a0: 495e ac3e bac6 aebe 14c2 b2be 6b2f 9e3e
000000b0: 28d6 0e3e 8d02 023f 6c0c b1be 167e 3ebe
000000c0: cf9c 75be 6403 af3d fc9e 153e 1942 9abd
000000d0: 9077 913d 4992 bb3d 812a 0dbe 27f0 2cbd
000000e0: 918e 28be 6a72 973e d0e0 ba3e 12c2 49be
000000f0: 4498 273d 5eec 583e 61dd 563e bdef 873e
00000100: 96a2 973e 21da 9fbe 7901 38be 5921 403d
00000110: 93ab a43e 9b36 383f 0245 69be 6a0e 96bd
00000120: b3f4 8abd 10df 68be 05c0 f0be 6061 02bf
00000130: 8965 973e 0cf3 4a3d 4824 66be 2322 aebe
00000140: 2dae 2ebe c17a b83e fb81 b4be b956 123e
00000150: e0fb c2bd 58da b73e 721e 853e 7ab4 67bc
00000160: 6cf7 97bd cbc3 3dbc e472 863e 73db d6bd
00000170: 113e 8dbd f228 4b3e 4777 3d3e 8c3f 4ebc
00000180: 2071 14bb eb55 e4bd 2475 39be 482b 693e
00000190: 751a a7bd c292 98be 8353 a63d 2e40 373e
000001a0: 74ba a2bd cfb4 83be c380 85be b6d1 d13e
000001b0: 68a0 4cbd 87fa 113e 1a77 fc3d 1745 8c3e
000001c0: 8749 97be 05df 083d 420d 163e eebc 1b3e
000001d0: 885f 8ebe 8f4f 95be b716 0b3f e2fe 1dbe
000001e0: 675f 32bd cc22 f9bc 8821 4b3d 449b 143e
000001f0: 24b8 ecbd 82dd bebd da93 f0bd 031f a53e
00000200: e575 2b3e e938 f1bb 3fde 90bd 9609 3abd
00000210: 6d3f 103e ba94 c53c b875 a53c 26eb e5be
00000220: f2ec 223e 07e2 c23e f991 943c fa9d 853e
00000230: 7579 f0be 1a58 98be bcaf b1be d49f 843d
00000240: 137d aa3e e4c9 1ebe 64b8 b2bd 5dc6 05bf
00000250: 00f5 88be fab8 35be
-0.018848913 -0.2829253 0.22623709 -0.10499139 0.22179183 0.088710204 -0.0024785206 -0.059917927
-0.34705383 0.28733668 0.19467217 -0.00094203855 0.022741107 -0.15505095 -1.3439604e-06 0.4992174
0.19180542 0.026093451 -0.3232109 -0.39953908 0.31721795 0.051915262 -0.19261844 -0.32300135
0.0027344285 0.000659278 0.032945316 0.016022952 0.13809425 -0.023004325 0.06604576 -0.014106519
0.2710898 0.013788405 -0.03693576 0.14468357 -0.14188085 -0.09233004 0.14301799 -0.114543304
0.33665684 -0.3413599 -0.34913695 0.30895552 0.13948882 0.5078514 -0.3457979 -0.18602785
-0.23985599 0.085455686 0.14611429 -0.075321384 0.07102883 0.09158761 -0.13785745 -0.042221215
-0.16460635 0.29579479 0.36499643 -0.19702938 0.040916696 0.21183917 0.20982887 0.26550093
0.2961623 -0.31221107 -0.17969312 0.046906803 0.3216215 0.7195832 -0.2278023 -0.07326968
-0.06784954 -0.22741342 -0.470215 -0.5092983 0.29569653 0.049548194 -0.22474778 -0.3401042
-0.1705863 0.36031154 -0.35255417 0.14290895 -0.095206976 0.3590877 0.2599979 -0.01414215
-0.07420239 -0.011582325 0.2625953 -0.10491075 -0.06896604 0.19839838 0.18502532 -0.012588393
-0.0022650436 -0.111492 -0.18111092 0.22770417 -0.08159343 -0.29799467 0.08121397 0.17895576
-0.07945719 -0.25723884 -0.260748 0.4098031 -0.049957663 0.14255725 0.12327404 0.2739646
-0.29548284 0.033415813 0.14653495 0.1520879 -0.2780726 -0.2916226 0.54331535 -0.15429261
-0.043548014 -0.0304121 0.049592525 0.14512354 -0.115585595 -0.09319593 -0.117469504 0.32250223
0.16744192 -0.0073615205 -0.0707364 -0.045419298 0.14086695 0.02411877 0.020197734 -0.44905967
0.159107 0.3806307 0.018136011 0.2609709 -0.46967664 -0.29754716 -0.34704387 0.06475797
0.3329855 -0.15506703 -0.08726576 -0.52255803 -0.2674942 -0.17746344

conv_and_fc.0.bias f4 [6]
00000000: 3880 09be b9d3 e2bd 181f 2f3e 7d11 883c
00000010: c7ac 1b3e 46de 09be
-0.13427818 -0.11075539 0.17101705 0.016609902 0.15202628 -0.13463697

conv_and_fc.1.weight f4 [6]
00000000: de3b 873f 29f0 303f b4fe 323f 33b5 533f
00000010: fc00 873f 2c6b c43f
1.0565145 0.69116455 0.69919896 0.82698363 1.0547175 1.5345206

conv_and_fc.1.bias f4 [6]
00000000: ec9d 393e d386 903d 2926 86bb ece4 603c
00000010: 1177 8f3c ad23 8cbe
0.18126649 0.07056966 -0.0040939045 0.013726454 0.01751283 -0.27370968

conv_and_fc.1.running_mean f4 [6]
00000000: 0f00 18be c741 71bc 6d0c df3e 6081 183d
00000010: dafe 2b3e b5c0 ebbe
-0.14843772 -0.014725155 0.43564168 0.037232757 0.16796437 -0.4604546

conv_and_fc.1.running_var f4 [6]
00000000: 8aaf e93d 2ae8 483d 05a7 423e 927f 403d
00000010: 5cb2 213d e2ce 8c3e
0.114104345 0.049049534 0.19009025 0.04699666 0.039476737 0.2750159

conv_and_fc.4.weight f4 [12, 6, 5, 5]
00000000: 0973 87be 4c45 433e fd86 dbbd 3a20 013d
00000010: ab52 9e3d 2add 4bbe 2de2 9cbd c5f3 abbe
00000020: 5ee7 0bbe 14bb 96be 4c17 083d 728f 06be
00000030: 534e 9cbe 5c45 f53d aa38 44be d52c b93d
00000040: 1f00 133e b3f4 093e 65be 803e f108 b83d
00000050: a863 443e 62af 0ebe df78 78bd 10bf a73d
00000060: 61b0 aabe edcd 083e f045 f9be 5592 1d3c
00000070: caf6 eabd 6e37 f2be 04f1 913e 6fe5 733e
00000080: f0af 2d3e 0d33 30bf 1631 c2be a920 1cbe
00000090: 2893 823d f2eb 2e3d 1218 d1be dc8e 78be
000000a0: c075 87bd 7893 a03e 11f1 0d3e 60b9 313e
000000b0: db31 47bd 2ba7 043e 4064 dc3e 5cef 1abe
000000c0: 5066 4f3e 8444 83be 6f4b 2cbe bcf7 78bd
000000d0: 0d76 5cbe 8668 573d b6ad 603e 4f1c 8d3e
000000e0: 49db fdbd 76c5 35be 68f0 98be 7288 03be
000000f0: 219a 8c3d 6600 6a3e 5740 f63d e86f 0d3e
00000100: 7d2e c03d 6946 01be c3a1 063e 8254 833e
00000110: 7ab5 d33e cbfa 3d3c f396 36bb 7a84 d33e
00000120: b434 04be 64ad 9d3e a61d 803d fe55 563e
00000130: 3500 fa3c 4401 513e 12d8 bebe 0061 3abd
00000140: 7e26 30bd 67a3 9e3e bdf1 c33e 532d 4abe
00000150: 9400 f13d e4cf 8e3d fc6f 4e3e df61 433e
00000160: ab67 6cbd 5e7a 69bd 0550 08be 5cf6 96be
00000170: 51ca a0bd d563 35be 5cf7 6cbe 0aef 1cbe
00000180: fc31 13be aa28 8a3d d402 2e3e 119c ac3e
00000190: 5372 2ebe d2f9 8bbe 4723 9fbe 9c0c d83d
000001a0: 183d 333e d39d f03b 6a51 bf3c 8e34 17be
000001b0: 233f 9fbb db79 b93b fc99 053e 3fbc 18be
000001c0: 7efe 4abe 8095 63bc 0615 283e 24c1 623d
000001d0: 0967 c63d c9ea babe 1404 31be 0002 08be
000001e0: 4f67 1a3e fa84 5f3e e7fb 0ebe ec93 f7bd
000001f0: 8d00 e8be 3d37 42be 95c5 aabe 6fc0 2d3e
00000200: fffd c03e 5288 db3e 8e91 c73c 8dfe a4be
00000210: 1cad 8bbe 2ab1 4fbe 984e 09bf 4318 883e
00000220: 2759 203e 56e6 823e 6156 853e d289 b33d
00000230: 9f99 5c3e 4367 883b fcd1 4ebd 39ca 343e
00000240: 21e5 ed3e e63c 95bd c334 4cbe 3adb a3bd
00000250: c126 68bd 67b1 943c 3880 7fbe b0fa c2be
00000260: f071 273e 5c8f bcbd 83fb c7bd 45e4 ef3d
00000270: 454b f53d 3a23 a5be 5b7c 863c 57b2 c83d
00000280: b78d 713d 933c 923e 4957 d9be 65e5 88be
00000290: 46e3 203d 144d 36be 3af2 223f 45fc 2f3e
000002a0: ebeb 04bd 4ec8 20be ddfe 2abe 5969 c93e
000002b0: c8f6 2c3e 8742 3d3e d40d 663e 7fc5 00be
000002c0: 2d67 953c 26ce 41bd f4b8 7b3d 9032 f1bd
000002d0: bb51 3a3e 8656 84bd ef3e c0bd f493 023e
000002e0: 0e56 fa3d 8b8f af3b e35c c23d f077 353e
000002f0: fb03 99bd 0eb3 e6bd 7f5f fabd 1362 473d
00000300: e504 f63e 2079 2fbe 3180 eebb 9eb0 643e
00000310: eafc 39be e6fe ea3e 1bfc 9fbe 19e2 b23d
00000320: b5be b93d bd96 3ebd c868 a5bc 9ea3 e63e
00000330: 42bd 923e bca7 26be 8e33 08bd a172 183e
00000340: 1bd6 4abe e845 103d f5d7 fdbd ede3 8ebe
00000350: 974a 26bd b8bc 8ebe 5164 9dbc 4e08 f8bd
00000360: 8446 79be b331 53be 2d4c 65bd 3157 a53e
00000370: 97a3 1f3e 7224 72be 9c87 01bc 9f89 88be
00000380: cfde c3be f5ec de3c 8a78 60be c2ab 7f3d
00000390: 4456 453d 8ee8 983d aedd ad3d 82b7 3ebe
000003a0: e260 b83d ec98 7dbe 72be 223e 6ad5 a03e
000003b0: b5cd 793c 6eb1 61be cf6c dd3d c61e 293d
000003c0: 92e2 b0bd 9b40 3cbe 9edd 91be 800d 913d
000003d0: 6fdb 9fbb 33d8 b63e 2fd8 d3be 3587 c53d
000003e0: c900 d9be 5d31 853d 7f31 113e 2311 263e
000003f0: 27b8 953e c16c 883c 6547 f8bd 9db4 6c3c
-0.26454952 0.19069403 -0.10719106 0.031524874 0.077306114 -0.19908586 -0.07660327 -0.3358442
-0.13662478 -0.29439604 0.033225343 -0.13140658 -0.30528507 0.1197612 -0.1916224 0.09041754
0.14355515 0.13472252 0.2514526 0.089860804 0.19178641 -0.1393409 -0.060662147 0.08190739
-0.3333769 0.13359804 -0.4868617 0.009617408 -0.114728525 -0.47307914 0.28504193 0.2381799
0.16961646 -0.688279 -0.37928075 -0.15246834 0.06375724 0.042705484 -0.40838677 -0.24273247
-0.06614256 0.3136251 0.13861491 0.17355871 -0.04863153 0.12954395 0.43045235 -0.15130371
0.20253873 -0.2563821 -0.1682565 -0.060783133 -0.21529408 0.052589916 0.21941265 0.2756066
-0.12395341 -0.17751107 -0.29870915 -0.12845019 0.06865335 0.22851714 0.120239906 0.1381222
0.09383867 -0.12624516 0.13147645 0.25650412 0.41349393 0.011595438 -0.002786097 0.4131201
-0.1291073 0.3079635 0.06255655 0.20931241 0.030517677 0.20410639 -0.37274224 -0.045502663
-0.04300546 0.3098404 0.3827037 -0.19743852 0.117676884 0.06973246 0.20159906 0.19080304
-0.057716053 -0.057001464 -0.13311775 -0.29484832 -0.07851089 -0.17713864 -0.23141235 -0.15325561
-0.14374536 0.06746037 0.16993266 0.3371282 -0.17035799 -0.27339035 -0.31081602 0.1054928
0.17503774 0.007343033 0.023354251 -0.14766142 -0.0048598214 0.0056602783 0.13047022 -0.1491556
-0.19823644 -0.013890624 0.1641427 0.055359975 0.09687621 -0.36507252 -0.17286712 -0.13282013
0.15078472 0.2182807 -0.1396328 -0.12088761 -0.4531292 -0.18966384 -0.33353868 0.16967939
0.37693784 0.42877442 0.024361398 -0.32225457 -0.2728051 -0.20282426 -0.5363555 0.2658101
0.15659009 0.25566357 0.26042464 0.087665215 0.21542977 0.0041627004 -0.050493225 0.17655267
0.46463874 -0.07287006 -0.19942002 -0.080007985 -0.056677584 0.018150998 -0.24951255 -0.38081884
0.16352057 -0.09207031 -0.09764769 0.11713461 0.11977247 -0.32253438 0.01641672 0.097996406
0.05897304 0.2856184 -0.42449406 -0.26737514 0.039279245 -0.1780284 0.6365086 0.17186077
-0.03245155 -0.1570141 -0.16698785 0.39338186 0.16891015 0.1848241 0.22466213 -0.12575339
0.018237675 -0.04731574 0.061455682 -0.11777222 0.1819524 -0.064618155 -0.09387004 0.12751752
0.12223445 0.005357688 0.09490373 0.17721534 -0.07471462 -0.11264621 -0.12225246 0.048677515
0.4805061 -0.1713605 -0.007278465 0.22332999 -0.18162885 0.45897597 -0.3124703 0.08734531
0.090695776 -0.046530474 -0.020191565 0.45046705 0.28660017 -0.16274923 -0.03325229 0.14887477
-0.19808237 0.035222918 -0.12394706 -0.2790827 -0.04059848 -0.27878356 -0.019212874 -0.12110959
-0.24343306 -0.20624427 -0.05598085 0.32293084 0.15589748 -0.23646715 -0.007905867 -0.26667497
-0.38255927 0.0272126 -0.21920982 0.06241966 0.048177972 0.07466231 0.08489548 -0.1862469
0.09002854 -0.24765366 0.15892962 0.31412822 0.015246798 -0.2204034 0.10811769 0.041289113
-0.08636965 -0.1838402 -0.28489393 0.07082653 -0.0048784534 0.35711822 -0.41375872 0.09644929
-0.42383412 0.06503556 0.14179038 0.16217475 0.2924206 0.01665342 -0.121229924 0.014447358

conv_and_fc.4.bias f4 [12]
00000000: 2864 043d a624 753c 3d24 e33c 7f26 053d
00000010: d0f5 bb3c e318 dd3c d98b 693d b34b 86bd
00000020: 97bb b53c 5bd2 4abd 18d2 163d a89a 4b3c
0.03232208 0.014962351 0.02772724 0.032507416 0.022944361 0.026989406 0.057018135 -0.06557407
0.022184176 -0.049517017 0.036821455 0.01242701

conv_and_fc.5.weight f4 [12]
00000000: 1518 6a3f 39ce 4d3f c320 7f3f 2710 533f
00000010: a8cf 3b3f 89bd 673f e979 673f cd19 663f
00000020: 29e0 493f f50c 843f 88b2 773f a24b 3b3f
0.91442996 0.80392796 0.99659365 0.8244652 0.73363733 0.9052358 0.90420395 0.8988312
0.78857666 1.0316454 0.9675679 0.7316228

conv_and_fc.5.bias f4 [12]
00000000: 1295 aebe d34e cdbe 5040 17bf 941c ddbe
00000010: a0c3 d0be 4905 06bf dba0 05bf 884d ffbe
00000020: 0265 02bf 68a2 0dbf 8c0e 06bf e12e f0be
-0.34098107 -0.400992 -0.5908251 -0.43185866 -0.4077425 -0.52351815 -0.5219857 -0.4986384
-0.50935376 -0.5532594 -0.52365947 -0.46910766

conv_and_fc.5.running_mean f4 [12]
00000000: 1f7f b2bf 5774 8fbf 9b76 32c0 0b0b 96bf
00000010: e563 4cbf dff9 d6bf 25ba 49c0 5458 2cbf
00000020: eefa 62bf 922d 57c0 93b8 40c0 b66e 06bf
-1.3945044 -1.1207379 -2.788489 -1.172212 -0.79839927 -1.6795005 -3.1519864 -0.6732228
-0.8866414 -3.3621564 -3.0112655 -0.5251268

conv_and_fc.5.running_var f4 [12]
00000000: 020c c740 6ce7 b240 a4e0 c340 fcaa 9c40
00000010: 314c 9140 f7d9 aa40 f8d2 a540 6968 e740
00000020: 9bc9 9240 9677 e740 54b7 d740 742e 6540
6.220216 5.5907497 6.121172 4.895872 4.5405507 5.339107 5.182003 7.2314954
4.58711 7.233348 6.741129 3.5809603

conv_and_fc.9.weight f4 [120, 300]
00000000: 88ac 5dbd 2c5a 083d 1079 6fbc 3bbd 4c3c
00000010: 7b50 57bd 1711 67bd 1a9d 093d 75bc 59bd
00000020: a6d6 e8bb 0d1e af3c c970 d3bc 0c2f 29bd
00000030: f714 ad3c 2301 9bbc d5cb 28bd 13f9 e1bc
00000040: 38f3 6dbd 3dac 36bd a1ac 73bd 8fa5 14bd
00000050: 3b8e 483a 6a90 90bc d75d b3bc b687 963a
00000060: 50a3 0a3d 256e 1a3d 535b 56bd f83b abbc
00000070: 794e a4bc 9bc1 b5bd e1c0 9abb 7518 5fbb
00000080: ce11 48bc f15c 303c 97bc 37bd a26a 46bc
00000090: ac88 0bbd 38d1 ebbc 79de 6abc e82a e7bc
000000a0: 6e0d bf3c c685 24bd 3488 08bc ed61 c23c
000000b0: a319 c4bc 78cd 3ebd f11b d6bc dfde 3f3b
000000c0: 2da2 19bd dae0 75bd 42e2 94bd 68d3 a9bb
000000d0: 8561 35bd 9ae1 43bc d671 22bd 5468 cebb
000000e0: e394 f239 1bb3 d9bc d669 98bd 49b5 0fbc
000000f0: 4074 383d bc99 5bbd d6b9 84bd be34 59bc
00000100: 28b3 40bd 4e18 78bc c707 a2bd f552 dcbc
00000110: 3d66 cbbb b034 89bd 2765 86bc d2e3 0d3b
00000120: bf37 7ebd 5720 6abd 0d61 e6bb 5bab 8abc
00000130: 225f 82bd ecd9 4e3c 43d0 233c 207a 94bb
00000140: 2cc6 0c3d 00ef b6bd 8143 34bd fd0e 3bbb
00000150: 8008 52bd 956c 61bc 6fa4 79bd fc8c 4fbd
00000160: 96f9 c53b 3755 90bd bd24 02bd eaf9 8fbd
00000170: 904c 3cbd 9575 24bd 205b c43a c41f a2bc
00000180: 7fe7 89bd c6e9 e6bc 7ce4 f13c f11c ccbb
00000190: 18ab 10bd 3e8b 55bd e63e 16bd 7c38 b43b
000001a0: d386 2f3d d284 7ebd d73a 8439 6c9e 063d
000001b0: ca10 163d bed5 debc b139 5fbc 76b0 babb
000001c0: 64b1 b33b 1b8f b9bd 4cf6 043b 3cae 3cbd
000001d0: c32c 7abc 551b 87bc e467 c5bc 1d44 40bd
000001e0: 496a d8bc ef91 a9bd b208 143d de3d 523b
000001f0: 272c acbd c7a2 eabc 3b3a 6bbd 17d7 543c
00000200: 8a41 cebc 5f0b d2bc e4c7 5cbd 4c22 12bd
00000210: 44ec 3fbd 450a 6f3b 71e1 5bbd d145 4d3c
00000220: 5c1c 463c e086 14bd 16d6 153c d114 6a3c
00000230: f3c7 aabc a4b4 84bc d59e 62bd bc67 3fba
00000240: af47 80bd 4cfe 58bd 5971 acbb 3035 9c3c
00000250: 374f 45bd 8d25 6ebd e74a b0bd ba97 68bd
00000260: bbf4 3bbd 7d56 02bd 8b08 17bd eea3 96bd
00000270: ca74 383d fb5c a33c 5ca6 99bc 1753 70bd
00000280: 8805 fb3c 9500 77bc 9869 893c 49c7 33bd
00000290: 75e0 9ebd 514f 80bd 9887 eabc 7cee 81bc
000002a0: 12f6 7bbd 5105 9ebd 483f 21bd 8a6e 3cbd
000002b0: 065f febc a144 6bbd 2c34 b9bc a8d9 89bd
000002c0: be13 18bd 706b 85bd e82b 6a3c 4c30 8c39
000002d0: 2e96 8abc cbab abbc 8327 edbc b641 b7bc
000002e0: a46a 95bd a31d 253d 065f ad3b 9e26 5cbc
000002f0: e5fb c0bd 7ed2 15bc f801 863c 4318 3fbd
00000300: f47e e73c 44cc 33bd 7da0 a03c f1f1 c2bc
00000310: eebb fe3b 4cd0 29bd a78a 1cbd 90d1 053d
00000320: 9150 c33b c79f db3c c436 92bd c9e5 98bc
00000330: e016 44bc 1ef2 7abd 8384 b9bd e613 9abd
00000340: 9938 d1bc a9c1 b8bd b41f 57bc d44d efbc
00000350: 80fe dcbb 7b5e 19bd f7a6 55bd f389 c4bb
00000360: 4c05 87bd e760 f93c 3f86 2b3d 704e 80bd
00000370: 4799 41bc 32db 8eba c804 8ebb 2dfb db3c
00000380: 3eaf 09bd 7fcf b3bd 5d2a 0cbd b4d9 3abd
00000390: 84ad 7fbd fba2 d9bc 7d57 acbd 79e2 7dbd
000003a0: 6aed b0bc 89f5 36bd c9d4 ecbb 5fcc 363b
000003b0: b483 4abd 2f70 28bd fea6 6bbc 6c90 57ba
000003c0: 082c a6bc ccea a13c 24bd c03c 3e54 8bbc
000003d0: ab5d 453d d1e8 053b 5956 1cbd 5030 03bd
000003e0: 8895 143c 6905 51bd c081 65bc 1890 47bd
000003f0: 44f4 01bd b89d d33c b769 03bd 25fd 07bc
-0.054119617 0.03328912 -0.014616266 0.012496288 -0.052566987 -0.056412783 0.03359709 -0.053158242
-0.007105666 0.021376634 -0.025810616 -0.041304633 0.02112816 -0.01892144 -0.041210014 -0.027584588
-0.05809328 -0.044597853 -0.059490804 -0.0362907 0.00076505885 -0.017646987 -0.021895332 0.0011484537
0.033847153 0.0377027 -0.052333187 -0.020902619 -0.02005695 -0.08874818 -0.0047227 -0.0034041677
-0.012211276 0.010764346 -0.044857588 -0.012110384 -0.034065887 -0.028786287 -0.014335268 -0.028218701
0.023321833 -0.04016664 -0.008333255 0.023728335 -0.023938006 -0.04658267 -0.02613637 0.0029277129
-0.03750818 -0.06002889 -0.07269718 -0.0051826723 -0.044282455 -0.011955643 -0.039659344 -0.006299058
0.00046268766 -0.026574662 -0.074420616 -0.008771249 0.04503274 -0.05361341 -0.06480758 -0.013257204
-0.047045857 -0.015142513 -0.0791164 -0.026895026 -0.006207256 -0.066995025 -0.016405655 0.0021650684
-0.062064882 -0.057159748 -0.0070306123 -0.016927412 -0.063658014 0.012625199 0.009998384 -0.00453116
0.03436868 -0.089323044 -0.04400969 -0.002854287 -0.051277637 -0.013758798 -0.06094783 -0.050671563
0.006041716 -0.070475034 -0.031773318 -0.07030089 -0.045971453 -0.040151197 0.0014980771 -0.019790538
-0.067336075 -0.028187644 0.029527895 -0.006229036 -0.035319418 -0.052134745 -0.03668108 0.0054998975
0.042853188 -0.062138386 0.0002522084 0.032865927 0.036637105 -0.02720153 -0.013624595 -0.0056973053
0.005483793 -0.09060498 0.0020288406 -0.0460646 -0.015269461 -0.016492525 -0.02409739 -0.046939958
-0.026417868 -0.08279788 0.036141105 0.0032080333 -0.08406859 -0.028642071 -0.05742858 0.012990735
-0.025177736 -0.025640188 -0.053901568 -0.03567724 -0.04685618 0.0036474627 -0.053681795 0.012528853
0.012091722 -0.03626144 0.00914528 0.01428719 -0.020847296 -0.016199417 -0.055327255 -0.00073015294
-0.062636726 -0.05297689 -0.0052625355 0.01906833 -0.04817125 -0.05814128 -0.086080365 -0.056785323
-0.04588769 -0.031820763 -0.03687338 -0.07355486 0.045033254 0.019941797 -0.018756084 -0.05867299
0.030642286 -0.015075822 0.016773984 -0.043891225 -0.077576555 -0.062651284 -0.02862911 -0.015860789
-0.061513968 -0.07715858 -0.03936699 -0.046003856 -0.03105117 -0.057438497 -0.022607885 -0.06730968
-0.037128203 -0.06514633 0.014292695 0.00026738865 -0.016917314 -0.02095594 -0.028949505 -0.0223702
-0.07295731 0.040311467 0.0052908687 -0.013436941 -0.09423045 -0.0091444235 0.01635836 -0.046653997
0.028258778 -0.043895975 0.019607777 -0.023797007 0.007773868 -0.041458413 -0.038218167 0.032670557
0.005960532 0.026809586 -0.07139352 -0.018664258 -0.011968344 -0.061266057 -0.09058478 -0.075233266
-0.025539683 -0.09021313 -0.013130117 -0.029211916 -0.006744206 -0.03744362 -0.052161183 -0.00599789
-0.06592807 0.030441714 0.041876074 -0.06264961 -0.011816329 -0.0010899066 -0.004334066 0.026853168
-0.03361439 -0.08779811 -0.03422009 -0.045617774 -0.062421337 -0.026566973 -0.084151246 -0.06198356
-0.021597583 -0.044667754 -0.0072275144 0.002789281 -0.04944201 -0.04112261 -0.014383076 -0.00082231197
-0.020284668 0.01976528 0.02352769 -0.017007943 0.04818503 0.002043296 -0.038168285 -0.032028496
0.009068854 -0.05103055 -0.014007986 -0.048721403 -0.03172709 0.025832042 -0.03208324 -0.0083001

conv_and_fc.9.bias f4 [120]
00000000: 16ef 3f3c 8266 b73e 0a2e 1c3f bae6 f9bc
00000010: 309e 9f3b 971e 65bd 3382 25bd 4fb1 113d
00000020: f340 f4bd 09ee c1bd 3a07 49bd 43e7 d53d
00000030: 8453 93bd facf 343d 5146 d03d 3012 01bb
00000040: 0d0a fabc 7350 1fbe f0c5 ef3d 8dc6 0abd
00000050: fbf9 e3bd acab 1c3c 4d66 b53b 4fc6 02be
00000060: 638a 193e 3ca8 103e 4b3c d3bd 2a7f b2bd
00000070: 39ee 523d 9efe c4be 55bd bfbc 8d47 29bc
00000080: b394 cdbc fb4d 683c cef4 adbd b7c5 f63c
00000090: dbf5 67bd 8b27 4ebd 97ad d5bd c881 d7bc
000000a0: 01da 5bbd 8888 40bd 3633 893c 02f8 d0bc
000000b0: b224 083d 45f3 f2bd 85d3 373e 4c14 1ebe
000000c0: bb24 a5bd 8b02 57bd fcd8 a1bd adf1 a23d
000000d0: f005 b5bd 074c 87bc c808 0bbd 949c 603d
000000e0: 0820 a83d a050 dd3d e4a5 163e c9f1 723d
000000f0: 7303 cbbc affc 043d abfb 9ebb 0037 053d
00000100: c367 2cbd d721 b83d 21c0 86bd 2063 c4bd
00000110: 52c2 063c 571c 60bd 6f2d 53be 7d86 c0bc
00000120: 43f1 66be 5be2 9abc bcac 8dbe fb0e e3bd
00000130: bc03 fe3a f9e4 2cbc 7302 013e a02a 72bd
00000140: bd13 74bd c3de b1bc fc5d 21bc cb62 6fbc
00000150: 5c15 84bd f811 19bd 08ae dcbd 784e f43e
00000160: 2168 f33d aa86 ecbd 0085 c23a 511f 11be
00000170: 7355 503c 0bf6 9fbd 3b76 4bbe b72e cb3b
00000180: b844 99bd 3cf8 bcbc 41be 8dbd e938 6dbc
00000190: a2e3 023d 6b23 253d f033 94bd 48cf f4bd
000001a0: 2b21 17bc 03df 2d3e e12a 893c 7926 b13d
000001b0: e71a 0cbd 64e9 a53d 76e7 183d 971a 1e3e
000001c0: 6a34 0fbd 7bf4 093e 252c 153c 10ca 31bd
000001d0: 8cf1 1d3e 52ff 08be 99ef 89bd c65c 42bd
0.011714717 0.35820395 0.6100775 -0.030505527 0.0048711523 -0.055937376 -0.04040737 0.035569485
-0.119264506 -0.0946923 -0.049079157 0.104445 -0.07193664 0.044143654 0.10169662 -0.0019694678
-0.03052237 -0.15558033 0.117076755 -0.03388076 -0.11131664 0.009562414 0.005535877 -0.12770961
0.14994197 0.14126676 -0.10314234 -0.08715661 0.051496718 -0.38475507 -0.02340571 -0.010332
-0.02509532 0.014178748 -0.084939584 0.030123575 -0.05663095 -0.05033068 -0.104335 -0.026307002
-0.0536747 -0.047005206 0.016748052 -0.025508884 0.03323812 -0.11862806 0.17951782 -0.1543743
-0.080636464 -0.05249266 -0.079027146 0.07956252 -0.08839023 -0.016515745 -0.03394392 0.054836825
0.082092345 0.108063936 0.1471172 0.059312616 -0.024781918 0.03246754 -0.0048517785 0.032523155
-0.042091142 0.089908294 -0.065796144 -0.09589219 0.0082250405 -0.054714527 -0.206228 -0.023501629
-0.22552972 -0.018906763 -0.27670848 -0.11086842 0.0019379775 -0.010552638 0.1259859 -0.05912268
-0.059589136 -0.021712666 -0.009849068 -0.014610956 -0.064493865 -0.037370652 -0.10775381 0.47716117
0.118850954 -0.11549123 0.0014840662 -0.14172103 0.012715685 -0.07810601 -0.1986932 0.006200637
-0.0748381 -0.023067586 -0.06921054 -0.0144789005 0.03195537 0.04031698 -0.07236469 -0.11953598
-0.009224216 0.16979603 0.016744079 0.08649916 -0.034205344 0.08101156 0.037330113 0.1543983
-0.034962095 0.13472168 0.009104763 -0.043405592 0.15424174 -0.13378647 -0.06735153 -0.047451757

conv_and_fc.11.weight f4 [84, 120]
00000000: 5fd0 803d bbca ddbd 4f0a de3c c50d 4ebd
00000010: bf09 39bd c79d ecbd 683b 20bd 55c6 9dbd
00000020: 828f 1fbe 537a 3cbe 89d3 4f3d bd30 a4be
00000030: d89e 42bd 503d 28be 8beb 01be d08b 5f3d
00000040: 5016 eb3c dbcd 89bd 5c8c c9bd 4db4 92bd
00000050: b05e cebe ec41 623d 1723 67be c7fc 083d
00000060: cce3 cfba 2212 843c 7c38 103d d6ae 54bd
00000070: b03c bd3d 2214 36be cef5 b13d 0be8 4c3a
00000080: f435 0f3e 4b43 6fbe b806 c4bd 1c8a 85be
00000090: 8075 57bd 9f09 733d ff5e 0dbe b4fc 14bd
000000a0: 8ea2 c6bc 06b2 bdbc f910 f03d e1bc b6be
000000b0: 789a 33bd 85f2 acbc eddd 183e fb9b a43b
000000c0: 9bfa bcbb 7d18 163d e53b 17be e61e 4dbe
000000d0: 3eb7 8cbb 84ae e8bd 45e7 8ebc f89f d9bd
000000e0: bba0 013d df49 86be 9583 66be 86f1 b1be
000000f0: bdc8 6c3a 371f adbe 26c2 fd3c f913 28be
00000100: efcf 96bc 935d 7e3e 0a19 cd3b 9494 503d
00000110: 4aa1 91bd 80c3 1c3e 98fb 90be c309 47bc
00000120: bec3 88bd a99f b7bd 2b11 9bbd f5d4 85be
00000130: 6e76 28bf 4419 7cbd 5ac8 13bf 6747 9d3d
00000140: 6f25 99bd 93d2 bb3c ec1d 8fbc 6e5f d7bd
00000150: 120e 473d 89a1 ee3c 1e60 c8be 4eb3 d6bc
00000160: 3a45 58be f5b7 023d 035f 8cbd 7bd7 c8bd
00000170: 7023 57bd 3490 59bd 7874 f1bd ac01 35be
00000180: bc48 5dbe f201 e6bc 0e4b b43d 9099 06bd
00000190: b129 38be 5a9f 203d 7346 15be 99b4 6bbe
000001a0: 20c6 2a3d 2b79 86bd b139 553e 658e 69be
000001b0: 3cc9 403d 11f1 a1be 7557 e2bd e768 c2bd
000001c0: 01fe 38bd ca27 c3be 2621 62bd 0627 6bbc
000001d0: 1065 52bd d679 76be 5d11 59be 920b 11bd
000001e0: 8d43 933d b9b5 27bd 96e1 fbbc d345 28be
000001f0: 67d6 21be b20e 21bf fa95 c03c 39c4 7bbd
00000200: 3cf2 f2be 28b8 bbbd e186 7b39 9b7a 8ebe
00000210: 37be a03c 7ad6 2abd cfdc 28bc a782 75bb
00000220: 3a9f 2cbe 5cf4 c2bd f202 87bd a5b3 36bd
00000230: 2350 92be 27c3 a6bd cfde 2bbe 8a14 a6be
00000240: 2127 1abe 1243 913b 5acc 193c ec4e 563d
00000250: fdcc 87bd a4dc 89be 91bd 6abe 4fa6 173e
00000260: 459a 833d 8336 b2bd a504 10bd a102 f2be
00000270: 2355 45bd b6b6 d0bd 7d2a 5fbe 19f7 24bd
00000280: 34ca 9ebd de36 7abe e688 a73c ff0b 09be
00000290: c3aa 4f3d fe20 1cbe 683b ca3d e5ad dbbd
000002a0: 87bc 50be ba3c 2b3d 2faf 493d 6e14 0cbd
000002b0: 2e14 4c3e 9eeb ccbd 99e5 73be a35c a0bc
000002c0: 6243 92be 183b 6a3c b17d 7a3c b86f 9cbe
000002d0: 3e58 14bd 7e9b 09be 0785 62bd 60af d0be
000002e0: e5e3 34be de48 243c 0c8a ea3c 20a8 5cbe
000002f0: 408f 88bc 14be 0abe cc49 1abf e9f0 a73d
00000300: 6916 28bd 3570 0abc 4f57 603c 5480 d4bd
00000310: 134f 83be 1dad 363d 461f b3bd 73bf 81bd
00000320: 43d9 ab3e b039 b1be b310 053d c289 5bbe
00000330: e83a 96bd 7ccc c73d 3e3d c6bc fb61 f1bc
00000340: f345 1cbe b259 39bc 405a b93d 8224 7a3e
00000350: 8ef7 07bd 5318 fabd d331 873d 3ce1 c5bd
00000360: a4bd 503d 5a99 543b cc34 c7bb 5e47 853d
00000370: d342 43be eaab c53d e699 16bd 39ef 45be
00000380: 18c7 a13d ef8d 05be 086d 953c 6359 0b3d
00000390: 265d 06be 151a ba3d 4d46 c0bd 376a f5bd
000003a0: 46df 873c 285e 47be 0c86 0fbd 05e6 f1bd
000003b0: abd5 10be 4e56 c5bb 6c4c e83d 5a11 83bd
000003c0: e186 a5bc 3d6f 98bb 7790 8e3d 1253 8cbe
000003d0: 7383 c3be 2770 1b3d 5d1e a3bd 49d6 8abc
000003e0: 4585 063d c1c3 9abe f6cc 3d3d 51b6 bdbe
000003f0: 9c81 5a3d 9f1d 27bd ca0c 1c3d 5866 abbc
0.06289744 -0.108296834 0.027104525 -0.0503061 -0.04517531 -0.11553531 -0.039119154 -0.077038445
-0.15582088 -0.18406038 0.050738845 -0.32068434 -0.047514766 -0.16429639 -0.12687509 0.054576695
0.028697163 -0.06728717 -0.098412246 -0.07163296 -0.40306616 0.05523865 -0.2257198 0.033444192
-0.0015860735 0.016121928 0.035210118 -0.05192455 0.09240091 -0.17781118 0.08689462 0.00078165595
0.13985425 -0.23365514 -0.09571594 -0.26081932 -0.05260229 0.059335347 -0.1380577 -0.03637381
-0.024247434 -0.023156177 0.11721987 -0.35690978 -0.043848485 -0.021111736 0.14928408 0.005023477
-0.005767179 0.036644448 -0.14768942 -0.20031318 -0.004294305 -0.11361411 -0.017444262 -0.10626215
0.031647425 -0.26228234 -0.22511132 -0.3475458 0.0009032598 -0.33812878 0.030976366 -0.16413869
-0.018409697 0.24840383 0.0062590884 0.050922945 -0.071108416 0.15308952 -0.2831695 -0.0121483235
-0.0667796 -0.08966 -0.07571634 -0.26139036 -0.6580571 -0.061547533 -0.5772759 0.076796345
-0.07477843 0.022927558 -0.017470323 -0.10516249 0.048597403 0.02912976 -0.39135832 -0.026208546
-0.21120158 0.031913716 -0.068540595 -0.09806725 -0.05252403 -0.05311604 -0.11789793 -0.17676419
-0.21609777 -0.0280771 0.08803378 -0.032861292 -0.17984654 0.03921447 -0.14577655 -0.23018111
0.041692853 -0.0656608 0.20822789 -0.22808225 0.047066912 -0.31629232 -0.11051837 -0.09492665
-0.045164112 -0.38116294 -0.055207394 -0.014352566 -0.051365912 -0.24069914 -0.2119803 -0.035411425
0.07190619 -0.04094479 -0.030747216 -0.16432886 -0.15804444 -0.6291305 0.023509014 -0.06146643
-0.47450435 -0.091659844 0.00023987472 -0.27827916 0.019621952 -0.041708447 -0.010306551 -0.0037461908
-0.16857615 -0.09519264 -0.06592359 -0.044604916 -0.28576764 -0.08142691 -0.16784213 -0.32437545
-0.15053989 0.004433044 0.0093871 0.05232136 -0.06630895 -0.26926148 -0.22923876 0.14809535
0.06425909 -0.087018035 -0.03516068 -0.4726763 -0.048176896 -0.10191099 -0.21793552 -0.040274713
-0.07753411 -0.24434993 0.02045102 -0.13383482 0.05069996 -0.1524696 0.09874612 -0.10726527
-0.20384417 0.04180596 0.049239334 -0.03419917 0.19929573 -0.10005878 -0.23818053 -0.019575423
-0.28567034 0.014296316 0.015288756 -0.30553985 -0.036216967 -0.13438222 -0.055302646 -0.407588
-0.1766506 0.0100271385 0.028630279 -0.2154851 -0.01666987 -0.13549072 -0.60268855 0.08200247
-0.041036997 -0.008449604 0.013692691 -0.10376039 -0.25646266 0.044598687 -0.08746199 -0.06335344
0.33564195 -0.34614325 0.03248663 -0.21439269 -0.07335454 0.09755799 -0.024199124 -0.029465666
-0.15261059 -0.011312889 0.09050417 0.24427989 -0.03319507 -0.12211671 0.066013 -0.09662101
0.050962105 0.0032440037 -0.006079292 0.06507753 -0.1906846 0.09651931 -0.036767863 -0.19329537
0.07899302 -0.13042425 0.018240467 0.034020793 -0.13121471 0.09087006 -0.09388409 -0.119831495
0.016585957 -0.19469512 -0.035039946 -0.11811451 -0.14144008 -0.006022251 0.11342701 -0.06399794
-0.020205917 -0.0046519325 0.06961148 -0.27407128 -0.38186225 0.037948754 -0.07964776 -0.016947882
0.03284194 -0.30227473 0.046338044 -0.3705316 0.05334626 -0.040799733 0.038098134 -0.020922825

conv_and_fc.11.bias f4 [84]
00000000: aa89 ff3e b281 b63e 7098 123f 24c4 53be
00000010: f4af 903e 13e2 f6bd 3b1c c13e 181b d53c
00000020: bcb7 16bd 5875 c23e b1a9 29be 9336 e63e
00000030: c4cb b1be 706b 893e 93ed f93d 207a d43e
00000040: ee1b 093f 6656 de3e 79db 283f d202 813e
00000050: a871 e23d 91c4 a43e da85 083e 6c69 823e
00000060: a10f df3e cf80 2abf 6c55 dc3e 3319 2b3e
00000070: a821 95be 569e c03e c1db af3e a7de 193d
00000080: ed12 c63e 7372 35be 79cb ba3e da16 d43e
00000090: 2bae 5e3f c459 0f3d b4b8 8f3e ec57 d23e
000000a0: cc9f cb3e bf2c a73e 24dd fe3e 72bd 103f
000000b0: fd93 743e decf adbe 748e 673d aaf1 e1bd
000000c0: 42a4 8d3d 8b93 38be e7be f5bd ea78 f43e
000000d0: e2ac c23e 0a3f cf3e 0d36 e3be 5519 f13e
000000e0: 149c ac3c 1b4f 573e de4a aa3e 0d5b 14bf
000000f0: f19e 5c3e 6533 27bf 7639 c03e 2a14 a33e
00000100: 960a 2bbe 5a41 c4be 80cb 083f fc6d a9be
00000110: d7f8 9b3e 4a0c 113e 7588 9abe e000 15be
00000120: 6ed8 1c3e aa99 bc3e 64f5 9abe 7897 b33e
00000130: 2c20 c53e 21e5 253f 58d2 133e 92ec 783e
00000140: b3ab 073f 98f0 9a3e f637 023f 81e4 5f3e
0.49909717 0.35645825 0.5726385 -0.2068029 0.28259242 -0.12054839 0.3771685 0.026013896
-0.036796317 0.3798015 -0.16568638 0.44963512 -0.34725773 0.2683978 0.12203517 0.41499424
0.5355824 0.43425292 0.6595989 0.25197464 0.110568345 0.32181218 0.1333231 0.25471056
0.4356661 -0.66602796 0.43033922 0.16708831 -0.2912724 0.376208 0.34347346 0.037565853
0.38686314 -0.1771944 0.36483362 0.41423684 0.8698451 0.034997717 0.28070605 0.41082704
0.39770353 0.32651326 0.49778092 0.5653907 0.23884578 -0.33947653 0.05653234 -0.11032422
0.06916095 -0.18025033 -0.11999302 0.477485 0.38022524 0.40477782 -0.44377175 0.4708964
0.021070518 0.2102627 0.33260244 -0.5795143 0.21545006 -0.65312797 0.3754384 0.3185132
-0.16703257 -0.3833111 0.53435516 -0.33091724 0.30463287 0.14164844 -0.30182233 -0.14551115
0.15316936 0.36835986 -0.30265343 0.350765 0.38501108 0.6480275 0.14435709 0.24308994
0.5299637 0.30261683 0.5086664 0.21864511

conv_and_fc.13.weight f4 [10, 84]
00000000: 4efa 973d 6572 dfbd 4b2e 093e 02d5 e8bd
00000010: 7187 a9bd 3803 94bd 96ff 6abd c6a6 8a3e
00000020: 84aa 493c 4081 8a3d af32 84be cd41 663e
00000030: 33ff 943e 4384 f13c b903 35be 843a c73d
00000040: ae13 cabd 6c78 523c 87c4 9dbd 9d59 19be
00000050: e357 2b3a e609 28bc 328a 0d3d 74b4 8dbb
00000060: 0f80 e6bd 985e bd3e 97ee 18bd 3f0b 763d
00000070: 1b5b a23e f582 5dbe 2adc fbbb 7fe1 22be
00000080: 03bf 9d3d 81ae aebd 0c95 bebd 7261 e13b
00000090: 2615 a8be 464d cbbe 3206 933d 9194 f4bc
000000a0: ace4 6ebd 69a7 dcbd b324 f13d 664e b73d
000000b0: f6c7 c0bd e4b3 8639 33fc 093f aa94 113e
000000c0: e440 b9be 929f 933d f3af 0cbc 9485 7b3e
000000d0: 0b5c 49be 909e 86bd 74f2 143d c262 b0bd
000000e0: 844c 6ebe 83f9 acbd d5cb 4ebd 6b1d ed3d
000000f0: 1d76 cebd 43b0 003f 9804 2c3e 33f3 f8bd
00000100: 8219 babc 21bf a73d 2e79 74bd 5118 113f
00000110: 1809 56be 95a8 9abd 8504 453d 4ada d0be
00000120: dc42 09bf 5758 65be b561 47be f031 5dbe
00000130: 29fa d23c 5c9e 183e 8e65 dabc 2cd8 273e
00000140: 7297 f7bd 24f8 f03d 4eb2 ddbe 7a18 2a3d
00000150: 0fa2 ca3c 96e0 873c 641a d6bc d942 313d
00000160: 3fbf ba3b 0e49 613b 8ac2 053c 58f9 2e3c
00000170: 8819 a9bd c90f aabc 6daa 033c 4465 99bc
00000180: 09e2 9b3b 946f d03b 6ed7 18bc b496 d93c
00000190: 3ff5 56bc 14a3 d53b 38fa 4fbb 3385 1abb
000001a0: bead e23b 7d72 383c 4246 cabb 6ff7 383e
000001b0: 9318 dcbc 8b7a 1b3d b909 0ebe 342c 4abb
000001c0: 5c06 8c3c dc52 02bc 9d2a eabb 5ddb a63b
000001d0: 947b 83bc bded 13bd 7f01 1b3e 5089 c2bb
000001e0: eacb 18bd 827b e6bb f77e 01bb 67e4 193b
000001f0: 4d92 703c 895f 8ebb e9ed 273c 37f6 c8bc
00000200: 5fd9 edbb a77f 283b 8671 98ba f558 cebb
00000210: b019 efbc d1f1 ffba bb79 60bb 018b 183c
00000220: 5e6a abbe 923e 4dbc ddf1 323c 0651 87bb
00000230: 8410 233f 5702 29bc 1241 e5ba f6dc 593c
00000240: 5aec ccbb cf0e 80bf 570d 92bd 109f 8a3b
00000250: e1bc 0bbb 0d8c 1bbc b10c d83c 48ca 1e3c
00000260: c3e7 183e c95f 3bbc a0e3 713c d05c 263b
00000270: 1cb1 cfb9 f190 01ba f908 8b3b 23f5 8f3e
00000280: d442 b13b 1500 e1bc 02ba bc3b 4cb9 1d3c
00000290: 7d4a aabb 221e 8e3c cb4b 11bd 38cc 53bc
000002a0: abdb f5bd 804e d13d 019e d93d 7d93 3bbd
000002b0: 2b5d 89be b503 b13d 46ab 073e b07c 97be
000002c0: eedd c13b ba37 6a3d 91d5 3abd e6d6 9cbd
000002d0: 0b66 86be 5c86 fabc 1eec 6fbe ed11 823d
000002e0: acd6 d1bc de60 373b dbd6 b0bc 110b 033e
000002f0: 9051 adbd e1f4 4c3d 812e d9be 2afc 1dbe
00000300: 254d 063e 4162 ca3d a9ed b9bd 39f5 623e
00000310: 9e0f cd3d d117 793e b909 8cbd f676 c73d
00000320: 8aea d53b b616 573b 112d f3bc 0475 38be
00000330: fc16 b4bd f00f e03e 7aff 033d e77a 9c3d
00000340: 710b 33bd ff67 c73e fd83 203e 3b65 98bc
00000350: 4023 b6bd 702b 1d3f 5a4f 93be 10f1 a93d
00000360: f978 a2bd 47a1 ad3e c6db cfbd 9d8d 33be
00000370: 4049 4b3d f8ec 58bd 2a5b 013c 5748 14bd
00000380: e6e5 e7bc fb2c 70be 9539 31bc 5d1e e03c
00000390: da55 21be 38fc ce3d 6b72 e7bc d39e 06be
000003a0: 2d51 e8b9 249f a23d 13df cc3d 2cf5 673d
000003b0: 5527 6a3d 950a 5fbc 0ced 193d b893 293f
000003c0: c78d a3be 90e0 e83e e595 8b3c a344 64bd
000003d0: 6b20 ea3b 526c ecbd a3c3 4bbe 644b a0bd
000003e0: 3755 ac3d 49af acbd ec79 573e 2738 3d3e
000003f0: 89c4 a93d 425f 58bd a589 3cbe 99e5 7ebb
0.07420789 -0.10910491 0.13396566 -0.11368753 -0.082777865 -0.072271764 -0.057372652 0.27080363
0.0123087205 0.06762934 -0.2581992 0.22486039 0.29100952 0.029482013 -0.17677201 0.09727958
-0.09867035 0.012846094 -0.077035 -0.14975591 0.00065362285 -0.010256266 0.03455562 -0.00432449
-0.11254894 0.36986232 -0.037336912 0.06006932 0.31710133 -0.21631987 -0.0076861577 -0.15906332
0.07702448 -0.08529378 -0.09305772 0.0068780715 -0.32828635 -0.39707392 0.07178916 -0.029855998
-0.058323547 -0.107741185 0.11774578 0.089505 -0.094131395 0.000256925 0.5390045 0.14216867
-0.3618232 0.0720817 -0.008586871 0.24562675 -0.19664018 -0.06573212 0.036364034 -0.086125866
-0.23271376 -0.08446028 -0.050487358 0.11577877 -0.10081122 0.50268954 0.16798627 -0.121557616
-0.022717241 0.08190752 -0.05968588 0.5667773 -0.20901906 -0.07551686 0.048100013 -0.4079154
-0.53617644 -0.2239698 -0.19470866 -0.21601081 0.025754051 0.1490416 -0.026659753 0.16391057
-0.12089433 0.11766079 -0.43300098 0.04152725 0.024735479 0.016586583 -0.02613563 0.04327664
0.005699068 0.003437582 0.0081640575 0.010679565 -0.08256823 -0.02075948 0.008036238 -0.018725045
0.00475717 0.0063609574 -0.009328706 0.026561119 -0.013119995 0.0065196846 -0.0031734835 -0.0023577928
0.0069176843 0.011257765 -0.006172926 0.18063138 -0.026867187 0.037958663 -0.13870896 -0.00308491
0.017092876 -0.0079543255 -0.007146193 0.005092068 -0.016050138 -0.036115397 0.1513729 -0.005936779
-0.037303843 -0.0070337662 -0.0019759515 0.0023482086 0.014683318 -0.004344885 0.010249593 -0.024531467
-0.0072585787 0.0025710852 -0.0011630512 -0.0062972256 -0.029187053 -0.0019527023 -0.0034252245 0.009310485
-0.3347959 -0.012527125 0.0109219225 -0.004129532 0.63697076 -0.010315499 -0.0017490706 0.01329731
-0.0062537612 -1.0004519 -0.071314506 0.0042303875 -0.0021322297 -0.00949384 0.02637324 0.009691782
0.1493216 -0.011436411 0.014763743 0.002538491 -0.00039614073 -0.00049425574 0.004243013 0.28116712
0.005409578 -0.02746586 0.0057594785 0.009626698 -0.005196868 0.017348353 -0.035472672 -0.0129271075
-0.12004789 0.10220051 0.1062584 -0.045794953 -0.26828894 0.08643285 0.1324893 -0.29587317
0.0059163487 0.05718205 -0.04561383 -0.07658176 -0.26249728 -0.030581646 -0.23429915 0.06351075
-0.025615059 0.0027981321 -0.021586826 0.1279719 -0.084628224 0.050038222 -0.42418292 -0.15428224
0.13115366 0.09882022 -0.09078533 0.22163858 0.10012744 0.24325491 -0.06837792 0.09739487
0.0065282034 0.0032819933 -0.029684575 -0.18013388 -0.087934464 0.4376216 0.032226063 0.07640629
-0.043712083 0.3894653 0.1567535 -0.018602958 -0.08893442 0.61394405 -0.28771478 0.08297932
-0.0793323 0.33912107 -0.1014934 -0.1753449 0.049630404 -0.052960366 0.00789527 -0.0362018
-0.028307866 -0.23454659 -0.010816951 0.027358228 -0.15755406 0.10106701 -0.0282528 -0.13146524
-0.0004431097 0.0794051 0.100034855 0.0566303 0.057166416 -0.013613363 0.03757958 0.66241026
-0.31944105 0.45483828 0.017039249 -0.05572952 0.007144978 -0.11544098 -0.19898848 -0.078268796
0.08414691 -0.084318705 0.21042603 0.18478452 0.08289439 -0.05282522 -0.18411882 -0.0038894175

conv_and_fc.13.bias f4 [10]
00000000: 1ef8 c13e a29f 233d 5779 cc3d 0fb6 123e
00000010: 688c 8cbb 3c1e aa3d fa33 ae3d f98e 573d
00000020: 749a 4f3d 3842 103d
0.3788461 0.03994716 0.09984081 0.14327262 -0.0042891987 0.08306548 0.085060075 0.052626584
0.050684407 0.0352194
