Models/CNN.pt (torch, 24194 bytes, 11 tensors)

conv_and_fc.0.weight f4 [6, 1, 5, 5]
000000 08 8e 1f 3e bb ab 07 3d eb a3 01 be 0b a7 11 3e
       0.15581524 0.03312276 -0.12660186 0.14223878
000010 ec 2b 60 3e 10 47 9e bd bd 12 95 3d ce 6c b2 3d
       0.21891755 -0.07728398 0.07278965 0.08712159
000020 b0 88 9f bd e9 e8 40 bd 54 50 2e 3d 49 f3 b9 3d
       -0.07789743 -0.04709712 0.042557076 0.09079606
000030 fa cf 40 3d 85 83 16 3d 93 c6 f7 3d 2a 86 cd 3c
       0.047073342 0.03674652 0.12098422 0.025088388
000040 ba d6 4e 3e 14 48 73 3e 2e 9f 75 3e b2 e5 54 bc
       0.20199099 0.23757964 0.23986503 -0.012994217
000050 14 d0 4d 3e a4 6e 1d 3e fc b8 34 3e 39 3c 56 3d
       0.20098907 0.15374237 0.17648691 0.052303527
000060 e7 fa fb bb 23 c9 f3 3d 10 f4 23 3e 31 0e 9e bd
       -0.007689822 0.11903598 0.16011071 -0.077175505
000070 c0 0f 16 bd a7 2d 3c be 1f 0c c2 bc 8d a7 2e 3e
       -0.036636114 -0.1837679 -0.02368742 0.17056103
000080 00 b2 16 3e 60 7b 25 bd 7a 92 88 be 40 c4 13 3d
       0.14716339 -0.040400863 -0.26674253 0.03607583
000090 88 12 16 3e 0c 48 01 3e 38 37 0d be 30 72 3a be
       0.14655507 0.1262514 -0.13790596 -0.18207622
0000a0 7c 49 26 3e 14 9b 68 3c e7 f0 01 3e 3f 13 fb 3c
       0.1623897 0.01419713 0.12689553 0.030648826
0000b0 ee bc a6 be 12 4a 42 be 6e 52 28 3e 7f 8a 1a 3e
       -0.32566017 -0.18973568 0.16437694 0.15091895
0000c0 08 82 03 3d 51 14 41 be 3a 54 10 3e 26 f8 2c 3e
       0.03210643 -0.18855406 0.1409463 0.16891536
0000d0 82 3e 87 3e 4c 4d ad bd 49 9d 42 be 32 60 0c 3e
       0.26414877 -0.08462009 -0.19005312 0.1370857
0000e0 bc ed 20 3e f5 fc a0 3d 43 ef 79 3d 19 a7 81 3c
       0.15715688 0.07860748 0.061019193 0.015826749
0000f0 16 b0 48 3d 93 c1 e3 3d 5c 56 91 3d a5 66 cc 3c
       0.048996054 0.11120906 0.0709655 0.024951288
000100 5f ba 8c bd 26 aa aa bd a9 8f f7 bc c6 83 4e be
       -0.06871485 -0.083332345 -0.03021987 -0.20167455
000110 a9 79 9b bd 30 47 c8 3c 78 94 0b 3d a8 5a a6 be
       -0.07591564 0.024448007 0.034077138 -0.3249104
000120 fb 5a 8b be d4 68 1d be 00 ae 04 bc a1 5e 3f be
       -0.2721785 -0.1537202 -0.008098125 -0.18688442
000130 86 a4 6c 3e 0a 9a e8 3d ce f8 de bd ee 2b 3d bc
       0.23109636 0.113575056 -0.108872995 -0.011546118
000140 f7 68 35 be fa af ba 3e 6d 86 46 be 56 0e 8e 3d
       -0.17715822 0.36462384 -0.19387217 0.06936328
000150 35 a8 9d 3d e4 58 6a bd 4c 44 2a 3e 6d 75 ca bd
       0.076980986 -0.05721368 0.16627616 -0.098856784
000160 9d 8e cf 3d db db e6 3b e2 a6 e5 bd 3b 6d d3 3c
       0.10134623 0.007045252 -0.11213471 0.025808921
000170 96 77 34 3e 4d 89 b9 bd 8d f7 77 3c 76 92 b3 bd
       0.17623743 -0.09059391 0.015134704 -0.087681696
000180 eb 62 19 bb 37 cb eb 3d 75 58 a5 3c 65 40 2e bb
       -0.0023404907 0.115133695 0.020183781 -0.0026588675
000190 d7 b8 5b bd 2c 64 3b bd 7b 2b 13 bd f1 b3 cf bd
       -0.053643074 -0.04574983 -0.035930138 -0.10141743
0001a0 93 e5 0b bd 8c 96 1d be d2 85 4f be 68 c9 34 bf
       -0.034154486 -0.1538946 -0.20265892 -0.7061982
0001b0 35 49 1c bf 13 cc 84 bd 5f 79 cf 3d e0 dc 3d bd
       -0.61049205 -0.064842366 0.101305716 -0.04635322
0001c0 c2 ab 21 be 41 ce a3 be 91 c4 4e bd 57 2e 28 3d
       -0.15788177 -0.31993297 -0.05048043 0.041059818
0001d0 0d ce 27 bd cb c8 52 bc fa 15 a3 bd a7 d7 74 3c
       -0.04096799 -0.012865256 -0.07963176 0.014943994
0001e0 63 42 02 bd 5f a6 ea 3d 33 31 86 3d 9f 0b 58 3d
       -0.031801593 0.11457514 0.06552353 0.052745458
0001f0 07 e1 cf bd dd d9 a2 be fd 7b 4d bd 19 db 05 3e
       -0.101503424 -0.31806841 -0.050167073 0.1307186
000200 8f 72 fe 3c 75 22 a0 bd 0b 08 92 be ad fe a8 3d
       0.031060485 -0.07819072 -0.2852176 0.082517006
000210 45 ea dc 3c b7 30 90 3c 44 a8 dc bd 7e f9 48 3d
       0.026967177 0.017601354 -0.107742816 0.04906606
000220 82 4a 40 3c 41 63 4a 3d c8 e6 ca 3d cb 1f 05 bd
       0.011736514 0.049411062 0.09907299 -0.032501023
000230 bc f0 d4 3d f0 b7 eb bd a3 ea 96 3d 83 2a d8 3d
       0.10397479 -0.11509693 0.07368972 0.105549835
000240 71 01 89 3d da fc 2b 3e ba a9 2a bd 43 fb d2 bd
       0.06689728 0.16795674 -0.04166577 -0.103018306
000250 14 5e 39 3b df 4d e8 3d
       0.0028284835 0.11342978

conv_and_fc.1.weight f4 [6]
000000 13 64 49 3f d7 6c 77 3f 52 ac 5e 3f e1 e6 23 3f
       0.78668326 0.9665045 0.8698169 0.6402417
000010 2f 37 cd 3f 5b 03 22 3f
       1.6032466 0.6328637

conv_and_fc.1.bias f4 [6]
000000 5f ed 68 3e 8f a6 0a 3d af ff 03 bc ee 46 4c 3d
       0.227468 0.03385025 -0.008056565 0.04987233
000010 28 6b 16 bf 42 a5 d6 bb
       -0.5875726 -0.006550462

conv_and_fc.1.running_mean f4 [6]
000000 b4 40 12 3f 76 7b 1c bc 3e fb 3d bd df 31 d4 3d
       0.5712998 -0.00955092 -0.04638218 0.10361075
000010 65 dc 36 bf f0 dc 35 ba
       -0.71430045 -0.00069375243

conv_and_fc.1.running_var f4 [6]
000000 6a 2a b8 3e 52 d8 c4 3d 09 40 85 3d be 59 e7 3c
       0.3596986 0.09611572 0.06506354 0.028241035
000010 74 51 27 3f d3 6d a7 3c
       0.6535866 0.02043811

conv_and_fc.4.weight f4 [12, 6, 5, 5]
000000 07 af c5 3d 79 2f 15 be b6 1d dd 3d 0f b7 b2 3d
       0.096525244 -0.1456889 0.107966825 0.08726322
000010 9b 84 6c 3d 19 fd 99 bc 7e 4b f7 bd 52 6a 8e bd
       0.05774365 -0.018797444 -0.12074946 -0.06953873
000020 65 07 8f bd e4 8e 9b 3d b5 7a 0a 3d e8 89 2f 3d
       -0.06983832 0.075956136 0.03380843 0.042856127
000030 8f 6d 6d bd 84 88 a0 bd aa 91 47 bc 42 0c 2c 3d
       -0.05796581 -0.07838538 -0.012180725 0.042003877
000040 81 44 cd 3c 33 6e b5 bd b9 1c c7 bd 81 76 f3 3b
       0.02505708 -0.088589095 -0.09722275 0.0074298983
000050 02 c0 62 3c 10 c3 ac 3d 2c db fa bc 48 55 33 bd
       0.013839724 0.08435643 -0.030622087 -0.043782502
000060 ae f8 55 ba 45 66 f1 bd 93 9b 01 3e c1 e2 c5 bd
       -0.00081623613 -0.117870845 0.12657003 -0.096623905
000070 6c 51 9d bd 9f d9 31 be f0 63 3d be e4 69 95 bb
       -0.076815456 -0.17368172 -0.18495154 -0.0045597423
000080 27 78 32 bd 8e 81 aa bd 2f 87 de bd ba 39 dc 3c
       -0.043571617 -0.08325492 -0.10865628 0.026882995
000090 a5 2f 01 3c 7c 2b 4b 3d ab ea 01 bd 43 f2 6c bd
       0.0078848945 0.049602017 -0.031717937 -0.057848226
0000a0 ed 84 16 be 4b be e2 bc c5 21 1d 3d dd b2 3b 3a
       -0.14699145 -0.02767863 0.038362283 0.00071601366
0000b0 d4 59 81 3d 11 cf d6 bd 84 ba 43 bc 3b 3f b3 3c
       0.063159615 -0.104887135 -0.011946324 0.021880737
0000c0 97 14 a9 bb 33 19 0c 3d 71 3d 7e 3d b9 a9 2b bc
       -0.005159925 0.03420372 0.062070314 -0.010477477
0000d0 86 a6 56 bd d1 33 95 bd c7 c2 0a bb 4e 00 2e 3d
       -0.052404903 -0.07285274 -0.0021173225 0.04248076
0000e0 58 8a e9 3c 3d 8f f8 bc 57 73 09 be b6 68 86 3c
       0.02850835 -0.030341739 -0.13422905 0.016407352
0000f0 3b a3 30 bd e3 3f b2 3c 22 f5 df bd 61 a5 8c 3b
       -0.04312442 0.02175898 -0.10935427 0.0042921756
000100 85 ec 11 bd 22 69 b3 bd ac a8 e8 bd c6 cc ef bd
       -0.035625953 -0.08760287 -0.113602966 -0.11708979
000110 ef fe 86 bb ae c1 aa bd 5c 40 65 3c b4 1b 9e bd
       -0.004119746 -0.08337723 0.013992395 -0.07720128
000120 e9 ff e7 bd 19 d1 02 be 71 31 f8 bd ba b4 fd bc
       -0.11328108 -0.12775077 -0.12118805 -0.030969966
000130 84 cf 34 3d 3c 79 35 3d 16 5e bc 3d 32 d4 08 3d
       0.044143215 0.04430507 0.09197633 0.03340549
000140 04 83 70 bd 4c 3b dd 3c f3 26 e0 3c 7e f2 b1 bc
       -0.058718696 0.027005814 0.027362322 -0.021722075
000150 c6 44 40 3d 40 d4 d2 3d 9e 3e d7 bc 96 1d 89 3d
       0.046940587 0.1029439 -0.026274975 0.06695096
000160 82 8e 40 3d 33 d6 d3 bd a5 41 37 bd c8 fb 49 3a
       0.047010906 -0.1034359 -0.044740338 0.000770506
000170 33 e7 ee bc b7 33 72 3c 1d 44 91 3a cc e0 58 bd
       -0.029162979 0.014782838 0.0011082921 -0.052948758
000180 3e 8d 3e bd 31 a3 9f ba d5 81 87 3c 54 7e 17 3b
       -0.046521418 -0.0012179372 0.0165414 0.002311607
000190 76 18 fe 3d 43 98 46 3d 66 ed d9 3d d1 04 bc 3d
       0.12407009 0.04848505 0.10640983 0.09180606
0001a0 0a 78 32 be 80 48 78 3e 28 08 25 3e 4c a4 18 3d
       -0.17428604 0.24246407 0.16116393 0.03726606
0001b0 1c bf b5 3b 60 b6 c1 3d 30 a8 91 3e f2 fa f0 bb
       0.0055464637 0.094586134 0.2844863 -0.0073541338
0001c0 42 cf 6c 3c db 22 81 3d d2 fc 57 3e 26 5a 8a 3e
       0.014453711 0.06305476 0.21092537 0.27021903
0001d0 81 a5 97 3d a0 f0 1d bd d7 82 23 3d 24 b1 c4 3d
       0.07404614 -0.038559556 0.0399197 0.096040994
0001e0 f1 b7 05 3e 75 a0 fb 3b dc 8b 09 be ec 5a be bd
       0.1305845 0.00767904 -0.13432258 -0.09294686
0001f0 3d 73 66 3d 12 5c f5 bc 7c 88 a7 bb b7 13 86 bb
       0.056262244 -0.02995113 -0.0051127058 -0.0040917057
000200 e1 bc 27 bd 18 12 83 bd 36 27 2d 3e 6f b7 a4 3d
       -0.040951613 -0.063999355 0.16909489 0.080428
000210 8b 7d 7d bc af 22 88 3c e9 ef 2d 3d e3 03 98 3c
       -0.015471826 0.0166181 0.042465124 0.01855654
000220 1b ed 4a 3d 61 3a cd 3d 1a 67 a7 3c 11 87 f1 bc
       0.049542528 0.100209005 0.020434905 -0.02948335
000230 16 94 9c bb e4 3e 31 3d 74 33 61 3d 2b 5e b3 bc
       -0.0047783954 0.043272868 0.05498071 -0.021895489
000240 b3 d4 5f bd 96 7e da bc 21 24 74 3d 3e c9 bd 3c
       -0.054646205 -0.026671689 0.059604768 0.023167249
000250 da a9 40 bd 94 55 0b bd fb 62 ec bc 71 14 88 3d
       -0.047036983 -0.03401716 -0.028855791 0.06644524
000260 69 06 10 bd a9 b9 ef bd 9c 6d bb 3c d4 3e 2a bc
       -0.035162363 -0.11705334 0.022879414 -0.010390956
000270 da 2a 1f bd 6d aa 1a 3d e5 13 31 bd 6b 95 9b bb
       -0.038859226 0.037760187 -0.043231864 -0.0047480366
000280 a1 41 39 bd 07 f9 eb bb 2b 63 ce bc 09 a4 35 bd
       -0.045228604 -0.007201317 -0.025193771 -0.04434589
000290 0d 11 f6 3c 4d d1 df bd 06 2f ff bb ee 8d cc bd
       0.030037427 -0.10928593 -0.007787588 -0.099880084
0002a0 d7 e7 4b be f9 4c 8e bd 4a eb b6 bd 35 e2 ac bc
       -0.19912659 -0.06948275 -0.089315966 -0.021103958
0002b0 4a 10 12 bd f3 d0 e0 bd 11 98 8e 3c 0a c1 a6 bd
       -0.035660066 -0.10977354 0.017406495 -0.08142288
0002c0 e1 80 9c be 8a 1c fe bb e4 9b f2 3c 5a df fd 3d
       -0.30567077 -0.007754867 0.02961535 0.123961166
0002d0 da b0 4b be 2c 72 53 bd bf c3 68 bd b7 24 c6 bc
       -0.19891682 -0.051622555 -0.056827303 -0.024187429
0002e0 d4 14 d6 3c 25 fc c2 bd 9b e2 a6 bd 31 c7 15 3c
       0.026132978 -0.09520749 -0.0814869 0.009141729
0002f0 47 56 0a 3d 43 96 5c 3b 77 64 da 3c 8e e0 57 bc
       0.033773687 0.00336589 0.026659233 -0.013176097
000300 56 e2 3c bd bf e2 bf 3b 79 68 e7 ba 47 bb c8 bd
       -0.04611429 0.0058558877 -0.0017655037 -0.09801345
000310 8c fb dc 3d fe ce 8e 3c 17 91 59 3b dd 08 7d 3c
       0.10790166 0.017432686 0.0033198053 0.015444008
000320 c6 ea d1 bd 2c 75 87 3d dc 76 6b bd eb 9a 38 3c
       -0.102498576 0.06614146 -0.0574864 0.011267404
000330 d1 c6 02 bb b9 6f fa bd 17 e0 b0 bc 94 ac 58 bc
       -0.001995493 -0.12228341 -0.02159123 -0.01322474
000340 fc 4a 7c bd ed 78 af bd 8e e0 1a bd 09 14 25 3d
       -0.06159495 -0.08567987 -0.03781181 0.04030231
000350 1a cc dd bd 27 d6 cd bc b3 66 b9 bd 54 7e c9 3b
       -0.10829945 -0.02512653 -0.090527914 0.0061490927
000360 1b 94 2c bd d0 b6 b0 bd f9 60 0b bd a2 ef 17 bd
       -0.042133432 -0.08628619 -0.034028027 -0.037093766
000370 c9 17 26 be d7 13 31 bd b8 78 ab ba 52 93 80 3b
       -0.16220011 -0.04323181 -0.0013082242 0.003923812
000380 b2 da b0 3d 5b fc bd 3d 20 30 1d 3d e3 95 3b bd
       0.08635463 0.092766486 0.038375974 -0.04579724
000390 79 16 eb bc 59 f7 d5 bd fe e7 05 bd 46 4b 35 3d
       -0.02869724 -0.104475684 -0.032691948 0.04426124
0003a0 c9 63 42 bd 31 6f 68 bc 4a db 0a 3e 6e a5 6c 3d
       -0.047458444 -0.014186666 0.13560215 0.057774954
0003b0 0c 96 83 bc 18 b3 c4 3d 07 1b 41 3c 36 3f a7 3d
       -0.016062759 0.09604472 0.011786229 0.081663534
0003c0 07 f1 ec 3d 0a 94 49 3d c6 21 30 3d d6 8d 81 3d
       0.1156941 0.049213447 0.04300096 0.06325881
0003d0 1c ef fc 3b a2 38 a1 3d 15 78 87 3c 4c ad 73 3d
       0.0077189337 0.0787213 0.016536752 0.05949144
0003e0 d1 08 03 3e 6b 29 aa 3d 4c 2b c3 bd d7 bc 98 bd
       0.12796332 0.08308681 -0.095297426 -0.07457893
0003f0 14 be 9a bd e2 a6 fd 3d 80 df c6 3d 82 8c a8 be
       -0.07555786 0.12385346 0.09710598 -0.329197

conv_and_fc.5.weight f4 [12]
000000 30 59 43 3f cd df 1f 3f 45 dc 2b 3f 91 2c 17 3f
       0.76307964 0.6245087 0.6713298 0.5905238
000010 5f 53 2a 3f 94 74 1d 3f fc d0 64 3f 51 85 18 3f
       0.66533464 0.6150601 0.89381385 0.59578425
000020 21 99 17 3f 0d 1e 2b 3f cf ef 2d 3f 75 7d 17 3f
       0.5921803 0.6684273 0.67944044 0.5917581

conv_and_fc.5.bias f4 [12]
000000 9a 41 dd be 9b 14 9b be b8 fc 7b be a9 06 85 be
       -0.43214113 -0.30289158 -0.24608123 -0.25981644
000010 51 29 8a be 6b 28 68 be 3e a6 b1 be 35 ec 8b be
       -0.26984647 -0.22671668 -0.34697145 -0.2732865
000020 3d ff 83 be 7b 04 bb be aa 42 a3 be 7a ed 8e be
       -0.2578067 -0.36526856 -0.31886798 -0.27915555

conv_and_fc.5.running_mean f4 [12]
000000 e6 b6 86 be f7 6f 9f bf 70 2f e1 bf 09 4f 22 bf
       -0.26311415 -1.2456044 -1.7592602 -0.6340185
000010 6d 56 3c bf b5 66 71 3e 9c 92 a2 bf 94 2d 50 be
       -0.73569375 0.23574336 -1.2700992 -0.20329887
000020 42 10 62 bf 2d 50 aa 3e 77 20 24 bf f4 52 78 bf
       -0.8830606 0.33264294 -0.6411204 -0.97001576

conv_and_fc.5.running_var f4 [12]
000000 e2 f0 96 3f c3 0d 42 3f 6a 9c 89 3f b5 fa 60 3f
       1.1792262 0.7580225 1.0750859 0.8788255
000010 2d e1 68 3f 21 74 24 3f 5a b5 d6 3f 55 5c f9 3e
       0.9096859 0.642397 1.6774094 0.48703256
000020 e6 f0 3e 3f db b1 37 3f b4 47 45 3f 43 bf 1d 3f
       0.7458633 0.7175576 0.77062535 0.6161997

conv_and_fc.9.weight f4 [10, 300]
000000 e7 c9 dc 3c 39 93 a8 bd 00 e8 51 3b 89 0a be bc
       0.026951743 -0.082312055 0.0032029152 -0.023198383
000010 7c d0 0c bc a6 bc 77 bd c9 aa 1e bd 4c 85 d2 3c
       -0.008594628 -0.060482644 -0.038737092 0.025698327
000020 c2 3d a7 ba 8d 10 f6 3c 53 bb 42 bc d7 78 02 bd
       -0.0012759494 0.030037189 -0.011885482 -0.031853523
000030 74 e1 f1 bb 7e cb 94 bc 1a 1d 5c bd 74 9b a8 3c
       -0.0073816124 -0.018163439 -0.05373869 0.020581938
000040 41 de 99 3c 43 82 e7 bb 70 bb 39 bd 03 84 b7 3d
       0.018782737 -0.007065089 -0.04534477 0.08960726
000050 f1 04 e3 3c 3a ef a6 3d 65 83 cd bb 89 1d 9f ba
       0.027712317 0.081510976 -0.006271767 -0.001213954
000060 e4 6b ee 3b 58 04 20 3d ca 75 c0 bd 34 4b 28 3d
       0.007276045 0.039066643 -0.093974665 0.041087344
000070 91 80 48 bc 95 78 f9 3d e0 4a 24 bc 9f 33 18 3d
       -0.012237684 0.12181202 -0.010027617 0.037158605
000080 d0 91 11 bb c3 73 b3 bc d1 bc 5a bc 51 e0 b2 bc
       -0.0022212155 -0.021905785 -0.013350681 -0.021835478
000090 f9 56 fd bc 34 5c a0 bb 95 62 13 bd c6 82 3d 3b
       -0.03092526 -0.004893804 -0.035982687 0.0028917058
0000a0 65 e8 1c bc 74 48 73 39 13 a8 d8 bc a2 96 85 bc
       -0.009576892 0.00023201277 -0.026447332 -0.016307179
0000b0 e1 39 08 3d 40 a1 f4 bc a5 c1 93 bb ca 33 f4 bc
       0.033258323 -0.029862046 -0.004509168 -0.029809851
0000c0 b9 91 5a bc ab d2 f5 bb f2 af 56 3d 55 5d c4 bb
       -0.013340407 -0.00750192 0.05241389 -0.0059925714
0000d0 d7 85 b0 3c 65 a2 f2 3c 89 eb 6e bd 47 c8 06 3d
       0.021548195 0.029618451 -0.058330093 0.032905843
0000e0 e8 f2 a9 3c e8 c5 f3 3c d9 d3 58 bd 71 e2 ab bc
       0.02074571 0.029757455 -0.05293641 -0.020982
0000f0 f8 b9 06 3d 55 24 48 bd a5 4a 42 3d d8 e0 8e bd
       0.032892197 -0.048862774 0.047434468 -0.06976479
000100 3e 0c 04 bd 68 7b 3c bb f4 4b 2c bc e4 a0 37 3d
       -0.032238238 -0.002876008 -0.0105161555 0.04483117
000110 c6 db 5b bc 23 dc 27 3c 1d 65 1e bd 6a 44 7b 3d
       -0.013419097 0.010245356 -0.038670648 0.06134454
000120 6c fd 67 3d ea c9 0f 3d ce 79 de bc 56 f4 01 3c
       0.056638166 0.03510467 -0.02715769 0.007931789
000130 ed 48 a7 3c 45 87 2c 3c 83 d7 23 bd 4d 10 e8 bc
       0.020420516 0.010530298 -0.04000045 -0.028328085
000140 06 bc 4b bd ea e0 8e bd a6 4c 44 bc e8 90 c9 3c
       -0.04973986 -0.06976493 -0.011981165 0.02460523
000150 65 94 03 3a fa 9b 54 3d 74 24 eb bc a9 41 d8 bc
       0.0005019366 0.051906563 -0.028703906 -0.026398497
000160 c5 6f d8 3c fb 61 3b 3c 03 e3 97 3b c9 cc 84 3c
       0.026420483 0.011436935 0.004635216 0.01621093
000170 09 a3 28 bd 06 2a 82 3c 35 9a 11 3d 67 d8 00 3d
       -0.041171107 0.015889179 0.035547454 0.031456377
000180 2f 20 07 3d 6f a8 c5 3c fe 32 7c 3d 8d 8a c0 bc
       0.032989677 0.024128167 0.061572067 -0.023503566
000190 f0 4c af bd 9a c8 8a bc bc 6d 47 3d 81 58 36 bc
       -0.085595965 -0.016941357 0.048688635 -0.011129499
0001a0 f6 cd 25 3b 87 8f bc bc c2 71 ec bc 1b 4b 03 3c
       0.0025299764 -0.023017658 -0.028862838 0.008013512
0001b0 7c 5e 49 bd 1b d5 9a 3c ed 0d 66 3d ea 5f ad bd
       -0.049162373 0.018900445 0.056165624 -0.0846556
0001c0 90 f3 52 3b 9e cb 77 3d ad eb 27 3d 10 1c 08 3d
       0.0032188632 0.06049692 0.040996242 0.033229887
0001d0 0b 31 9a bd fe f2 89 bc 0d 7a b5 3d bf 2a ad 3d
       -0.075288855 -0.0168395 0.0886117 0.08455419
0001e0 08 d4 0d 3d bf 0f 85 bd 17 ba 8a 3c 59 28 4b 3c
       0.034626037 -0.06497144 0.016934438 0.012399756
0001f0 e1 af a3 3c fe ed fb 3c 2e 9e ed 3c 21 39 05 39
       0.019981327 0.030753132 0.02900609 0.0001270515
000200 a3 08 99 bd e3 15 42 3d 84 1d 7b bc b4 ca 19 3a
       -0.074723504 0.047384154 -0.015326861 0.0005866692
000210 8d 89 77 3c 75 6b aa bd d2 54 86 3c 7b f2 f6 bb
       0.015108478 -0.08321277 0.016397867 -0.00753623
000220 2d 56 11 bd 4a ce 93 3c 0a b3 6a bd c1 a3 14 3c
       -0.035482574 0.018042702 -0.05729965 0.009072245
000230 dd 26 6f 3c ed ac a8 3c 7e a4 0f 3c be 2a f9 3c
       0.014596668 0.02059027 0.008767245 0.030415889
000240 aa a5 22 3d 22 01 cc bc 62 47 3a bd 08 7b f9 3b
       0.03970877 -0.024902884 -0.045478232 0.0076135434
000250 db f9 8f 3c 49 6a 28 3d 80 a0 93 3d 75 66 83 bd
       0.017575195 0.041116986 0.07208347 -0.064160265
000260 2a 29 47 bc eb 86 5e 3d c7 9d f4 3b da 2a 73 3c
       -0.01215581 0.054327887 0.0074650976 0.01484176
000270 7c 4a 43 3c be c8 d6 bb 97 c2 3a bd e0 51 63 bc
       0.011919614 -0.006554692 -0.04559573 -0.013874501
000280 db d5 c4 3b 35 bd da 3c a5 a6 ce bc 15 1b 1f bd
       0.006006939 0.026701549 -0.025225947 -0.038844187
000290 06 86 57 3c 3c 16 83 bb aa 28 15 3d 2d 5f da 3c
       0.013154512 -0.0040004533 0.036415733 0.026656711
0002a0 0b 62 30 bd a8 45 70 3d d8 97 11 3d 28 1e 9e 3d
       -0.04306225 0.05866018 0.0355452 0.077205956
0002b0 c6 ba 68 3d d0 f1 8c bd bf 81 22 3c 47 90 3a bd
       0.056818746 -0.068820596 0.009918629 -0.04554775
0002c0 83 bc 72 bd 0b a3 59 3d 78 40 e9 b9 9d 46 08 bd
       -0.05926181 0.053134006 -0.00044489256 -0.033270467
0002d0 ee 85 e5 3c 54 11 33 bd f6 2a e5 3c 83 cc 5c bc
       0.028017964 -0.043717697 0.027974587 -0.013476494
0002e0 cf ee c5 3b 65 73 e9 3c e3 7f 38 3d 0c 10 be bb
       0.006040431 0.028497407 0.045043837 -0.005800253
0002f0 9f 82 c2 3c 29 e5 9e 3b 07 93 ce bc 58 c8 87 bb
       0.023743926 0.0048490954 -0.025216592 -0.004143756
000300 03 3e 54 bc 69 d4 2d bc cd 26 5e bc 5c c7 29 3c
       -0.012954238 -0.010609725 -0.0135590555 0.010362472
000310 50 ac 99 3c 0e f2 a0 3c 94 c1 f0 3b 24 04 aa bc
       0.018758923 0.01964667 0.007347295 -0.020753928
000320 8e f8 06 3e 23 0f 32 bd 7c 7b 34 bd 36 45 50 bd
       0.13180754 -0.043471467 -0.044063076 -0.050847255
000330 9e 99 87 bd 82 6b fc bc 67 1c a7 3c f3 5b e1 3c
       -0.06621097 -0.030812982 0.020399285 0.027509665
000340 98 59 ea 3b 52 0b 8a 3c 8a 6c ed ba 82 42 05 bc
       0.0071517937 0.016851101 -0.0018114012 -0.0081335325
000350 f3 8f 69 3d 0e 07 fc bc 3a da fb 3c 80 7d 2b 3c
       0.057022046 -0.030765083 0.030743707 0.010466933
000360 13 61 c2 bc 1b d1 20 bc 70 02 aa bb 45 be f8 3c
       -0.02372793 -0.00981548 -0.005188279 0.030364165
000370 7b 5f 35 bc 22 3c 5d 3b a2 1c b4 bc c8 03 63 bd
       -0.011070128 0.0033757766 -0.02198631 -0.055423528
000380 2b 3d 12 bc ab ce e0 bc 9d fe 05 bb 71 7a 5a 3d
       -0.008925716 -0.027442297 -0.002044595 0.053339425
000390 b1 18 d5 bc 28 0e 58 3d 28 26 da 3c 11 cd 86 3d
       -0.02601275 0.052747875 0.026629522 0.06582082
0003a0 ab b9 0b bd 0b b0 04 bc 8e aa b9 bc 1d a2 15 3a
       -0.034112614 -0.008098613 -0.022664335 0.00057080557
0003b0 f6 56 19 bc a5 99 38 bc 2b 74 27 bd a7 58 22 bb
       -0.009359112 -0.0112671 -0.04088227 -0.002477208
0003c0 26 77 b5 3c 46 7d 94 3b 34 29 c0 3c 41 85 45 bc
       0.022151541 0.0045315353 0.023457147 -0.012055696
0003d0 d2 cd 62 bb 92 2e a3 3c 13 04 db bb 3d ee 77 bc
       -0.0034607542 0.019919667 -0.0066838353 -0.015132484
0003e0 da 40 51 3d 93 96 0a 3d 46 a2 1b bd a1 2c b4 3d
       0.051087238 0.033835005 -0.037996553 0.08797575
0003f0 08 e4 0f bd cd e7 5c bc 73 3e 6c bc 7e 70 6b 3d
       -0.035129577 -0.013483 -0.014419186 0.057480328
