Models/CSNN.pt (torch, 201593 bytes, 15 tensors)

conv_and_fc.0.weight f4 [6, 1, 5, 5]
000000 9d ed a5 3d a3 fa c2 3d 4a f0 df bb 9c cd 22 3d
       0.08101962 0.095204614 -0.0068340646 0.039746866
000010 e5 7c 5f bd 26 de a6 bd 1b a2 4f 3a 3a 38 53 3d
       -0.054562468 -0.0814784 0.0007920579 0.051567294
000020 b2 df 14 3e 8f f8 57 bb 14 6d 98 be 53 37 01 be
       0.14538458 -0.003295455 -0.2977072 -0.12618761
000030 fa 2b 82 3e 58 80 90 3e 95 59 ba 3d f4 e2 28 bf
       0.25424176 0.2822292 0.09099118 -0.65971303
000040 f9 06 63 be dc 6d 88 3e 5b 2c c5 3e c5 36 44 3d
       -0.22170629 0.26646316 0.38510403 0.047903795
000050 a5 30 fe be fa c8 44 be 0f a3 80 3e f0 ea 5b 3e
       -0.49646488 -0.19217291 0.25124404 0.2147634
000060 06 12 6d 3e b5 ba ba 3d 12 02 cc bd 75 63 1e be
       0.23151407 0.09117643 -0.099613324 -0.15467627
000070 85 e7 c1 bd 69 fc 7f 3d 72 8c 20 be 6a 8d d4 be
       -0.09467987 0.062496576 -0.15678576 -0.4151414
000080 ee 95 fa be 2a 77 45 be 83 3d 18 3e 8a e6 68 be
       -0.48942512 -0.19283739 0.14867215 -0.22744194
000090 15 41 4f bf b8 29 8e bf 76 33 94 be d9 e7 24 3e
       -0.8095868 -1.1106482 -0.28945512 0.16104068
0000a0 f3 19 02 bc 3b d9 54 be 96 78 8e be 12 09 41 3c
       -0.007940757 -0.20785992 -0.27826375 0.011781948
0000b0 83 f8 90 3e bf dc 7b 3a 96 42 e5 bc 40 cc 0d 3d
       0.283146 0.0009607784 -0.027985852 0.034618616
0000c0 86 cb c3 3d 8a 3d 8d 3d 89 bf c4 3b e3 17 0f bc
       0.095603034 0.06896503 0.006004278 -0.008733722
0000d0 b0 24 32 3e e2 51 6d 3e a7 21 87 be e3 76 98 3d
       0.17396808 0.23175767 -0.26392862 0.07444551
0000e0 72 42 03 3d 84 4a 3f 3e 65 6a 2a 3e 12 68 df be
       0.03204579 0.18680769 0.16642149 -0.43634087
0000f0 60 bd e1 ba 81 e0 39 bd 09 84 e8 bb 94 a2 27 3e
       -0.0017222576 -0.04538012 -0.007095818 0.16370612
000100 f9 a3 c9 be c4 d3 00 be d7 24 3b be d5 df 24 bd
       -0.39382914 -0.12580782 -0.18275772 -0.040252525
000110 f2 8e 06 3f 82 c1 ad be 0b 5a 63 be 3b 04 8d be
       0.5256187 -0.33936697 -0.22202317 -0.2754229
000120 28 9f 40 3d da d3 c7 3e f0 65 b1 be 30 87 e4 bd
       0.047026783 0.39028817 -0.34648085 -0.111585975
000130 51 67 5a 3d 74 c9 13 3e 54 18 63 be 57 0a 69 be
       0.053321186 0.14432317 -0.22177249 -0.2275785
000140 b8 3f 00 be 57 74 c6 3d 56 1b 8f 3e c1 67 bc be
       -0.12524307 0.09690159 0.27950543 -0.36797908
000150 db 3b 0a bf 32 66 0e bc e5 b1 a1 3e 3b b8 0c 3f
       -0.5399758 -0.008691357 0.31581035 0.54968613
000160 1b fc b8 be 10 09 cf be ba 78 bc bc 1c c9 c3 3d
       -0.3612984 -0.40436602 -0.023006786 0.09559843
000170 cf e1 56 3e 09 ef 4d bd 5a 83 84 bd d7 da 7c 3d
       0.20984577 -0.05027679 -0.06470366 0.06173214
000180 be a8 af 3d 26 88 0c 3e 06 df c0 bd 89 ac ca bd
       0.08577107 0.13723812 -0.09417538 -0.0989619
000190 ae de bd bd 72 c8 6a bd 1e a4 cc 3d 68 a8 da 3d
       -0.092709884 -0.057320066 0.0999224 0.10676652
0001a0 cd c5 0b 3d 13 cf be b9 4c fa 0f 3e 3e 84 8a 3e
       0.034124184 -0.00036393906 0.14060324 0.27054018
0001b0 ae 59 7d 3e 85 9a 1b 3e 2a 54 53 3c e8 d5 13 3e
       0.24741241 0.15195663 0.012898484 0.14437068
0001c0 1e 69 1b 3e 25 79 63 3e ab fa d4 3d b3 5d e9 3d
       0.15176818 0.22214182 0.103993736 0.11394825
0001d0 12 8c 13 3e a4 5b 95 bd b8 b6 bb be 4f 24 09 bf
       0.14408901 -0.0729287 -0.3666284 -0.5357103
0001e0 9e 5f fc ba 33 45 92 bd 3f 16 0e bf 10 05 5a bf
       -0.001925457 -0.07142105 -0.55502695 -0.85163975
0001f0 c7 29 0c bf f5 09 b1 3c 78 30 9b 3c de bd 51 be
       -0.5475125 0.021611193 0.01894401 -0.20482585
000200 9e 19 13 bf 74 6c 50 bf 50 c3 50 bd b9 05 25 bd
       -0.57460964 -0.81415486 -0.050967515 -0.04028866
000210 61 af eb bc 0a 73 a2 be 8a 99 ee be c3 22 ce 3d
       -0.02877015 -0.31728393 -0.46601516 0.10065224
000220 ba c9 e9 bc bb 99 11 3e 68 96 d1 3e 16 db a9 3e
       -0.028538574 0.142188 0.40935063 0.33174962
000230 0d d7 ac 3d cc ae 20 3d e0 30 99 3c ba ae 82 3d
       0.08439455 0.0392292 0.018700063 0.06380983
000240 f6 3c 82 3e 10 f5 5f 3d dc fd 6a bd 97 97 a9 bc
       0.25437135 0.05467707 -0.057371005 -0.020702166
000250 15 88 05 3d ce 6b 44 3e
       0.03260048 0.19181749

conv_and_fc.1.weight f4 [6]
000000 58 b3 8b 3f 81 e2 48 40 b5 e6 95 3f df d3 d9 3f
       1.0914106 3.1388247 1.1711031 1.7017783
000010 94 b5 d4 3f de 31 b9 3f
       1.6617913 1.4468343

conv_and_fc.1.bias f4 [6]
000000 f9 b8 54 bd aa 4f 6f bf 79 88 8e be 62 7e b5 be
       -0.051934216 -0.9348093 -0.27838495 -0.35447985
000010 4e e8 fe be 43 a2 1b be
       -0.4978661 -0.15198617

conv_and_fc.1.running_mean f4 [6]
000000 0c 77 ad 3d 72 79 83 bf 01 6f 3e be 33 8f 3b be
       0.08469972 -1.0271437 -0.18597032 -0.18316345
000010 cb ec ab be 20 e5 6d be
       -0.33579096 -0.23231936

conv_and_fc.1.running_var f4 [6]
000000 d7 0d b5 3e 29 c5 db 3f cc 0d 64 3e 20 02 ac 3e
       0.3536212 1.7169544 0.22270888 0.3359537
000010 53 71 07 3f 40 8c b6 3e
       0.52907294 0.35653877

conv_and_fc.4.weight f4 [12, 6, 5, 5]
000000 19 0b 97 be 65 31 d6 3d b2 cb 53 3e d0 a9 17 be
       -0.29500654 0.1045864 0.20683172 -0.14810872
000010 4a 05 98 3d 7b 55 45 be 38 60 17 3e 46 34 9d 3d
       0.07422884 -0.1927089 0.14782798 0.07675986
000020 97 98 50 3d 7b 2f 9c 3d 0d 58 9f 3d e3 54 c4 3c
       0.05092677 0.07626244 0.07780466 0.023966258
000030 4b 50 e4 3b 38 85 7a 3d 49 d5 fd bd 82 0d fe bd
       0.0069675795 0.061162204 -0.123941965 -0.1240492
000040 a6 5b 0e be f3 e1 aa 3c 29 ad 8e 3d 78 bf 7d bd
       -0.13902149 0.020859694 0.069666214 -0.061950177
000050 c8 a0 b6 bd de c8 a3 bd c4 56 4e bd 73 cc e8 bc
       -0.08917385 -0.07997297 -0.050375715 -0.028417801
000060 0f 9a 0e be 15 45 87 3e ca 3f 99 3e d1 47 16 bf
       -0.13925956 0.26419893 0.2993148 -0.58703333
000070 0f 5b 69 3b 5d 10 b0 3e 7c 1a 7f be 81 de 73 bc
       0.0035607254 0.34387484 -0.24912447 -0.014884592
000080 b5 95 fa bd 10 7c 41 be f9 91 7c bd 8e 96 13 bc
       -0.122355856 -0.18894982 -0.061662648 -0.009008063
000090 e2 52 52 bd 59 cc 1f 3d 29 65 2b bc cb 6e d0 3d
       -0.051348574 0.03901324 -0.01046113 0.10177382
0000a0 90 de f0 3d a6 2d f7 3d 7e 3c 7b 3e a7 ed c8 bc
       0.117612004 0.120692536 0.24534795 -0.024527384
0000b0 bc 88 ad bd cc f8 7f 3e ff 93 b3 bd 3e 68 96 3d
       -0.08473346 0.24997252 -0.087684624 0.07344101
0000c0 24 2e d7 bd aa 0c 2e be 2c 36 8c bd ad f8 02 3e
       -0.105068475 -0.16997018 -0.0684627 0.12790175
0000d0 75 29 31 3e 98 fe 2a be 70 3a 34 be 09 f9 fd 3d
       0.17300971 -0.16698682 -0.17600417 0.12401015
0000e0 27 3c 57 3e 92 2e 94 3d 53 4e 3c be fa d8 47 be
       0.2101904 0.07235445 -0.18389253 -0.19516364
0000f0 b8 02 e9 3d 99 4e 28 bd 47 d8 bf bd ca ab 3e 3e
       0.11377472 -0.04109058 -0.093674235 0.1862022
000100 c3 ad a9 3e 53 fe 2b bd 95 6a 43 be 95 4f 45 be
       0.33140382 -0.04199059 -0.19083627 -0.1926864
000110 47 c4 6b bd 2b 14 e6 3d 0e de 27 3e b6 3e 33 be
       -0.05756023 0.112343155 0.16393301 -0.17504391
000120 11 25 9e be ea 3f a3 bd 05 41 28 3e ed 88 8c be
       -0.30887654 -0.07971175 0.16431053 -0.27448216
000130 a5 25 ba bd db 1a 37 3f b5 7e 8e 3c 98 69 d0 be
       -0.090892114 0.71525353 0.017394403 -0.40705562
000140 47 5f 5f be 3a 57 f2 3c 0e 46 c6 3e 6b b1 b0 3e
       -0.21813689 0.029582608 0.38725322 0.3451036
000150 48 1c f8 3d 0e 86 12 3d 86 ac a4 3d 6d a5 cc bd
       0.12114769 0.035772376 0.08040719 -0.0999249
000160 4f 02 ac 3e 36 c2 15 3e 85 b4 15 bd 39 61 87 3d
       0.3359551 0.14624867 -0.03654911 0.066103406
000170 be f7 cd be 55 43 17 3e 70 65 59 3e 4e db e3 3d
       -0.40228075 0.14771779 0.21230102 0.111258134
000180 82 3d 9f bc ff 8f 93 be 90 0d b2 bd 6f 47 c5 3e
       -0.019438509 -0.28820798 -0.08693993 0.38531062
000190 69 b7 08 bd 3d 3d 82 be 80 ce 15 bd 7f 87 19 bf
       -0.03337804 -0.25437346 -0.036573887 -0.59972376
0001a0 9a 41 dc be 87 4c 83 3e c0 60 56 3e fa 65 db 3d
       -0.430188 0.25644323 0.20935345 0.1071281
0001b0 bd 05 ad bd da 43 a4 3c b9 d8 90 bc d9 96 9d 3d
       -0.0844836 0.020051885 -0.017681466 0.076947875
0001c0 61 6c 6f 3e ff 2d 9a be aa a5 34 be 01 27 d7 bb
       0.23381187 -0.30113217 -0.17641321 -0.006565929
0001d0 cb 83 09 3e b6 16 a0 bd b9 bf 46 be 70 9b 9f be
       0.13429181 -0.07816832 -0.19409074 -0.31173277
0001e0 8c fc e7 bd 73 72 68 3e d9 22 4f 3e a4 d6 e1 bd
       -0.11327466 0.22699909 0.20228137 -0.110272676
0001f0 f3 97 30 be 2c 0b 91 be 05 0a 20 3e 05 bd b8 3e
       -0.17245464 -0.28328836 0.15628822 0.3608171
000200 b0 47 96 bd 3e a2 b0 be fc d5 81 3e c5 24 e2 be
       -0.07337892 -0.3449878 0.2535857 -0.44168678
000210 1f 36 df 3e dc 93 4d 3e 52 07 e2 3e f6 ae 5a 3c
       0.4359598 0.20075935 0.4414621 0.013347378
000220 f3 95 b7 bd c4 78 48 3e 6b c2 e4 bd b7 81 56 be
       -0.089641474 0.19577318 -0.11169895 -0.2094792
000230 b8 7f 4c 3c 12 de 2d 3d 5d 1c 0f be 47 d7 34 3e
       0.012481622 0.04244811 -0.13975663 0.17660247
000240 b9 c4 63 3e d0 37 04 3e f7 4a 7e 3e fc e4 03 3e
       0.22243012 0.12911916 0.24833284 0.1288032
000250 a1 2d 26 3d c5 ea 77 bd 49 16 66 3d 67 fa 2b 3b
       0.04057086 -0.060526628 0.056173597 0.002624178
000260 ca 01 69 3d ad 7d 6b bd 01 8d c2 3e 63 26 08 bd
       0.05688647 -0.0574929 0.37998202 -0.033239733
000270 21 fc 83 bd a1 68 32 bd c3 24 22 be de 69 b8 3c
       -0.06444574 -0.043556813 -0.15834336 0.022511419
000280 77 af dc 3c 5d 9d a3 3d 9c 7a 95 bd df 1e 5d be
       0.026939137 0.07988999 -0.072987765 -0.21593808
000290 53 23 2a bd 07 56 92 bd 14 63 c6 3d c4 71 56 bc
       -0.041537594 -0.07145315 0.096868664 -0.013088647
0002a0 71 ff 4d be 79 f0 ed bd d9 da c2 3b f8 5f 75 3e
       -0.20116974 -0.11618132 0.005946499 0.2396239
0002b0 2a 8c 28 3e 9c 47 2c be 9d 66 bc bd 07 6c d3 3e
       0.16459718 -0.16824192 -0.091992594 0.41293356
0002c0 36 3c 2e 3f 94 0d 39 3c da 0b 06 bf fa 0b 4c be
       0.68060625 0.011294741 -0.52361834 -0.19926444
0002d0 8b 4d 0d be cc ee 85 be 7f 97 df bd ab 2d 25 3e
       -0.13799112 -0.2615875 -0.109175675 0.16130702
0002e0 79 83 e7 3d bb fc d9 bd bd e6 51 bd d2 2d 1d 3e
       0.11304373 -0.10643908 -0.05124544 0.1534951
0002f0 70 88 95 3d dc 03 9d 3e 24 14 72 3e 06 1a 57 3b
       0.07301414 0.30667007 0.23640496 0.0032821908
000300 80 13 a8 bd e8 53 f9 bd 28 d4 c1 3e 30 e7 80 3e
       -0.08206844 -0.12174207 0.37857175 0.25176382
000310 52 21 76 3c bb 4e ac be e0 75 6e bd 33 ce c3 3e
       0.015022593 -0.33653817 -0.058217883 0.38243255
000320 9e 1c f2 bd 5f 8c 7f bd f1 1e 1b be b1 15 31 3d
       -0.118218645 -0.062389728 -0.15148522 0.043233577
000330 34 d9 17 3e 95 39 4e be 9b a7 be 3c 1e 01 93 bd
       0.1482895 -0.20139153 0.02327328 -0.071779475
000340 f2 18 8c bd fa dd 99 be 85 ed e3 3d 51 a5 14 be
       -0.068406954 -0.30052167 0.11129288 -0.14516188
000350 8c dd 2b 3d 35 60 5c be 5b 0d 06 be a2 77 52 bc
       0.04195933 -0.21521075 -0.13091032 -0.0128459055
000360 bc 96 89 3c 28 5d c0 bd 62 6a 15 be 01 67 41 bd
       0.016795509 -0.09392768 -0.14591363 -0.047217373
000370 6d 3c 61 3e 79 30 3b bd 61 3c 64 be a8 1c 21 bd
       0.21995707 -0.045700524 -0.22288658 -0.03933397
000380 69 55 26 be 54 34 23 bd 69 c9 53 bf f7 85 9c be
       -0.16243519 -0.039844826 -0.827292 -0.30570957
000390 35 8c 13 3f 38 da ae 3e 26 67 b2 bc 0c 1b f0 3d
       0.57635814 0.34150863 -0.0217777 0.11723909
0003a0 93 c8 f8 3d c6 22 b9 3e a7 c2 0b 3e 6a 16 81 3d
       0.121476315 0.36159343 0.13648473 0.06303103
0003b0 a2 a4 f1 bd 09 1f 1d 3d 46 18 8f 3e 99 2d 02 3d
       -0.11798979 0.038359676 0.27948207 0.031781767
0003c0 55 b4 9f bd e5 38 04 bd 56 57 b6 bc 75 2f 44 3e
       -0.077980675 -0.03228082 -0.022258442 0.19158728
0003d0 01 a9 16 be fa 20 44 3e ac 6f e6 bd e8 79 0d 3c
       -0.14712907 0.19153205 -0.112517685 0.008635022
0003e0 39 57 51 3e f3 02 b7 bd 8f b3 37 be 6a 9b 19 bf
       0.20443429 -0.089361094 -0.1793959 -0.6000277
0003f0 0e 56 d6 be 04 17 e0 3d ea 6f 09 3e fa 9b c5 bd
       -0.4186253 0.1094189 0.13421598 -0.09648891

conv_and_fc.5.weight f4 [12]
000000 f5 3e bf 3f c8 68 dd 3f 25 3d f6 3f 31 23 d7 3f
       1.4941088 1.7297602 1.923741 1.6807615
000010 fb 34 ef 3f d2 3e df 3f 26 d4 da 3f 99 bc ce 3f
       1.8688043 1.7441046 1.7095993 1.6151305
000020 4e 4e ca 3f 05 f8 e4 3f 23 a0 bf 3f 23 d9 e5 3f
       1.5805147 1.788819 1.4970745 1.795689

conv_and_fc.5.bias f4 [12]
000000 2d 7c cd be 72 85 3b bf 1a bc b3 be 8e 73 cb be
       -0.401338 -0.73250496 -0.35104448 -0.397366
000010 2d 28 cb be 08 bf ec be aa 71 0b bf 0a 3e d2 be
       -0.3967909 -0.46239495 -0.5447031 -0.41062957
000020 25 fe a6 be fb 0e e6 be 65 88 c8 be ba f6 96 be
       -0.32615772 -0.44933304 -0.3916656 -0.29485112

conv_and_fc.5.running_mean f4 [12]
000000 31 12 74 3e 79 1c 89 3d eb 46 ec be 34 45 0a bf
       0.23835064 0.06694884 -0.46147856 -0.54011846
000010 a6 8b 0f 3f 7e 8f 22 3f 03 3b c3 3e 28 61 04 be
       0.5607246 0.635002 0.3813096 -0.12927687
000020 b8 4e e4 be cd 74 4b 3f 69 26 dc be a8 39 8e 3e
       -0.44591308 0.794751 -0.42998055 0.27778363

conv_and_fc.5.running_var f4 [12]
000000 f4 b1 7e 3f 35 34 8f 3f 78 a3 ae 3f ab 52 b3 3f
       0.99490285 1.1187807 1.3643637 1.4009603
000010 3d fe d2 3f 40 1d b5 3f 0b b9 b5 3f d6 77 df 3f
       1.6483837 1.4149551 1.4197096 1.7458446
000020 05 5e cb 3f 16 1e c5 3f 98 05 8e 3f 51 dd c2 3f
       1.5888067 1.5399806 1.1095457 1.522379

conv_and_fc.9.weight f4 [120, 300]
000000 52 89 4a be cb 2b 99 be 8b 80 bf be c8 e7 6d 3e
       -0.19778946 -0.29916224 -0.37402758 0.23232949
000010 15 c3 1c bf 85 f7 cd bc 08 b9 2d bb 15 86 75 3e
       -0.6123517 -0.02514244 -0.0026507992 0.2397693
000020 6d b3 63 bd aa f3 a3 3d 45 f6 ff 3d 9f a0 e0 3e
       -0.055591036 0.080054596 0.12498144 0.43872544
000030 76 5c 02 3e e4 12 40 be 22 78 cb be a2 dd 7c bd
       0.12730584 -0.18757206 -0.39740092 -0.061734803
000040 9d 69 a8 3d b6 eb 72 be aa c2 7a bd 1b 4d f3 bd
       0.08223269 -0.23722729 -0.061220802 -0.11879941
000050 8a 7c 37 3e 79 0a 9e be 75 7f 46 be 04 79 2a 3d
       0.17918602 -0.30867365 -0.19384558 0.041619316
000060 e3 40 2c 3e 5f f3 96 be 50 ef c1 bc c9 5a 7f be
       0.16821627 -0.29482552 -0.023673683 -0.24936976
000070 e7 d7 9c be fb 1f 00 bf 15 a6 ea 3c c5 1e ea 3d
       -0.3063347 -0.500488 0.028643647 0.1143165
000080 f7 9d b2 3d 6c f8 ac be f2 69 d2 bd fd 2f 86 3e
       0.08721536 -0.3378328 -0.10274114 0.26208487
000090 09 57 6e be 42 b0 f2 3d 9e 1f 1c 3e f3 21 1c 3e
       -0.23275389 0.11850025 0.15246436 0.15247326
0000a0 09 f2 3a 3e 3a 48 ce bd 36 69 2e 3e 9c 72 b7 3c
       0.18256392 -0.1007237 0.17032322 0.022393517
0000b0 b6 b5 83 bb be 45 df 3e ac ce b6 be ba 06 0f 3f
       -0.0040194644 0.43607897 -0.35704553 0.5586964
0000c0 96 c8 4d 3e a7 87 22 3e c2 dc 80 3d c2 b6 ca 3c
       0.20096049 0.1587206 0.06292106 0.024745349
0000d0 e7 ac 06 be e2 ea 97 3e c1 6c 84 bd 9c 3e e8 be
       -0.13151895 0.2967139 -0.06466056 -0.45360267
0000e0 80 75 19 be 6c 9d 9d 3d b3 07 5f 3d ce 0d 19 be
       -0.14986229 0.076960415 0.054450702 -0.14946672
0000f0 6a 5e 2e bf 8f 6f 4b be c5 3f 18 bd 93 1c 48 be
       -0.68112814 -0.19866775 -0.03717019 -0.1954215
000100 d2 4d 09 bf ae 0a 53 bd ce c2 05 3f 13 34 9e 3e
       -0.5363437 -0.051523857 0.52250373 0.30899104
000110 11 0d a3 3e 2b 37 8b 3d 43 a7 bc 3e 5e 8c 2c 3e
       0.31845906 0.06797632 0.3684636 0.16850421
000120 c6 96 88 bd ff 9b 30 be 8f 0a fc 3e 08 a9 9c bd
       -0.06669383 -0.17247008 0.49226806 -0.07649428
000130 30 a1 bf 3d fb 59 64 be 04 d5 81 bd 4f a8 81 be
       0.09356916 -0.2229995 -0.06339458 -0.25323722
000140 48 be 39 3e 8b ca 7e 3e 44 92 a2 be 0b d8 19 3e
       0.18138993 0.24881952 -0.31752217 0.1502382
000150 2f 13 85 3e a0 5a 24 3e 70 75 43 be 55 5d a0 3d
       0.25991198 0.16050196 -0.19087768 0.07830302
000160 df 56 74 3e 7e fb 7d be b7 af 6b 3e 8e 79 83 bd
       0.23861264 -0.24802968 0.23016249 -0.06419669
000170 37 1f 81 3d a0 ad 80 3e 01 f6 1c bf 62 b3 1d be
       0.06304782 0.25132465 -0.6131287 -0.1540046
000180 42 ac 09 bf fa 73 00 bf 54 85 19 3e d5 c9 5d be
       -0.5377847 -0.50176966 0.14992267 -0.21659024
000190 2f be 0e be 02 bc 43 be 6d 2e e8 bd 05 fb c8 bd
       -0.13939737 -0.19114688 -0.1133698 -0.09813503
0001a0 24 84 ef bc a0 b4 2a 3e 2f df 60 3e 4c 3c 07 bd
       -0.029237814 0.16670465 0.21960138 -0.033016488
0001b0 de 52 6f 3d 80 71 c9 be 21 f6 81 3a ca 1e 9f 3d
       0.058428638 -0.39344406 0.0009915271 0.077695444
0001c0 05 40 9d bc bb 2f 91 3e 9d 34 05 bf 3b 78 29 bd
       -0.019195566 0.28356728 -0.52033406 -0.041374426
0001d0 46 ab 0c be 15 d1 b0 bb ee 78 2a bd 57 67 cb be
       -0.1373721 -0.0053960183 -0.041619234 -0.3972728
0001e0 e9 1a a4 3d be 64 a5 bc 99 67 4c 3e aa e3 ac be
       0.08012945 -0.02018964 0.19961394 -0.33767444
0001f0 d8 ee 3e bd 42 a1 9c be 30 26 a1 3e d5 c9 89 3d
       -0.046614498 -0.3059178 0.31474447 0.067279495
000200 9c e9 c8 3e dc a2 a1 bd 78 14 13 be 6c ad 03 bf
       0.3924073 -0.07892391 -0.14363277 -0.51436496
000210 50 41 b5 3e 6c a0 2f 3e e3 f1 93 3e 55 8a 5e 3e
       0.35401392 0.1715104 0.28895482 0.21732457
000220 97 f3 28 be 7d 05 1e 3e e4 60 1e 3d 6c 19 7e be
       -0.16499172 0.15431781 0.03866662 -0.24814385
000230 19 f4 8f 3e 93 70 2e 3e 7e 86 91 3e 81 c2 73 3e
       0.2811592 0.17035131 0.28422922 0.23804666
000240 d1 53 3a be 1e c7 9c 3e 26 8a 56 3e b9 d1 32 be
       -0.18196036 0.30620664 0.20951137 -0.17462815
000250 a5 1d 8d 3e 86 73 5a be f5 56 35 3c c8 a8 67 3e
       0.2756168 -0.21333131 0.011068095 0.22622979
000260 5d 74 93 3e 87 41 e5 bd 1c f2 14 3f bf 9d e3 be
       0.28799716 -0.11194139 0.5818193 -0.44456288
000270 66 3c f8 bd 17 0e b2 3e e9 d0 8b be 33 8d 87 be
       -0.12120895 0.34776375 -0.27307823 -0.26474914
000280 4c a4 e0 3d 81 7b 87 3e 2b bd bd bd 70 f0 2c be
       0.10968837 0.26461414 -0.092645966 -0.16888595
000290 c1 14 28 be 48 2e c4 3d a4 5f ea 3e 1e 23 44 3d
       -0.16414167 0.0957914 0.45776093 0.047885053
0002a0 e0 fc ec bc 81 47 42 be ed 31 59 bd eb 95 65 bd
       -0.028929174 -0.18972589 -0.05302613 -0.056051176
0002b0 65 ff 02 bf ef f7 f0 bd f4 36 ee 3d 1d 53 8e bd
       -0.5117095 -0.117660396 0.11631575 -0.06949446
0002c0 0c 1f 60 3e 0c 5a 9c 3e c2 5c e8 3d f9 48 64 bf
       0.21886843 0.3053745 0.11345817 -0.8917385
0002d0 68 ba ad be 53 d6 71 be 84 94 45 3d 04 1e 29 be
       -0.3393128 -0.23616914 0.04823734 -0.16515356
0002e0 77 2b 4d bf d2 a1 5a be b3 c9 e9 bb 3f 8b 9e 3d
       -0.8014445 -0.21350792 -0.00713464 0.07741403
0002f0 bf 1c 2c 3e e9 62 fb bc d4 4a d6 3e bf 84 4b 3e
       0.16807841 -0.030686812 0.41853964 0.19874857
000300 cf 57 0a 3e d6 63 78 be 1b 3b d1 bd 9c fa 34 3e
       0.13510059 -0.24256834 -0.102163516 0.17673725
000310 af 8e 07 3e 21 05 16 3e 35 b3 1d be a2 03 c3 be
       0.13238023 0.14650394 -0.15400393 -0.3808871
000320 7b b1 59 3d 4c c0 f3 bd 61 ab b1 be b1 5b 00 bf
       0.053147774 -0.11901912 -0.34701064 -0.5013991
000330 2f a4 7e 3c 03 a9 50 be e3 38 cf 3d 2e 24 b6 be
       0.015542074 -0.20376973 0.10118272 -0.35574478
000340 a2 91 4d 3d c6 b7 20 3d d1 5c fb bb c7 5e b1 3e
       0.050187714 0.03923776 -0.0076709767 0.34642622
000350 50 94 97 3e 42 87 a3 3e ac fe 1c 3e e9 91 46 3e
       0.2960534 0.3193913 0.15331525 0.19391598
000360 a3 01 87 3e 49 d0 39 3e bf d7 eb 3e 3c c3 93 3c
       0.26368436 0.1814586 0.4606304 0.018037431
000370 4e 38 e3 bd 5e 2f b8 3c 14 5e fc bd a0 b3 96 3d
       -0.11094724 0.022483524 -0.123226315 0.073584795
000380 19 01 30 bf b2 6b f4 be 48 84 c0 bd 2c 9a d5 bd
       -0.68751675 -0.47738415 -0.09400231 -0.104297966
000390 c6 a9 51 3e a4 ab d0 be 45 98 d6 bd 3d 8f f1 3d
       0.2047492 -0.4075595 -0.10478262 0.11794899
0003a0 a9 8d 8d bd 8f e7 04 3e 1b 9c 76 be 0a be 50 be
       -0.06911785 0.12978958 -0.24082987 -0.20384994
0003b0 a1 07 41 3e bb 71 25 be 9d d9 2c 3e 9f 93 3e 3d
       0.18850566 -0.16156666 0.16879888 0.0465275
0003c0 8e b3 56 3e 5c 53 1c 3e ea 0d ab be f1 7e fd 3c
       0.20966932 0.15266174 -0.33409053 0.03094432
0003d0 f1 56 d5 3e b4 94 24 be 91 4e 98 be bc ca b3 be
       0.41667894 -0.1607235 -0.2974744 -0.35115612
0003e0 cb 72 80 bc 07 82 90 bc 01 0a 92 be 14 1d 99 3d
       -0.015679738 -0.017640127 -0.28523257 0.07476249
0003f0 30 74 94 be 95 dc 3f be d0 1a dd 3d 25 45 81 3d
       -0.28994894 -0.18736489 0.1079613 0.063120164

conv_and_fc.11.weight f4 [84, 120]
000000 1b 62 0d be 9d 73 61 3e 58 d4 04 bf 25 cf f0 bd
       -0.13806956 0.22016759 -0.5188651 -0.1175826
000010 42 93 9d 3d bb 9b 9f bb 70 f2 61 3d d7 f7 71 3d
       0.07694103 -0.0048708594 0.055162847 0.05907425
000020 46 9f 2a bd 6f cb 85 3e 29 ad b9 3e f1 74 8c 3e
       -0.0416558 0.2613177 0.36264923 0.2743297
000030 b7 cb 92 be ab b1 62 be 31 cf 9a be 8f fe b7 bc
       -0.28671047 -0.22138087 -0.302362 -0.02246025
000040 9a 75 ad be 34 b5 87 3e 9b 8a 43 be b9 75 dd 3d
       -0.33878785 0.26505435 -0.19095843 0.108134694
000050 86 bd 5b 3d dc f0 ce be 95 35 50 bf 69 9d 35 3e
       0.05364754 -0.40418136 -0.8133176 0.17735828
000060 db 79 88 be 40 71 f9 3c ef 5f 0d 3f 60 e0 e1 3c
       -0.26655468 0.03044951 0.5522451 0.02757281
000070 b7 42 e1 3c 3a 84 55 be 1a 94 b3 be 86 b7 8a 3d
       0.027497632 -0.20851222 -0.3507393 0.067732856
000080 9b 42 ff 3c 5b 98 f7 3d b9 69 e9 3d 8f 9f 2e be
       0.03115969 0.120896064 0.11397118 -0.17053054
000090 df 10 7a be 05 7d 41 be f9 f0 60 3e 86 fd 8b 3d
       -0.24420498 -0.18895347 0.21966924 0.06835465
0000a0 2d 8c 64 be 4d 7a 75 3e e2 b6 81 be 28 55 2b 3e
       -0.22319098 0.23972435 -0.2533484 0.16731703
0000b0 b6 3f 63 be 3b e3 81 be 22 30 5b bd f4 65 f9 3c
       -0.22192273 -0.25368676 -0.0535127 0.030444123
0000c0 d9 9b f8 3c df 09 a0 bd 42 6b 14 3d ce 25 e8 be
       0.030347751 -0.07814383 0.0362351 -0.45341343
0000d0 11 03 f4 bc 54 a2 0b be eb 8a 5a 3e 30 c0 e3 bd
       -0.029786618 -0.13636142 0.21342055 -0.11120641
0000e0 b0 65 b2 bd 87 f7 fc 3d 0b 0b aa bd 05 82 8d 3d
       -0.087108016 0.123518996 -0.083028875 0.06909565
0000f0 19 6e 6b bd 89 a5 0a bf 13 c8 59 3e e2 8d cc bc
       -0.057478044 -0.54158837 0.21267729 -0.024969999
000100 44 ca 57 3e ea de 21 3d cf 42 7f 3d 51 8b aa 3e
       0.21073252 0.039519228 0.062319573 0.33309415
000110 a4 37 00 3e dc 2c b3 bc 3c 87 ce 3e 81 44 75 3e
       0.12521225 -0.021871977 0.4033755 0.23951913
000120 3f e0 51 3e 09 03 b5 bd e9 a4 4f 3e c4 3b 44 bf
       0.204957 -0.088384695 0.20277752 -0.76653695
000130 7e c3 8b be 5f 59 80 3d 5b 68 1e bf e8 96 b4 3e
       -0.27297586 0.06267046 -0.61877984 0.35271382
000140 6b 88 9f bd c0 ee d8 3a da 7a cf 3d ce 66 4e be
       -0.077896915 0.0016550645 0.10130854 -0.20156404
000150 5c bd b1 3d 7e 5a da 3e c6 73 4c 3e 81 f6 f4 bd
       0.086786956 0.42647165 0.19966039 -0.119610794
000160 8b 55 88 3e d4 07 a2 3d 0a a4 2d be 00 54 df bc
       0.26627764 0.07911649 -0.16957107 -0.027261734
000170 c7 e4 99 3e dd 7a 34 bf a1 0b d5 be 0f 40 e1 be
       0.30057356 -0.70499974 -0.41610435 -0.43994185
000180 f8 1f 88 3e bd cc f4 bd 5a e9 af bd 07 8a 46 3e
       0.2658689 -0.11953113 -0.0858943 0.19388591
000190 e0 d8 3b 3e 8d 76 65 be 42 7d 94 be 0a d9 1b be
       0.1834445 -0.22408505 -0.29001814 -0.15219513
0001a0 6a e0 c5 be 3f f0 61 bd 41 55 d0 be 4b bb 4f 3d
       -0.38647777 -0.055160757 -0.40690044 0.050715726
0001b0 31 bd 73 bc 87 7d 02 be 72 b9 8b 3e 6d 2a 11 3c
       -0.01487665 -0.12743197 0.2728992 0.008860213
0001c0 e8 a6 8b 3d ec 4f 10 3f fc d9 db be 6a c7 8b be
       0.06818944 0.5637195 -0.42939746 -0.27300578
0001d0 0b 22 ae 3d 2b 11 c1 3d 5a 94 d3 bd 4a 98 c4 3e
       0.08502587 0.09427103 -0.1033103 0.38397437
0001e0 45 4b 86 bd e1 af aa bd b7 f9 91 be a0 eb bb bd
       -0.06557325 -0.083343275 -0.2851083 -0.09175801
0001f0 37 b9 0f 3f ea 19 a6 bc 76 b1 8f 3e 09 db d2 3c
       0.5614199 -0.020276029 0.2806508 0.02573921
000200 5d c4 19 3e 6d ba c6 3e 78 f9 60 3e 62 10 83 be
       0.15016313 0.38814107 0.21970165 -0.25598437
000210 68 16 8c 3e 17 e4 01 be 32 75 70 bd 2a 61 e8 bc
       0.27360845 -0.12684666 -0.058705516 -0.028366644
000220 22 5e b4 be 52 a8 46 3e 86 3d 3d bc 89 f2 9a 3d
       -0.35228068 0.19400147 -0.011550313 0.07565791
000230 0d de 17 3e d6 1b bc 3d 90 27 9a 3e 81 8f 45 3e
       0.148308 0.09184997 0.3010831 0.19293024
000240 da d7 47 3e 67 e6 ac 3e 7e 3d 35 3d 40 53 17 be
       0.19515935 0.33769533 0.044248097 -0.14777851
000250 74 d2 19 bd e6 1e 84 3c e3 92 4f be fa ce 78 3e
       -0.03755422 0.016128015 -0.20270877 0.24297705
000260 fa 9e 52 3e cf 16 9b 3e 74 04 e6 3d a8 d3 47 3d
       0.20568457 0.3029084 0.11231318 0.048785836
000270 11 ca d0 3d bd 8f 00 bf 9d 1d 52 bf 3d c0 06 3e
       0.10194791 -0.5021933 -0.82076436 0.1315927
000280 d6 a3 cf be 3c db 60 3d 63 dc c6 3e 06 5c 2f be
       -0.40554684 0.05489658 0.38840017 -0.17124948
000290 6c 04 90 3d 6f ca 9d be 50 5f ab 3d 0a 6c 40 be
       0.070320934 -0.30818507 0.08367789 -0.18791214
0002a0 5f 49 16 be de 93 0a bf 0d ec b0 be 95 0d b1 be
       -0.14676426 -0.5413188 -0.34555092 -0.34580675
0002b0 d4 0a d9 be e7 5d 49 3d b5 02 68 3e 87 55 f9 3d
       -0.42391074 0.049161818 0.22657283 0.12174516
0002c0 d2 a5 94 3e c6 b4 86 3d ad b3 71 be 1d c0 d7 3d
       0.2903276 0.065774485 -0.23603697 0.105346896
0002d0 b7 ae 0c bf 24 3d 93 be 2b 61 8b be 0c 7b fe bd
       -0.54954094 -0.28757584 -0.2722257 -0.12425813
0002e0 f7 ae 8f bd fe 7a 70 be 98 d7 8c be 78 96 d4 be
       -0.07015794 -0.23484418 -0.27508235 -0.4152105
0002f0 6f f9 7c bd 72 43 7d be f1 ed df be cb aa cd bc
       -0.061761316 -0.2473276 -0.43736222 -0.025105854
000300 dc 32 65 3c 7f f8 de bc 22 30 81 3e b6 4e e5 bd
       0.013989177 -0.027218102 0.25232035 -0.111966535
000310 7d 33 f1 3e 24 f0 b7 3b 00 4e 0a 3d e9 56 27 3e
       0.47109595 0.005613344 0.033765793 0.16341747
000320 90 31 57 be 19 6f 77 be e0 c5 c6 be e7 16 1b bf
       -0.21015 -0.24163474 -0.38822842 -0.6058182
000330 a2 a1 a4 bd a9 fa 5d bd bb 7c 3d 3d 66 85 aa 3d
       -0.080386415 -0.054194126 0.04626153 0.08326225
000340 8e 16 39 3e 08 56 b9 3c 49 9c 80 bd e2 7a a7 be
       0.1807501 0.02262403 -0.06279809 -0.3271094
000350 63 bd 12 bd cc 15 cc 3d bf 57 ae 3e f4 b1 36 bf
       -0.035825144 0.09965095 0.3405132 -0.71365285
000360 c9 f5 30 3f 02 d3 79 be 1b 5b 96 be 48 24 38 be
       0.6912504 -0.243969 -0.29366383 -0.1798259
000370 4f 5e 25 bf 88 f6 eb be 9b ec bf 3e 6b d0 b3 3e
       -0.6459703 -0.46086526 0.37485203 0.35119948
000380 47 bc 93 ba 7c 6e 01 3e bc f8 cc be ae bf ca be
       -0.0011271321 0.12639803 -0.4003352 -0.39599365
000390 6c 3d 10 3e b4 65 81 be 40 c8 41 3e 49 56 83 3e
       0.1408593 -0.25272906 0.18924046 0.25651768
0003a0 d8 8f ec be cf 04 6d 3c de ad 93 be 4a ba 65 3e
       -0.46203494 0.0144664785 -0.28843588 0.22434345
0003b0 4d 8a 89 3d d5 bd 05 be 3d 28 98 be 77 b0 26 be
       0.06715832 -0.13060696 -0.297182 -0.16278253
0003c0 b0 ea 22 3d dd e1 75 be 57 e8 25 3f b6 27 8b 3e
       0.039774597 -0.24011941 0.6480765 0.27178735
0003d0 d3 18 08 bf f5 eb 53 bd a8 97 41 3e a8 be 87 be
       -0.5316288 -0.051738698 0.18905509 -0.26512647
0003e0 b7 08 65 bc f0 9f 94 be d8 e7 9f be 70 ea 1b bd
       -0.013979129 -0.29028273 -0.3123157 -0.038065374
0003f0 d9 cd c6 3e f8 85 11 3e 5c b6 56 3e 85 fe 04 3e
       0.38828924 0.14211261 0.20968002 0.12987716

conv_and_fc.11.bias f4 [84]
000000 81 7c 45 3d 76 7c 4e 3e 81 04 ac bd 85 be b3 3e
       0.04821444 0.20164666 -0.083992966 0.35106292
000010 29 44 f2 3c 85 ed dd 3d 0f 0a 76 bd a5 16 32 3d
       0.029573517 0.10836319 -0.060068186 0.043478627
000020 01 f4 ac 3d 67 a7 a3 3d aa 47 c1 3d a2 7c 45 3e
       0.084449776 0.07990914 0.09437497 0.19285825
000030 19 29 e1 3d 95 7a c3 3e 9e 07 8e bd 64 5c 21 3d
       0.10994167 0.3817946 -0.069350466 0.03939475
000040 d0 c0 58 3d 01 76 0f 3e 2f e0 4f 3e 6d a6 04 3f
       0.052918255 0.14009859 0.20300363 0.51816446
000050 ac d8 a3 3d f9 2a cb bc d3 a6 a0 3d 8e ee 07 3e
       0.08000311 -0.024800764 0.07844319 0.13274595
000060 8e 30 53 3d c7 55 4e bd 35 cf 12 be 90 77 95 bd
       0.051559977 -0.050374772 -0.14336856 -0.07298195
000070 a6 8c 45 3e 16 4f 09 be c6 be 03 3c fd 02 e2 3b
       0.19291934 -0.13409075 0.008041089 0.006897329
000080 68 69 c8 bb ba e5 6a 3c f7 77 01 3e 05 d4 df 3d
       -0.006116081 0.014336998 0.12643419 0.109291114
000090 fd e8 c3 3b b0 f1 da 3e b7 c9 05 3e 86 1e af 3c
       0.005978702 0.42762518 0.1306523 0.02137686
0000a0 b8 60 a0 3c 1f fa 9d 3d e5 93 68 3c 4d f7 cd 3d
       0.01957737 0.077137224 0.014195417 0.100569345
0000b0 ba bd ea 3d a0 f3 db 3c 29 b8 8e 3e df a6 66 3e
       0.11461969 0.026849568 0.27874878 0.22524594
0000c0 15 f3 4f 3c 4a d3 21 3e 2a 3f c7 3c 71 a9 c5 3d
       0.012692233 0.15803257 0.024322111 0.09651459
0000d0 5f 63 b5 3e b6 54 51 3d c7 d9 a1 3d 87 c5 39 3e
       0.35427377 0.051106177 0.07902866 0.18141757
0000e0 94 0c dd bc 5d d0 ee 3d 8b 88 71 3b 27 72 7a 3d
       -0.026983537 0.11660836 0.0036855068 0.06114402
0000f0 91 11 9c 3e 28 50 3a 3c 29 c4 41 3e c8 41 10 3e
       0.30482152 0.01137165 0.18922485 0.14087594
000100 c8 e8 4e 3d 5c 48 d0 bd c2 27 87 bc c4 9f a4 bd
       0.050514966 -0.101700515 -0.01649845 -0.080382854
000110 38 d4 94 3e 7a 21 13 3e 01 93 42 3f 01 ca 21 3e
       0.2906816 0.14368239 0.7600556 0.15799715
000120 47 2d 03 3e 6b eb 2f bd 8e c3 c6 bd 35 63 44 3e
       0.1281024 -0.04294912 -0.09705268 0.1917847
000130 a0 9b 0f bb ee ea e7 bb cc 64 de 3e 40 d1 7e bd
       -0.0021912828 -0.0070775663 0.43436277 -0.062211275
000140 f6 da 4a 3d 3c 3d 2f 3d cf 1e 81 bd 07 db 88 3e
       0.049525224 0.042783007 -0.063047044 0.26729605

conv_and_fc.13.weight f4 [10, 84]
000000 be a7 c1 bc 01 18 ee bc 97 1c 4b bb 6c f8 69 3d
       -0.023639556 -0.02906418 -0.0030992383 0.05712168
000010 fa f5 a8 3d 38 61 89 be ca 39 1e be 43 5d 05 bf
       0.08250041 -0.26831985 -0.15451732 -0.5209543
000020 26 06 85 3e 69 20 16 3d cf a3 2f be e3 18 6a be
       0.25981253 0.036652002 -0.17152332 -0.22861056
000030 9c 18 aa be 20 50 8e bf d4 df e1 be 16 7f 6b 3e
       -0.332219 -1.1118202 -0.4411608 0.22997698
000040 bf 11 33 3d f6 d4 5e 3b 71 d7 a2 be 58 87 82 3d
       0.043718096 0.0034001446 -0.31804994 0.06373471
000050 de f1 7f 3d 35 90 93 3d 21 ee 18 be 07 ec 69 be
       0.062486522 0.0720524 -0.14934589 -0.22843944
000060 4b 8b 35 bf bb c5 31 bf b0 e6 92 bc bb 36 00 bf
       -0.7091567 -0.6944234 -0.017932266 -0.5008351
000070 e0 87 1d 3d 2a 00 63 3e 4c 49 60 3d 99 3a dc bb
       0.03845966 0.22168031 0.0547574 -0.0067208526
000080 5c 78 34 3e 85 7e 83 3c f6 33 d6 3d bf 9d f9 bd
       0.17624038 0.01605154 0.104591295 -0.12188291
000090 9e 8c f4 be 68 fa 29 3e 23 44 22 bf af 6f 35 be
       -0.47763532 0.16599429 -0.6338522 -0.17718385
0000a0 98 3a 8d be 05 0d 27 bc 9b b3 d5 3d 7b 28 09 be
       -0.27583766 -0.010195975 0.10434648 -0.13394348
0000b0 94 b5 1b 3b c0 f8 03 bd dc a7 6f 3e 7e 60 17 bf
       0.0023759352 -0.03221965 0.23403877 -0.5913161
0000c0 1e 16 18 bd 00 b0 17 bf 38 b4 28 be 4b 9a 6c be
       -0.037130468 -0.5925293 -0.16474998 -0.23105733
0000d0 62 d6 31 bd 80 62 3e bc 8d 37 31 3e e5 41 2a 3e
       -0.043417342 -0.011620164 0.17306347 0.166267
0000e0 22 72 0d 3e 03 f7 21 3e 72 f4 0c 3d 7b ca b3 3c
       0.1381307 0.15816884 0.03441281 0.021947136
0000f0 90 12 fc 3c 69 d2 37 3d ea f9 b5 bd 79 2c 37 3d
       0.03077057 0.044878397 -0.08885558 0.044720147
000100 e7 bf 54 3c 7e bd 74 3d 91 5e 9b be 2c 2e 59 bc
       0.012985206 0.059751026 -0.30345586 -0.013255637
000110 28 64 79 3d a4 c3 91 3d 0a 07 59 3e c5 15 50 be
       0.060886532 0.071173936 0.21194091 -0.20320804
000120 22 19 ac be 40 84 0e bc ce 6d 40 bf 21 81 32 3e
       -0.33612925 -0.008698523 -0.7516755 0.17432071
000130 2b f8 50 be a3 ba 91 be bb 4f 38 3e a3 57 35 be
       -0.20407169 -0.28462705 0.17999165 -0.17709212
000140 8f 3a 8f be 14 6b 02 be 8f 75 60 3d d0 98 3f be
       -0.27974364 -0.1273616 0.054799613 -0.18710637
000150 4f 49 15 bf a3 59 37 bd a7 a1 91 3e 36 8f 18 3e
       -0.58314985 -0.04476322 0.28443643 0.1489838
000160 69 00 23 3e ad f9 9a 3d ef a6 69 3d d8 24 04 bf
       0.15918125 0.07567153 0.057043966 -0.5161872
000170 34 01 39 be 21 c6 8c 3e 16 b2 d1 be 03 ff c3 3d
       -0.18066865 0.2749491 -0.4095618 0.09570124
000180 9f ce ec be 05 de 81 bf e9 cf 4d be 68 cd 41 3e
       -0.4625139 -1.014588 -0.20098843 0.18926013
000190 8e d0 02 3e c3 c7 51 3e ca 86 0c 3e aa 17 b3 3d
       0.1277487 0.2048636 0.13723293 0.08744748
0001a0 f0 16 55 bc 29 67 22 bf af 9a 70 be 91 8f 87 3e
       -0.013005957 -0.6343866 -0.23496507 0.2647672
0001b0 96 d5 6d 3b 72 29 9c 3f 33 8a 3f bf 5b e2 e8 be
       0.0036290637 1.2200148 -0.7482025 -0.45485196
0001c0 69 87 e1 bd 07 10 0a bd 6f e8 66 be b8 e1 09 bf
       -0.110121556 -0.03370669 -0.22549604 -0.53860044
0001d0 ec 31 35 bf 5c 36 33 bf 8b 9c 88 be af fb 0a be
       -0.707793 -0.7000482 -0.26681933 -0.13572572
0001e0 cf af 74 bf de 0b 74 3e bd 9c 26 bf 54 70 11 bf
       -0.9558076 0.23832652 -0.65082914 -0.56812024
0001f0 9e b3 64 3d ed 85 8e be 08 fa 46 bf 05 26 90 3e
       0.05583536 -0.27836552 -0.7772527 0.28154007
000200 10 a4 8b 3d f9 09 46 3e b8 95 d3 be dd 34 9b be
       0.06818402 0.19339742 -0.41325164 -0.3031377
000210 f4 fd e6 be 1d d6 a7 be d7 d6 8a 3e 73 1e eb bd
       -0.45115626 -0.32780543 0.27117035 -0.11480417
000220 3f d4 c0 be 44 6b 6a 3e 86 11 1f be 44 de 91 3e
       -0.3766193 0.22892481 -0.15534028 0.28489888
000230 9f c5 72 3e 52 35 84 be 9f db ee bd 84 77 1e bf
       0.23708199 -0.2582193 -0.11662983 -0.61901116
000240 7e 62 1c 3e 82 e6 f1 3d 74 99 bb be ac 13 54 be
       0.15271947 0.11811544 -0.36640513 -0.20710629
000250 97 65 2b be 28 41 47 bf 3f 35 92 3e b6 3c 64 be
       -0.16737972 -0.77833796 0.2855625 -0.22288784
000260 f4 10 47 3e ff 22 9e 3b 72 43 83 be 58 41 17 bf
       0.19440061 0.004825949 -0.25637394 -0.5908408
000270 28 a7 92 3d c7 a0 ea be a6 b5 4b be d5 d0 d7 be
       0.07160789 -0.45825788 -0.19893512 -0.42151514
000280 e1 37 11 be dd 62 f8 be fa d8 67 3e dc 1b 71 3e
       -0.14181472 -0.48512927 0.22641364 0.23545784
000290 2c 69 f1 3e 47 f1 53 3e bd 78 6c 3e 2d 71 29 3e
       0.47150552 0.20697509 0.23092933 0.1654708
0002a0 4d c0 b6 bd 86 e0 0a 3d 82 56 50 3c 18 87 e5 3d
       -0.08923397 0.03390553 0.012715938 0.11207408
0002b0 b4 4c 6c be 18 26 55 be 84 ae 97 bd 70 0f 12 bf
       -0.23076135 -0.20815313 -0.07406333 -0.57054806
0002c0 b2 c6 2f be b1 16 f6 3d 72 d9 b3 bd 2f e8 38 bc
       -0.1716564 0.12016047 -0.08781709 -0.011285826
0002d0 6f 33 78 3c 30 66 2c bf dc d2 c9 3d a2 01 a9 be
       0.0151489815 -0.67343426 0.09854671 -0.33009058
0002e0 5e e8 b5 be fa 76 ca 3c f3 70 fd 3c ab c0 8f 3d
       -0.35528845 0.024714936 0.030937647 0.070191704
0002f0 50 79 97 3b 54 9f 6e be ef 87 77 be 2d af cd be
       0.004622616 -0.23302966 -0.24172948 -0.4017271
000300 ee 13 51 3e 3f 99 ec be e3 08 37 be 01 eb 1d bf
       0.20417759 -0.46210667 -0.17874484 -0.6168671
000310 39 b3 41 be 79 a5 d3 be 7c 96 c6 3d b6 08 fb 3c
       -0.18916024 -0.41337183 0.09696671 0.030643802
000320 73 3a c1 3b e3 1a 0e 3a 14 0b c4 be ae 28 b7 3d
       0.0058968603 0.00054208766 -0.38289702 0.08943306
000330 5d de 0b be cf ad 00 3e bb 2c c5 3c 1a 65 58 3d
       -0.13659044 0.12566303 0.02406918 0.052830793
000340 af 71 8e 3d 70 40 b2 be 40 50 12 be 96 e6 11 3c
       0.06955277 -0.34814787 -0.14288425 0.008905074
000350 f4 91 37 3d f7 d1 8c be 29 bf 3d bd e5 ce ae bd
       0.044816926 -0.2750394 -0.046324883 -0.08535556
000360 e1 bf 19 be bf 90 ac be 78 e9 06 3d 6c ef b8 3c
       -0.15014602 -0.33704183 0.032937497 0.022575103
000370 6e c3 e9 3d 73 6b 0d be cd c9 a5 3d 49 ac 7c 3d
       0.114142284 -0.1381052 0.08095131 0.06168774
000380 f1 2b 00 bf fc a2 c2 bd 13 b7 2a 3d 6f 6e bb 3c
       -0.5006705 -0.09503743 0.0416785 0.022879807
000390 6c d1 2e 3e de fb 80 be b8 f2 13 3e b2 15 4e 3e
       0.17072076 -0.2519216 0.14448059 0.20125464
0003a0 3a 91 07 3d 87 c3 a6 bb 32 f8 41 be 8f 34 6e 3c
       0.033097483 -0.0050892266 -0.18942335 0.014538898
0003b0 89 d7 3d 3d 31 24 ae 3c e7 e2 a3 3e 21 28 9a 3c
       0.04634813 0.021257492 0.3200905 0.018817963
0003c0 7e b8 82 be 41 ae 51 bc 1b 8d 39 bf 23 75 82 be
       -0.2553138 -0.012797893 -0.72480935 -0.25479993
0003d0 ad 87 e1 bd d0 84 c3 be f4 e4 2a 3d b0 60 e8 3c
       -0.11012206 -0.38187265 0.041722253 0.028366417
0003e0 7f ff a3 bd fa ea 4a bb 2c db 13 bf 53 05 3a be
       -0.080077164 -0.003096281 -0.57756305 -0.18166094
0003f0 b8 df da 3d a0 d1 75 be cc 0f b8 be 78 ba 99 bd
       0.10687202 -0.24005747 -0.35949552 -0.07506269

conv_and_fc.13.bias f4 [10]
000000 9d 4b d6 3e ee b0 35 3e 44 fb 98 3e f6 33 ab 3e
       0.41854563 0.17743275 0.298792 0.3343808
000010 fe c7 d0 3e bf 69 e6 3e e4 97 e5 3e 49 28 c0 3e
       0.40777582 0.45002553 0.44842446 0.37530735
000020 29 f9 b0 3e 59 7d 6f 3e
       0.34565094 0.2338766
