Models/CSNN.pt (torch, 24337 bytes, 11 tensors)

conv_and_fc.0.weight f4 [6, 1, 5, 5]
0	0x3cf4e88c	0.029896043
1	0x3ccaf6f5	0.024775961
2	0xbd7fcd16	-0.062451445
3	0x3e0112af	0.12604783
4	0x3d885c5a	0.0665824
5	0xbd6aa8a4	-0.057289734
6	0x3d32913e	0.043595545
7	0xbe95d443	-0.29263505
8	0x3e54c5e0	0.20778608
9	0x3d67d4f2	0.056599565
10	0x3d244209	0.04010204
11	0xbdb6641f	-0.08905815
12	0xbf1753a1	-0.5911198
13	0x3f0009ef	0.5001516
14	0x3e339cc8	0.17540276
15	0x3c110a85	0.008852606
16	0xbe487b76	-0.19578347
17	0xbf231e6a	-0.63718283
18	0x3f4267f4	0.7593987
19	0xbd443157	-0.047898617
20	0xbe2fc18b	-0.17163675
21	0xbeac9669	-0.33708504
22	0xbe1681fa	-0.1469802
23	0x3f2b6742	0.66954434
24	0xbc1c9475	-0.009556879
25	0xbea8f18a	-0.3299678
26	0xbe2ebaed	-0.17063494
27	0xbf145fe4	-0.5795882
28	0x3dfeed38	0.1244759
29	0x3f1bc025	0.60840064
30	0xbcd772e5	-0.026299903
31	0x3e80a591	0.25126317
32	0xbf45f2ae	-0.77323425
33	0xbebd8151	-0.37012723
34	0xbcbabcd9	-0.022795128
35	0x3e9dd6a1	0.3082781
36	0x3d57c48c	0.052677676
37	0x3e0ea912	0.13931683
38	0xbe9bd15a	-0.3043316
39	0xbeb58a15	-0.3545691
40	0x3ce6461d	0.028109604
41	0xbda49b5c	-0.08037445
42	0x3f1e9a13	0.6195385
43	0xbf0d6619	-0.55233914
44	0xbd25ac67	-0.04044762
45	0x3a2bd2d3	0.00065545476
46	0x3dfa2605	0.12214283
47	0x3e9b8f23	0.30382642
48	0xbe8c3c31	-0.27389672
49	0xbe87d0a1	-0.2652636
50	0xbf1f2ad5	-0.6217473
51	0xbd9a4880	-0.075333595
52	0x3e1f6ebf	0.1556959
53	0x3f039ac2	0.51408017
54	0x3dcaf20b	0.09909447
55	0x3e1b8ecd	0.15191193
56	0xbe58dd3a	-0.21178141
57	0x3ea19ee1	0.31566527
58	0x3e0cbc5c	0.13743728
59	0x3e645e13	0.22301511
60	0x3d788d86	0.060681842
61	0xbe8cf096	-0.27527303
62	0x3deb40bb	0.11486956
63	0x3d058ef0	0.03260702
64	0xbdde98f8	-0.1086902
65	0x3e8ca409	0.274689
66	0x3eac1ed6	0.33617276
67	0x3e680dc0	0.22661495
68	0xbe980844	-0.29693806
69	0xbf1b39f2	-0.6063529
70	0x3c22b814	0.009931583
71	0x3dd4de59	0.10393972
72	0xbf650b5c	-0.8947046
73	0xbf42f782	-0.76158917
74	0xbe50122a	-0.20319429
75	0xbec07cc9	-0.37595204
76	0x3e319a1f	0.17343949
77	0xbfa72461	-1.3057977
78	0xbe0928f8	-0.13394535
79	0x3d741b53	0.05959637
80	0x3e5ad53d	0.21370406
81	0xbe8e596b	-0.27802595
82	0xbf45ec48	-0.7731366
83	0x3e04926f	0.12946485
84	0x3ee15847	0.44012663
85	0x3ce4199b	0.02784424
86	0x3d93411b	0.07190152
87	0xbef903ee	-0.4863581
88	0xbea111d7	-0.31458923
89	0x3efe8fda	0.49719125
90	0x3dc42433	0.09577217
91	0x3e8423c9	0.25808552
92	0xbeb04f6c	-0.34435594
93	0xbe090d92	-0.13384083
94	0x3eb40f8b	0.35168108
95	0x3d44d6ba	0.04805634
96	0xbe14396a	-0.14475027
97	0xbe2c1127	-0.16803418
98	0x3e88c912	0.26715904
99	0xbd731f5b	-0.059356075
100	0x3e0d7caa	0.13817087
101	0xbd4f1e8a	-0.050566234
102	0x3d0ef41f	0.03490078
103	0x3ebb7ebb	0.36620125
104	0xbe9703b0	-0.29495
105	0x3eebd9c2	0.46064574
106	0x3e856c33	0.26059112
107	0x3f333f56	0.7001852
108	0xbf0e6264	-0.5561888
109	0xbf0fa990	-0.56118107
110	0x3cd838d9	0.026394295
111	0xbdaff460	-0.08591533
112	0xbdb04ed8	-0.08608788
113	0xbd39ad78	-0.04533145
114	0x3e0eb119	0.13934745
115	0xbe8bcbb8	-0.27303863
116	0xbdbe153a	-0.092813924
117	0xbe89c7f1	-0.26910356
118	0x3eaa7035	0.33288732
119	0x3e75b1af	0.23993562
120	0xba90492f	-0.0011008139
121	0xbefda995	-0.49543443
122	0xbe853e90	-0.26024294
123	0x3e54fc06	0.20799264
124	0x3ed4e3e7	0.41580126
125	0x3da87e15	0.08227173
126	0x3dd13ff9	0.1021728
127	0xbe36e069	-0.17859043
128	0xbf86afe1	-1.0522424
129	0xbfab34ae	-1.3375452
130	0xbc41c805	-0.0118274735
131	0xbdd4fbdc	-0.10399601
132	0x3d2c5ad6	0.042078815
133	0xbf3441f0	-0.7041311
134	0xbebaa6ab	-0.36455283
135	0x3d56bd93	0.052426886
136	0x3d869e10	0.06573117
137	0xbe005051	-0.12530638
138	0x3cf7423b	0.030182948
139	0x3efb5dae	0.4909491
140	0xbe155025	-0.14581354
141	0x3e3138e7	0.17306863
142	0xbda05745	-0.07829145
143	0x3d655442	0.055988558
144	0x3ed7adc4	0.4212476
145	0x3dd55f69	0.10418589
146	0xbe10be60	-0.14135122
147	0x3c846724	0.016162463
148	0x3e2d27b0	0.16909671
149	0x3eb5a112	0.3547445

conv_and_fc.1.weight f4 [6]
0	0x404d0e94	3.2040148
1	0x405516fc	3.3295279
2	0x400541e7	2.0821474
3	0x40209313	2.5089767
4	0x3fbfd1e5	1.498593
5	0x4022b8be	2.5425258

conv_and_fc.1.bias f4 [6]
0	0x3e0ee727	0.13955365
1	0xbf9b81ca	-1.2148983
2	0xbf09725a	-0.5369011
3	0xbf6ec77f	-0.93273157
4	0xbec65d5b	-0.387431
5	0xbf4dfb9d	-0.80462056

conv_and_fc.1.running_mean f4 [6]
0	0x3c972816	0.018451732
1	0xbedb7b3c	-0.42867458
2	0xbeb336a2	-0.3500262
3	0xbf02b990	-0.51064396
4	0x3da1c733	0.07899322
5	0xbf0f358a	-0.5594107

conv_and_fc.1.running_var f4 [6]
0	0x3e4cd62c	0.20003575
1	0x3e9db495	0.30801836
2	0x3e930f1a	0.2872246
3	0x3f21c427	0.6318993
4	0x3d8e7a0d	0.06956873
5	0x3f38e781	0.72228247

conv_and_fc.4.weight f4 [12, 6, 5, 5]
0	0xbed1cc0d	-0.4097599
1	0xbe83bc8e	-0.25729793
2	0x3e06ed68	0.13176501
3	0x3eb96783	0.36211786
4	0x3b9ac222	0.0047228495
5	0xbef18de8	-0.47178578
6	0x3d0eca1e	0.034860723
7	0xbe8bb66c	-0.27287614
8	0xbe3c651c	-0.18397945
9	0x3e5b44b9	0.21412934
10	0xbedf1f00	-0.4357834
11	0xbd479fd7	-0.04873642
12	0xbda4521f	-0.08023476
13	0xbd85812c	-0.06518778
14	0xbdc7f5be	-0.097636685
15	0x3d905c6c	0.07048878
16	0x3e9cfe0e	0.30662578
17	0xbe057a0d	-0.1303484
18	0x3eb27f06	0.34862536
19	0x3e886f56	0.26647443
20	0x3ec488e5	0.38385692
21	0x3ddad53b	0.10685202
22	0x3e3f090d	0.18655796
23	0x3d51c1db	0.051210266
24	0xbe8f150d	-0.27945748
25	0x3e6cc371	0.2312143
26	0xbdf0e826	-0.11763029
27	0x3e82a55d	0.25516787
28	0xbe314ada	-0.1731371
29	0x3f13fa00	0.57803345
30	0x3ea37672	0.31926304
31	0x3eb016dd	0.34392443
32	0xbe7635da	-0.2404398
33	0xbdfac0e7	-0.122438245
34	0xbe522afb	-0.20524208
35	0xbedc1434	-0.42984164
36	0xbf0162e7	-0.5054154
37	0xbea32642	-0.31865126
38	0x3d9f8c41	0.07790423
39	0x3e80e60c	0.25175512
40	0xbef454e1	-0.47721007
41	0xbf6582b5	-0.8965257
42	0xbdc99368	-0.09842569
43	0xbeb768c9	-0.35822132
44	0xbe85b24e	-0.26112598
45	0xbee6b457	-0.45059463
46	0xbe8325f2	-0.25614887
47	0xbf9296a2	-1.145222
48	0xbdc8c3fe	-0.098030075
49	0x3af12267	0.0018397094
50	0xbf320b38	-0.6954837
51	0xbd84f2aa	-0.06491597
52	0xbe37a18d	-0.1793272
53	0x3cbc5a9c	0.022992425
54	0xbedd5869	-0.43231514
55	0xbdd2a2c3	-0.102849506
56	0x3eed0323	0.46291456
57	0xbe9f8acc	-0.3116058
58	0xbf08640d	-0.53277665
59	0xbec1a1c0	-0.37818718
60	0xbe66bf7f	-0.22533987
61	0x3e9898f5	0.29804197
62	0xbed466df	-0.41484734
63	0xbea38f12	-0.3194509
64	0xbdb174d4	-0.08664861
65	0xbe329b48	-0.17442048
66	0x3e381364	0.17976147
67	0x3e9efbbe	0.3105144
68	0xbe3f358f	-0.18672775
69	0x3d6d4a08	0.05793193
70	0x3dc581eb	0.096439205
71	0x3edcfb82	0.43160635
72	0xbf07c29f	-0.53031343
73	0x3eb9c990	0.36286592
74	0xbe0290a6	-0.12750491
75	0xbda2fc1e	-0.07958244
76	0xbe299d7c	-0.16563982
77	0x3f0ddb95	0.5541318
78	0x3f655208	0.89578295
79	0xbe9ae106	-0.30249804
80	0x3dbfb6da	0.09361048
81	0xbd946f61	-0.07247806
82	0x3db70f24	0.08938435
83	0x3c768508	0.015046366
84	0xbeac90a2	-0.33704096
85	0xbe2a6e35	-0.16643603
86	0xbea3dfdc	-0.3200673
87	0xbecf9746	-0.405451
88	0x3d743663	0.05962218
89	0x3e756efa	0.23968115
90	0xbe741a41	-0.2383814
91	0xbe5027d0	-0.20327687
92	0xbf005843	-0.50134677
93	0x3e7952e2	0.24348024
94	0x3e532e68	0.20623171
95	0x3e8a43ac	0.27004755
96	0xbe0c29a8	-0.13687766
97	0xbf2a1e06	-0.6645206
98	0x3d3fafe9	0.04679862
99	0x3e86cffd	0.26330557
100	0xbecfbc4c	-0.40573347
101	0xbee24039	-0.44189623
102	0xbf3cf960	-0.73818016
103	0xbef22144	-0.47291005
104	0x3db2b9d9	0.08726854
105	0x3dab60ae	0.083680496
106	0xbe03a33d	-0.12855239
107	0xbcf6fbc9	-0.030149357
108	0xbd96e1eb	-0.07367309
109	0xbc2daf6d	-0.010600907
110	0x3de0f8d5	0.10984961
111	0xbe368f9e	-0.17828223
112	0xbea01b51	-0.3127084
113	0xbe6dc2b2	-0.23218802
114	0xbbe957ea	-0.007121076
115	0x3ea40e58	0.32042193
116	0xbc7fae44	-0.015605513
117	0x3eb2460c	0.34819067
118	0xbe6a1d19	-0.22862662
119	0x3e80966d	0.25114766
120	0x3dbea5bb	0.09308954
121	0x3e8d7c19	0.27633741
122	0x3eb631f8	0.35584998
123	0xbe2a80e7	-0.16650735
124	0xbdfe4c78	-0.12416929
125	0x3e9ceedc	0.30650985
126	0x3e0d323e	0.13788697
127	0xbdee68e0	-0.11641097
128	0x3e11453f	0.14186572
129	0xbec51555	-0.38492838
130	0xbe1cc9d0	-0.1531136
131	0xbe375220	-0.17902422
132	0x3c31bf50	0.010848835
133	0xbe80d0f0	-0.25159407
134	0xbc0e3829	-0.008680382
135	0x3dcb05be	0.099132046
136	0x3ebce998	0.36896968
137	0x3e923996	0.2855956
138	0xbd7b64bc	-0.061375365
139	0xbe86824c	-0.26271284
140	0x3f1fdf99	0.6245056
141	0x3f07c094	0.53028226
142	0xbe88172b	-0.26580176
143	0xbe576b3d	-0.21037002
144	0x3d2a13c1	0.041522745
145	0x3f910095	1.1328303
146	0x3eb13644	0.34611714
147	0x3e1be04d	0.15222283
148	0xbe8c08b9	-0.27350405
149	0x3e1eafe3	0.15496783
150	0xbea53a8b	-0.32271227
151	0xbe2d7919	-0.16940726
152	0xbd850412	-0.06494917
153	0xbe588ff2	-0.21148661
154	0x3dd917d2	0.106002465
155	0x3dc4b552	0.096048966
156	0x3e0dcdff	0.13848113
157	0xbdbbf8ea	-0.09178336
158	0x3e1f2e4c	0.15545005
159	0x3d9c4f64	0.0763233
160	0xbde85032	-0.11343421
161	0xbd85d188	-0.065341055
162	0x3ebab514	0.36466277
163	0x3c852cca	0.016256709
164	0x3dca815b	0.09887954
165	0x3e888723	0.266656
166	0x3eba83c4	0.36428654
167	0x3dea8f01	0.11453057
168	0x3da84b4d	0.082174875
169	0xbe3f4a4d	-0.18680687
170	0xbea334a1	-0.3187609
171	0x3f058a0d	0.52163774
172	0xbe31244e	-0.17299005
173	0x3eaca972	0.33723027
174	0x3e35a7e4	0.17739826
175	0x3ed4ab38	0.4153688
176	0xbf133b3a	-0.5751225
177	0xbeb87b30	-0.36031485
178	0xbede0f0c	-0.43370855
179	0x3de840e1	0.113405
180	0xbe5b4393	-0.21412496
181	0xbede9cad	-0.4347891
182	0xbe911d98	-0.2834289
183	0xbe8625e3	-0.2620078
184	0xbe5745f9	-0.21022786
185	0x3e7de071	0.24792649
186	0x3ebfeea9	0.3748677
187	0x3ededb57	0.43526718
188	0xbcbc3b3f	-0.02297747
189	0xbecb1bf2	-0.39669758
190	0x3e243fec	0.1604001
191	0x3e968d65	0.2940475
192	0xbda8afe8	-0.082366765
193	0x3e160cf5	0.1465338
194	0xbd0bb7ff	-0.03411102
195	0xbe75e24f	-0.24012111
196	0x3d16dec0	0.036833525
197	0x3e6db802	0.23214725
198	0x3f12fa11	0.5741282
199	0xbee38086	-0.44433993
200	0xbef5e6dc	-0.48027694
201	0x3d8e7227	0.069553666
202	0xbf00ce15	-0.50314456
203	0xbe2d36fa	-0.16915503
204	0xbeacb397	-0.33730766
205	0x3dc98029	0.09838898
206	0xbe58b85c	-0.21164078
207	0x3dd12d48	0.10213715
208	0xbe5dfe16	-0.21678957
209	0xbe0eeb13	-0.13956861
210	0x3ee5c2ba	0.44875127
211	0x3d206214	0.039156035
212	0xbd24ff95	-0.040282805
213	0xbe04d85c	-0.1297316
214	0xbeb9ca28	-0.36287045
215	0x3efe4128	0.49659085
216	0x3d26b13b	0.040696364
217	0xbcb93048	-0.02260603
218	0xbebff4ec	-0.37491548
219	0x3d022bbc	0.03177999
220	0xbdeddf12	-0.11614813
221	0x3e14f170	0.14545226
222	0x3f8d96fd	1.1061703
223	0xbecf2c9b	-0.4046372
224	0xbd415f59	-0.04721007
225	0xbecb1333	-0.39663085
226	0xbe9114a5	-0.28336063
227	0xbdec812b	-0.11548074
228	0xbd73c180	-0.059510708
229	0x3ed9f862	0.42572314
230	0x3e4c0e4c	0.19927329
231	0xbe342abf	-0.17594431
232	0xbe3fdca3	-0.1873651
233	0x3ebda909	0.37043026
234	0xbde140cd	-0.10998688
235	0x3e42c44b	0.19020192
236	0xbe95d341	-0.29262736
237	0xbe2b8774	-0.1675089
238	0xbf59f2d8	-0.85136175
239	0xbe15772c	-0.14596242
240	0xbeda7e80	-0.42674637
241	0xbe0244e8	-0.12721598
242	0x3eb8dcc8	0.36105943
243	0xbe00c598	-0.12575376
244	0x3eafcc5f	0.3433561
245	0x3e5643e1	0.20924331
246	0x3f287edc	0.6581857
247	0xbe970abb	-0.29500374
248	0x3f3a9652	0.7288562
249	0x3e088d6c	0.13335198
250	0xbdbc6028	-0.09198028
251	0xbd2a2ac5	-0.041544694
252	0xbe367c09	-0.17820753
253	0x3d473e8d	0.048643637
254	0x3da14ce1	0.078759916
255	0xbde414ed	-0.11136804

conv_and_fc.5.weight f4 [12]
0	0x4019fc15	2.4060109
1	0x401113b5	2.2668278
2	0x3fd03bac	1.626821
3	0x4009ee4f	2.1551702
4	0x4005e578	2.0921307
5	0x40035cec	2.0525465
6	0x402c5140	2.692459
7	0x40121f8d	2.2831757
8	0x40260988	2.5943317
9	0x400bd57f	2.1849058
10	0x40111af7	2.2672708
11	0x402c0eb7	2.6883981

conv_and_fc.5.bias f4 [12]
0	0xbe89df95	-0.26928392
1	0xbf0b9665	-0.5452636
2	0xbf00df7a	-0.50341
3	0xbf58b681	-0.8465348
4	0xbf2ddf4f	-0.67918867
5	0xbf51fd49	-0.8202711
6	0xbf7520ea	-0.9575335
7	0xbf0a0c81	-0.5392533
8	0xbf6fc731	-0.93663317
9	0xbf007dd8	-0.5019202
10	0xbf606ebe	-0.8766898
11	0xbf583d28	-0.8446832

conv_and_fc.5.running_mean f4 [12]
0	0xbfb6cbaf	-1.4280909
1	0xbe8e2edb	-0.27770123
2	0x3f67b59d	0.90511495
3	0xbf1b38be	-0.60633457
4	0xbf67d4fe	-0.90559375
5	0xbf973e52	-1.1815894
6	0xbea947d3	-0.3306261
7	0xbf0c9429	-0.54913574
8	0xbfd25475	-1.6432024
9	0xbe228ae6	-0.15873298
10	0xbec57c07	-0.38571188
11	0xbe27d962	-0.16391519

conv_and_fc.5.running_var f4 [12]
0	0x40851b31	4.1595693
1	0x4008552d	2.1301987
2	0x3fac7d3f	1.3475722
3	0x4004ce1f	2.0750806
4	0x40105308	2.2550678
5	0x40150792	2.328587
6	0x4053409c	3.3008184
7	0x400abfdc	2.1679602
8	0x408a0e00	4.314209
9	0x4022ad4b	2.541827
10	0x40439b14	3.0563402
11	0x40841430	4.1274643

conv_and_fc.9.weight f4 [10, 300]
0	0xbda59dbe	-0.080867276
1	0x3cdca4e6	0.026934098
2	0xbe88cbdb	-0.2671803
3	0x3ec59741	0.3859196
4	0xbc2bf6d5	-0.010495861
5	0x3d641738	0.055686206
6	0xbda81bdd	-0.082084395
7	0xbe727f48	-0.23681366
8	0xbe49315e	-0.19647738
9	0xbe998526	-0.29984397
10	0x3ec6ec2c	0.3885206
11	0x3e67b746	0.22628507
12	0xbe51d232	-0.2049034
13	0x3d04f05f	0.0324558
14	0xbf78de28	-0.97213984
15	0xbc63a1ca	-0.013893554
16	0x3df88d87	0.12136369
17	0x3c83545a	0.016031433
18	0x3e393e07	0.18090068
19	0xbd868fc3	-0.06570389
20	0xbe51385c	-0.20431656
21	0xbeae5d6b	-0.34055647
22	0x3e561d4d	0.20909615
23	0x3c53c527	0.012925423
24	0xbe3bdfbd	-0.18347068
25	0xbd9a1059	-0.07522649
26	0xbf0c5417	-0.5481581
27	0x3e227e6c	0.15868539
28	0x3f2f8016	0.6855482
29	0x3e1b3984	0.15158659
30	0x3eb4bed0	0.35301828
31	0x3ecbb821	0.39788917
32	0xbe8a36fe	-0.2699508
33	0x3eca0864	0.39459527
34	0x3e935857	0.28778335
35	0xbe89fe75	-0.26951948
36	0xbe1cd1e8	-0.15314448
37	0x3e944c5b	0.28964505
38	0xbcee5cc1	-0.029096963
39	0xbd57cee4	-0.05268754
40	0xbe9e3cdf	-0.30905816
41	0xbe4beb61	-0.19914009
42	0x3e32c2a4	0.17457062
43	0xbe10f11c	-0.14154476
44	0xbde3d633	-0.1112484
45	0xbec2ecdb	-0.3807133
46	0xbce2da5a	-0.027692009
47	0xbe8724d9	-0.263953
48	0xbeaa5e15	-0.33274904
49	0xbed24c96	-0.41074055
50	0xbe0e122f	-0.13874124
51	0xbe40d0b5	-0.18829615
52	0xbe3fda82	-0.18735698
53	0x3df2e3b0	0.11859834
54	0x3f18cab8	0.59684324
55	0xbe829a4d	-0.25508347
56	0xbde4f0a7	-0.11178713
57	0xbcc31896	-0.023815434
58	0x3e7bc484	0.24586684
59	0xbe16c996	-0.14725336
60	0xbef36e98	-0.47545314
61	0x3d969e6c	0.07354435
62	0xbcd53f0f	-0.026031045
63	0xbd28fa44	-0.041254297
64	0xbe985267	-0.29750368
65	0xbee94fc0	-0.45568657
66	0x3ec63f68	0.3872025
67	0x3dc2f000	0.095184326
68	0x3d5d1292	0.05397279
69	0x3e0ffb8c	0.14060801
70	0xbf695353	-0.9114277
71	0x3c430258	0.011902414
72	0x3def0f25	0.116728105
73	0xbe857c63	-0.26071462
74	0xbe099db1	-0.13439061
75	0x3d9800ab	0.074220024
76	0x3efabfea	0.48974544
77	0x3e0fd3d9	0.14045657
78	0x3ea3fd0c	0.32028997
79	0x3ee20cb5	0.4415032
80	0xbca5139e	-0.020150956
81	0xbe51b18f	-0.2047789
82	0x3ee01537	0.43766186
83	0x3d47d618	0.04878816
84	0x3ed5a053	0.4172388
85	0xbe81fd77	-0.2538869
86	0xbe384a09	-0.17996992
87	0x3e501e16	0.20323977
88	0xbdf1f602	-0.118145004
89	0x3e5e436f	0.21705411
90	0xbdc926c7	-0.09821849
91	0x3d100e3b	0.03516982
92	0x3ec0eabe	0.37679094
93	0x3df768fd	0.12080572
94	0x3e6010f7	0.21881472
95	0x3e36644d	0.17811699
96	0x3db46204	0.088077575
97	0x3e42780d	0.18991108
98	0xbe98f462	-0.2987395
99	0x3e4613be	0.19343469
100	0x3e7112f8	0.23542392
101	0xbe502fc1	-0.20330717
102	0x3e55284c	0.20816153
103	0xbe904415	-0.28176942
104	0x3e9841b2	0.29737622
105	0x3f12c218	0.57327414
106	0x3dd4fa3e	0.103992924
107	0xbdc70c55	-0.09719149
108	0xbe4725c8	-0.19448006
109	0x3ead1783	0.33807
110	0x3e9c32ac	0.3050741
111	0xbcfe5b7d	-0.031049484
112	0x3ae9d224	0.0017839116
113	0x3e30646b	0.17225806
114	0xbea2b2f7	-0.31777164
115	0x3e0c89d8	0.13724458
116	0x3c85d54a	0.016337056
117	0xb6b4ca23	-5.38795e-06
118	0xbf2c0e05	-0.6720889
119	0xbe9900aa	-0.2988332
120	0xbf149c9a	-0.58051455
121	0x3e7b32df	0.24531125
122	0x3e38d707	0.18050776
123	0xbea3a25c	-0.31959808
124	0xbed9bd89	-0.42527416
125	0xbe98be9d	-0.29832926
126	0x3ee4650f	0.44608352
127	0xbe864da5	-0.26231113
128	0x3db8af24	0.090177804
129	0x3c8b270d	0.016986394
130	0x3e48e1fc	0.19617456
131	0x3ea9137d	0.3302268
132	0xbe6db195	-0.23212273
133	0xbedb481f	-0.42828462
134	0xbe4e7691	-0.20162417
135	0xbdb5edba	-0.08883233
136	0x3f08d76f	0.53453726
137	0x3b97618a	0.004619782
138	0xbccefc1b	-0.025266698
139	0x3ebaa21b	0.36451802
140	0xbe3ce7e4	-0.18447834
141	0x3e8da84c	0.27667463
142	0x3e079fab	0.13244502
143	0xbde2f709	-0.110822745
144	0x3eb566ad	0.35429898
145	0xbdf3a5d6	-0.11896865
146	0x3f1d48fe	0.614395
147	0x3e252c96	0.1613029
148	0xbdafed11	-0.08590139
149	0x3eac7801	0.33685306
150	0x3e637962	0.22214273
151	0x3ec21821	0.37909034
152	0xbd41438f	-0.04718357
153	0xbe38ed53	-0.18059282
154	0xbed8adea	-0.42320186
155	0xbe5d66f0	-0.21621299
156	0x3e18467c	0.14870638
157	0xbd7441af	-0.059632953
158	0xbe4a88ce	-0.1977875
159	0xbf0844f3	-0.5323021
160	0xbe257b1d	-0.16160245
161	0xbe806ca7	-0.25082895
162	0xbe156d7e	-0.14592549
163	0xbeab42f7	-0.33449528
164	0xbe851eed	-0.26000157
165	0xbe21a870	-0.1578691
166	0xbe09fa18	-0.1347431
167	0x3d87aa78	0.06624311
168	0xbf5799c1	-0.84218985
169	0x3e7496b1	0.23885609
170	0x3e149cbf	0.14512919
171	0x3e210725	0.15725382
172	0xbf39bb50	-0.7255144
173	0xbf82f199	-1.022998
174	0xbea1113f	-0.3145847
175	0xbeb3a08e	-0.3508343
176	0x3e298d1c	0.16557735
177	0xbe5509b2	-0.2080448
178	0xbdaa06a0	-0.08302045
179	0x3e588b93	0.21146993
180	0x3e0b05b5	0.13576396
181	0x3e4fbe53	0.20287447
182	0x3e8eb34a	0.27871162
183	0x3bcdc536	0.006279613
184	0x3e6c1bf2	0.23057535
185	0x3e2a3831	0.16622998
186	0x3eb10f80	0.34582138
187	0x3e305f60	0.17223883
188	0xbe5accfa	-0.21367255
189	0x3f13736c	0.57597995
190	0xbd01c985	-0.031686325
191	0x3dd4a52c	0.103830665
192	0x3dca63a9	0.0988229
193	0xbd33fb79	-0.043940995
194	0xbe4eeb9d	-0.20207067
195	0x3e8e3121	0.27771857
196	0xbe3f8fa8	-0.18707144
197	0x3e4e77e5	0.20162924
198	0xbf0ca6eb	-0.54942197
199	0xbebc12f8	-0.36733222
200	0xbf533a9f	-0.82511324
201	0x3da787b4	0.0818018
202	0x3f16af0c	0.5886085
203	0xbf16e5fb	-0.5894467
204	0x3d9ad2f5	0.07559768
205	0xbfc786ac	-1.5587974
206	0x3e5744a2	0.21022275
207	0xbdf7037d	-0.12061212
208	0x3ddc1bf2	0.10747518
209	0x3e29d597	0.16585384
210	0xbf08dce6	-0.53462064
211	0xbe6b0651	-0.22951628
212	0x3c9a5992	0.018841539
213	0xbd764c0c	-0.060131118
214	0x3ea1c105	0.31592575
215	0xbf29bccb	-0.663037
216	0x3e82d283	0.25551233
217	0xba7d1482	-0.000965424
218	0xbe5eb1ed	-0.21747561
219	0x3f04cf6d	0.51879007
220	0xbe8fa126	-0.28052634
221	0x3ea1e477	0.31619617
222	0x3eaff56c	0.3436693
223	0x3e8103d9	0.25198248
224	0x3e43836c	0.19093102
225	0x3ed2a5f9	0.41142252
226	0xbc462cad	-0.0120956125
227	0xbe2edacc	-0.17075652
228	0x3d73dee3	0.059538733
229	0x3f209b3e	0.6273688
230	0xbda8533b	-0.08219
231	0xbdd51f3a	-0.104063466
232	0xbe8535e6	-0.26017684
233	0xbe68d310	-0.22736764
234	0xbe4ec260	-0.20191336
235	0xbeeaabde	-0.4583425
236	0x3e62b6ce	0.22140047
237	0xbe6cf6de	-0.23141047
238	0xbdea0c9b	-0.114281856
239	0xbd96b410	-0.07358563
240	0x3ec5fcef	0.38669536
241	0x3d8c2a3e	0.068439946
242	0xbe27fa51	-0.16404082
243	0xbe577821	-0.2104192
244	0xbe9b67c5	-0.30352607
245	0x3e77cd62	0.24199441
246	0x3d86d92b	0.0658439
247	0xbe55df94	-0.2088607
248	0x3e2ae91a	0.16690484
249	0xbf28c08e	-0.65918815
250	0x3e3616fb	0.17782204
251	0xbc3dcb8d	-0.011584175
252	0x3e23a201	0.15979768
253	0x3f089a42	0.5336038
254	0xbe9587a5	-0.2920505
255	0xbb7ec486	-0.0038874461
