Models/CSNN.pt (torch, 22335 bytes, 6 tensors)

conv_and_fc.0.weight f4 [6, 1, 5, 5]
00000000: a5c5 373e 8a64 b9bd 689c a9bd 1147 4f3d
00000010: df71 b73c f39d cfbc 4364 2c3e 216a d83d
00000020: c220 343e b903 e1bd fb97 e8bc e354 133e
00000030: b69b 0bbe e24e 0fbd 322d 11bd c2c7 25be
00000040: b1d3 26be f157 733d d663 39be fad4 46bc
00000050: 40b8 be3b 51ce f0bd 1d48 1abe 979f 8a3d
00000060: 30a0 d1bc 4fa4 eebd b85c b0bd 5b03 d03c
00000070: 24bc b83c 6f16 b0bc 26e4 00be f04e 0f3b
00000080: 1d8a a4bd fbfa a23d 36e5 d43c 7363 90bd
00000090: a1d5 333e f164 48be 9356 1d3e aafa 833c
000000a0: 4998 053e 6a60 e4bc a95d b23d 8f28 f2bd
000000b0: 3522 d13d a09b 613c d3b8 9bbd fda9 3b3e
000000c0: 7323 c4bd b012 d83c a326 483e 98f4 4dbd
000000d0: f52b bb3d fe30 40be f883 e93d 385e 233e
000000e0: 96dc dcbb c196 11be b93e e8bc 8fd4 24bd
000000f0: 310e 5d3d aed2 d4bc a7b2 c8bd 9f09 ca3d
00000100: 53b4 37be 6387 963c 2eed 0fbc 7f86 21bd
00000110: a766 96bd b6e8 ccbc 1a6a 023e f7f2 01be
00000120: 6267 3e3e f240 acbd 779a e6bd 8fc3 8c3c
00000130: ae3d 303e d93a 543e e473 e73d c716 183d
00000140: bca2 8f3d c039 b63d caee ccbd 2382 13be
00000150: fb4e 32bd 5902 8fbd 2e27 10be 7223 493e
00000160: a93e 5bbd 9e4d ef3d 204c 073d e7d7 d53d
00000170: c5fc ebbd 4333 c43b af9a 373e 12bf 063e
00000180: ec9d f63d 8686 923d 8381 1fbd 4400 fcbd
00000190: b1a5 1b3d a637 e53d a6de 48bd 2aad 33be
000001a0: d772 a03d ac8c 333e 7a62 1e3e 54af 16be
000001b0: ab26 033d 1eb5 04be 25e2 e0bd 2805 8c3d
000001c0: 48d3 8fbc 7740 2d3e a418 a8ba ce19 ecbd
000001d0: 3351 2b3e 1f51 463e 11fc ddbc 90bb 433d
000001e0: c82e 3cbd 2c7f 3fbd c368 833d a560 bc3d
000001f0: eacf 453e 1971 0dbe e917 1b3e c842 2b3e
00000200: d97c 0bbe 8455 09be dba9 02be 33c2 9e3d
00000210: 3078 e6bd 8415 403e ff2f db3d d0bd f4bb
00000220: fa48 0d3e e9c7 adbd a6c9 2fbe 28a6 7f3c
00000230: 2635 92bd 303e 47bd 07e9 3b3e fcc9 07be
00000240: 2c8c fd3d a257 323e d7c3 54bd 4727 39bd
00000250: 099d babd 2e3a 23be
0.17946489 -0.090523794 -0.08281785 0.050604884 0.022393165 -0.02534387 0.16835122 0.105671175
0.17590621 -0.10987038 -0.028392782 0.1438785 -0.13633618 -0.034987338 -0.035443492 -0.16189483
-0.16291691 0.05941004 -0.1810449 -0.0121357385 0.005820304 -0.11758102 -0.15066572 0.067687206
-0.025589079 -0.11652433 -0.08611435 0.025392225 0.02255065 -0.021495072 -0.12587032 0.0021867119
-0.080341555 0.07958027 0.025988203 -0.070502184 0.17561962 -0.19569756 0.15365057 0.016110737
0.13046373 -0.027878005 0.087092705 -0.11824142 0.102116026 0.013770014 -0.07603612 0.18326564
-0.09577074 0.026376098 0.19545989 -0.05028209 0.091392435 -0.18768689 0.11402124 0.1595391
-0.006740163 -0.14217664 -0.028350221 -0.040241774 0.053968612 -0.025979366 -0.097997 0.09865116
-0.17939882 0.018375104 -0.008784575 -0.039434906 -0.07343798 -0.025013309 0.12735787 -0.1269034
0.18594125 -0.08410825 -0.112599306 0.017183093 0.17211029 0.20725574 0.11301401 0.037131097
0.07013461 0.08897734 -0.10006483 -0.14405112 -0.043532353 -0.0698287 -0.14077446 0.19642428
-0.053526554 0.11684726 0.033031583 0.10441571 -0.11522821 0.005987556 0.17930101 0.13158825
0.1204184 0.071545646 -0.03894187 -0.12304738 0.037999813 0.11192255 -0.04904046 -0.17546526
0.07834404 0.17534131 0.15467253 -0.1471532 0.0320193 -0.12959716 -0.10980634 0.06836921
-0.017556801 0.16919123 -0.0012824726 -0.11528359 0.16730194 0.19366883 -0.027097734 0.047786295
-0.04594305 -0.04675214 0.06416466 0.09198121 0.19317594 -0.13812675 0.1514584 0.16724694
-0.13621844 -0.13411528 -0.12760107 0.07751884 -0.11253393 0.18758208 0.10702514 -0.0074689165
0.1379737 -0.084853955 -0.17166767 0.01560358 -0.071390435 -0.04864329 0.18350612 -0.13260645
0.12380251 0.17416242 -0.05194458 -0.045203473 -0.09111983 -0.15940163

conv_and_fc.0.bias f4 [6]
00000000: 86ac 6bbd b01f 363e 33fe d43d 2bb3 833b
00000010: 7df0 32bd c27d 1a3e
-0.057537578 0.17785525 0.10400047 0.004019161 -0.04368638 0.15087035

conv_and_fc.3.weight f4 [12, 6, 5, 5]
00000000: a672 dfbc fd82 943d a65b 9bbd 767d 87bc
00000010: 200d b2bc 4b87 83bd 6467 dd3b 4ab9 743b
00000020: 73ea f13a 4d81 2dbd 7363 92bd f9b7 f5bc
00000030: 46ef be3c 4d6d 0cbd 5ab8 223d 03c9 b33d
00000040: d5c9 92bd 33f8 023d 87c7 b4bc 46e5 78bd
00000050: 07be 8c3d 849d 0abd 3107 463d 0067 933d
00000060: e2a3 56bc 55b4 4ebb 62bd 9a3d 1303 b7bc
00000070: 4b95 41ba 966b 8d3d f9a1 3a3c bba6 d0bc
00000080: f9db 2fbd 7c9e 42bd 59e7 013d 6807 47bd
00000090: 718f b5bc 6c91 693d bfec 3abb bb20 f7bc
000000a0: af41 c0bc 115e 873d 63af d5bc ea73 883d
000000b0: 2136 773d 8b56 5cbd 5c2c f3bc 1feb 053d
000000c0: d8f4 0fbc efd5 f53c 915c 5cbc 0e88 6dbd
000000d0: 4f24 28bd 0c9e 863d b872 c73c 83be 96bb
000000e0: c1cf 963d 84a2 723b 10de afbc fcfe a33d
000000f0: fd37 713d e5c4 a2bd f818 87bc f8fa 6dbd
00000100: 41be 63bd e42d 2abd 19b5 8f3d 8b0c cbbc
00000110: 4327 863d bdbf 953d 17be 8fbd 52e8 9abd
00000120: 35d4 9fbd 5b0f aabc be11 61bd 2a0e 3a3d
00000130: 16a3 453d b1ee 2d3d 08e5 84bd 879e e53c
00000140: 0627 46bc 9f2d 37bd 57d0 243d 4a57 6fbd
00000150: c65b 5c3d 526d 583d d71b 4dbd ee47 6dbd
00000160: 56b4 713d 39c6 8f3d e421 f93c 879c 8c3a
00000170: 9d2a b7bc 6463 763d 576c 51bc 1965 3d3d
00000180: 752d cb3c aae4 ae3d 3dda 823d 4972 1e3d
00000190: 7f96 b43d 2432 00bd da55 bd3c d473 353d
000001a0: 8118 883c fef3 ba3c 39fc 1dbd 5323 aabc
000001b0: d512 af3d a69d 253d 37f3 9cbd d841 833b
000001c0: 6849 bb3c ff9c 673d 8489 eb3c 6b8c 123d
000001d0: e0ff 913d a5f8 5cbd 4668 353d cd68 1fbc
000001e0: dff0 26bd a797 d2bc a114 9c3d d3f9 8c3d
000001f0: a765 bcbc 1b28 40bb 7b2b 0fbd 2b41 4a3d
00000200: daf3 5d3d f416 49bc 458b 6ebc 290b acbb
00000210: 98f5 033d 4d5a 9fbd 4d7b 9dbc 9e91 7ebd
00000220: 11f0 003d f395 67bd 59a3 9cbd 923b 933d
00000230: 1349 a6bb 23f7 c8bb efe6 e03c 3ce6 4c3b
00000240: 77b9 9fbc 9509 6fbd 236a 963b 2f76 99bd
00000250: 56e8 5b3d d3fa 773d ea6f fd3c eef3 d4bc
00000260: dccd 8d3d 0059 9bbc 339d 9ebd c7a0 d33c
00000270: 4cc8 4a3d 87d6 9c3b 8e26 423d 0959 aabc
00000280: 0bb5 1c3d 0037 40bc a8e6 483d 0e7a 77bc
00000290: b99d fa3c 2cf7 213b aff1 bb3d 504c 4ebb
000002a0: 321a 7f3d ac63 023d f773 58bd e35a 0cbd
000002b0: 077c 05bd 5657 983d 8fcc 33bd d785 97bc
000002c0: 19a4 20bd 3e01 943d 9165 d6bc 5c8f 9b3d
000002d0: cb96 323d 05c1 1e3d 38eb 143d bec0 cd3d
000002e0: a585 833d a336 843d e9e2 bfbb b23f 0f3d
000002f0: e019 603d d619 a13d 820c 64bc e977 10bd
00000300: ce72 c83d 743d e1bc a752 193d a048 38bc
00000310: fd74 2abc a7f9 b63d f67e 8e3b 30bb a23d
00000320: 8b28 acbd b0cf 72bd a331 f83c 9cd1 843c
00000330: acf4 323d aa09 abbc defc e9bc 8bf4 96bd
00000340: 990d 42bb 25e6 6ebd d7c2 883d 2aff 20bd
00000350: 382b 49bd d30b 99bd c315 603d 8862 063d
00000360: 1ca6 98bd ae77 55bd a8dc 3cbd 22be 1b3d
00000370: 2d26 233d 8e40 073c db8f 283c 37e9 5c3d
00000380: f2bc c83c 5536 5bbd 7c99 4fbd 3b51 6a3d
00000390: d1e4 963d f74b 0f3d 8a18 c13a 5a11 69bd
000003a0: 46fc 36bd 51eb 34bd f36c 823d de60 013c
000003b0: 4b38 643c 08ca 093d 478f 40bb 7c71 5fbd
000003c0: ca68 a43d 83e4 efbb 63fb a03d 15d1 d6bb
000003d0: f4e4 a13d 04fe 923d c841 4e3d c5dd 093c
000003e0: 94e9 903d 3914 2d3d f957 f7bc 67bf 6dbc
000003f0: 9cbe 2f3d 39d5 bb3c 027c 543d 3439 97bc
-0.027276348 0.072515465 -0.0758584 -0.016539317 -0.021734774 -0.064222895 0.00675671 0.0037341886
0.0018456712 -0.04235964 -0.07147875 -0.029994952 0.023307454 -0.034283925 0.039726593 0.08778574
-0.07167403 0.031974982 -0.022067798 -0.060765527 0.06872182 -0.033841625 0.048346702 0.0719738
-0.013100596 -0.0031540592 0.07555653 -0.022340333 -0.0007384612 0.06905286 0.011391156 -0.025470128
-0.04293439 -0.047514424 0.03171477 -0.048591048 -0.022163125 0.05702345 -0.002852246 -0.030166974
-0.02346882 0.066097386 -0.026084607 0.06662734 0.060354356 -0.05379347 -0.029684238 0.032694932
-0.008786403 0.030009238 -0.013449804 -0.05799108 -0.04105025 0.06573114 0.024346694 -0.0046003475
0.07363845 0.0037023136 -0.021468192 0.08007619 0.058891285 -0.07947711 -0.016491398 -0.05810067
-0.055601362 -0.04154767 0.070169635 -0.024786254 0.06550457 0.07311962 -0.07018679 -0.07563843
-0.07804147 -0.020759275 -0.05494856 0.045423664 0.048251234 0.042463962 -0.06488997 0.028029693
-0.012094265 -0.044721242 0.04023775 -0.058432855 0.05379846 0.05283863 -0.05007538 -0.057929926
0.059009872 0.0702023 0.030411668 0.0010727801 -0.022359187 0.06015338 -0.012782178 0.046238992
0.024801949 0.08539708 0.06389282 0.03868321 0.08817767 -0.031297818 0.023112226 0.044299915
0.016613247 0.022821423 -0.038570616 -0.020768797 0.08548514 0.04043355 -0.07663577 0.004005652
0.022862151 0.056546208 0.028752096 0.035778444 0.071288824 -0.053948063 0.044288896 -0.009729576
-0.040757056 -0.02570708 0.07621122 0.06883588 -0.02299769 -0.002932078 -0.034953576 0.049378555
0.054187633 -0.012273539 -0.014559572 -0.005250354 0.03221664 -0.077808954 -0.019223833 -0.06215059
0.031478945 -0.056539487 -0.076483436 0.071890965 -0.005074629 -0.0061329766 0.027453868 0.003126516
-0.019497616 -0.058358748 0.004590289 -0.07493245 0.05368837 0.06054194 0.030937154 -0.025995221
0.0692403 -0.018963337 -0.07744827 0.0258335 0.049507424 0.004786316 0.04740005 -0.020794408
0.038258594 -0.011731863 0.049048096 -0.015104784 0.030592786 0.0024713976 0.09176957 -0.0031478591
0.06228084 0.031833336 -0.052844968 -0.034266364 -0.032588985 0.07438533 -0.043896254 -0.018496437
-0.039218996 0.072267994 -0.026171478 0.07595703 0.04360084 0.038758297 0.036357135 0.10046528
0.06421975 0.064557336 -0.005855907 0.034972854 0.054712176 0.07866256 -0.013918998 -0.035270605
0.09787522 -0.027495123 0.03743234 -0.011247784 -0.010403869 0.08934336 0.004348631 0.079458594
-0.084061705 -0.059280097 0.030297106 0.01621323 0.04369037 -0.020878632 -0.02856296 -0.073708616
-0.0029610156 -0.05832495 0.06677788 -0.039305843 -0.049113482 -0.074729584 0.054708254 0.03280881
-0.07453558 -0.05211609 -0.04610887 0.03802312 0.03983133 0.008255137 0.010288204 0.05393335
0.024504159 -0.053518612 -0.050683483 0.057206374 0.07367862 0.034984555 0.0014732045 -0.056901313
-0.04467418 -0.044169728 0.06368437 0.00789663 0.013929437 0.033639938 -0.0029382275 -0.054551587
0.080277994 -0.007320942 0.07860448 -0.0065556862 0.079049975 0.07177356 0.050355703 0.00841469
0.070758015 0.042255614 -0.030193316 -0.014510966 0.04290639 0.02292882 0.051876076 -0.018459894

conv_and_fc.3.bias f4 [12]
00000000: 11cb 4abd 661a 63bd c74e 0d3d d96f 7cbd
00000010: f2a8 5f3d 8259 65bd 7c66 3c3b 91e4 a03d
00000020: 1b6b 593d 96b2 6dbd b538 1b3d afbf 9c3d
-0.049510065 -0.055445097 0.034498956 -0.061630104 0.05460448 -0.055993564 0.002874761 0.078560956
0.05308066 -0.05803164 0.037895877 0.07653748

conv_and_fc.7.weight f4 [10, 300]
00000000: a44b aa3c 88f5 f73c b1ab 343d 2697 2e3d
00000010: 0688 793d 7d6d f63c 270a debc 73aa 283c
00000020: 606c 72bc 9f21 42bd dc0b 1c3d 809d 293c
00000030: 57f0 233c c34a a63c a6f9 793c 8832 f93c
00000040: 3885 fcbc 12bb 35bd 944d 80bc efab e2bd
00000050: 0197 663c 9891 41bd 9d5a 9c3c a01b d6bc
00000060: 16e0 89bd 4668 dbbc 2506 473b 7a75 fb3c
00000070: bf0e ed3c aa16 853d 33ff 3bbd a059 22bd
00000080: 910a 533c 2d96 3f3d fe03 5a3c 7b07 063d
00000090: 4f6c edbc 1837 1b3d 1cca fa3c 043a a3bd
000000a0: 2847 043d 0f9d f13c 9316 71bd 6900 fbbc
000000b0: caac aebd 959f 85bd 9277 423d 8422 48bd
000000c0: 9c87 ea3c 9da5 c5bd 0072 3c3d bf8e 57bd
000000d0: 45ae 01bc 63eb aa3d 6340 283c 3e24 733d
000000e0: 0276 57bd 392d 36bd 9634 b03d 25c3 e03c
000000f0: 81e0 debc 30a9 563d 1e33 5f3c 6de1 103c
00000100: a67e 46bb b825 c03b 8633 9f3d 0a6b 863c
00000110: 6ebe 61bc 9e6a 32bc a89f 783c 7a2f 99bc
00000120: 5a30 7cbc ff92 803b d877 34bd 1ad4 07bd
00000130: 73d7 2dbd 0b74 9a3c b71f 473a 8b3a 48bd
00000140: d714 293d 2830 f8bc 5132 4e3d 73e3 ec3c
00000150: 86be e93c fa87 2a3c 58f1 f2bc 3b02 d93c
00000160: f988 933c 57b0 b33b 973b 81bc 4fbd 28bc
00000170: 603c 50bc 728d 0c3d a06e 633c fe21 503d
00000180: 013a 03bd c0f0 72bc 3d77 24bd debf 09bd
00000190: 2093 fabd e884 b83c 6e90 48bc 4a73 0f3d
000001a0: 09d0 bbbd 245d 76bc 9a14 863c 10da ab3c
000001b0: 2909 03bc 8ba4 0c3d 637b 023d 8fb4 93bd
000001c0: c445 543d f0ac 483c e9c6 bf3c bc1a 88b9
000001d0: 9481 82bd ae9f 433d 8c37 62bd e148 623a
000001e0: 63f1 8f3d 589a d5bd 94ba 25bb ec27 0abd
000001f0: 35cd 093c 177e 7c3d 1614 2ebd 32ca 7bbd
00000200: dfff 143d c916 1b3c 78ea 143d 3aa2 15bc
00000210: 1bb8 0abd c939 323d 8d68 803d 9085 6fbb
00000220: 66cd 163c b4db c9b9 1ac2 d2bc 7e93 7e3c
00000230: 8b71 ac3b e3ad 2e3d 73e6 02bd 9b35 e5bc
00000240: cbd5 0ebd 846e febc a4c5 1dbd efd2 663c
00000250: ebdb 833d 8e48 16be 85ea ec3c 6be1 5e3d
00000260: 982c c4bc a78b 7d3d e908 c63b 6d89 9b3c
00000270: 65e3 4ebd c223 bbbc b17a c83c f5e7 243c
00000280: 73b4 42bb 07be aebc ca69 89bb cd55 b33c
00000290: e467 123c 638e e93c 83bc 9c3c 4e7e 85bd
000002a0: 810a 3d3d 61c6 033d 4ca5 f93c 4e0e cd3c
000002b0: c6fc 903c e909 a2bb 874b 9dbc 105f 38bd
000002c0: cc82 913c 9e48 473c ffab 0dbd 6ba8 0a3d
000002d0: 6595 7e3d 08b1 1e3d 348c a93b 255d 7d3d
000002e0: d22b 90bc bab8 603c 7ac2 62bc 743b 033d
000002f0: 3e94 c5bc 9442 08bc 827c 50bd 1577 9fbc
00000300: f0d7 723c 0c1d 82bd bc9e 8b3c cb57 24bd
00000310: c5de 7dbd 8906 513d 4371 d03c 1ee3 5e3c
00000320: ed71 6a3d b369 fe3c 571f 87bc 3da0 023d
00000330: c163 a93d 7d5b 3ebd fbb5 543d 848c fa3c
00000340: a5c5 2ebd 34d5 393d e0aa 243c 52c3 1bbd
00000350: 0997 02bd 62d6 3fbd 8872 3ebd 07b8 0e3d
00000360: 4b02 983c cdd4 9d3c e6d1 33bc b496 3ebe
00000370: fd1f 183d 1f43 ae3c 963a 603d 4927 03ba
00000380: 8f98 04be df42 4e3d 192a 843d 26f4 36bd
00000390: a8fc 25bb 2d13 8d3d 8377 173c e40a 653d
000003a0: 41f7 3cbc d1fa 2abd c4cf 403d fc5e 623d
000003b0: 9862 2f3c cd04 b23c 32aa 583d 7835 803c
000003c0: e41c 023b efcf 013d 2993 8cbd 48df 49bd
000003d0: d92f ecbc 40e3 33bd 6fd9 c33c 804a 09bd
000003e0: b526 7d3c cc3c 523d 7b11 a03b 5608 03bb
000003f0: a2da 7d3d f4b9 293d c517 d13a 7048 f33c
0.020788021 0.030268446 0.04410905 0.042624615 0.060920738 0.030081505 -0.02710445 0.0102945445
-0.014796346 -0.047395345 0.038097247 0.010352492 0.010006032 0.020299321 0.015257275 0.030419603
-0.030825242 -0.044367857 -0.015661992 -0.1106795 0.014074088 -0.04725799 0.019086177 -0.02613622
-0.06732194 -0.02678312 0.0030368653 0.030695666 0.028937696 0.064984635 -0.045897674 -0.039636254
0.012880937 0.04677408 0.013306616 0.032721978 -0.02898231 0.03789434 0.030613951 -0.0797005
0.032294422 0.029493837 -0.05885942 -0.030639844 -0.08529051 -0.065245785 0.047477312 -0.04886104
0.028629117 -0.09650729 0.046007156 -0.052626368 -0.007915084 0.08345678 0.010269257 0.059360735
-0.052602775 -0.04447672 0.0860378 0.027436802 -0.027206661 0.052407444 0.013623027 0.008842808
-0.003028789 0.0058638714 0.07773499 0.016408462 -0.013778312 -0.010889677 0.015174784 -0.018699396
-0.015392387 0.0039237733 -0.044059604 -0.03316126 -0.042441797 0.018854162 0.00075959734 -0.048883956
0.04127964 -0.0302964 0.050340954 0.02891705 0.028533231 0.010408396 -0.029656097 0.026490321
0.01800965 0.005483668 -0.015775485 -0.010299041 -0.012709707 0.03431458 0.0138813555 0.050813667
-0.03203774 -0.014827907 -0.040152777 -0.033630244 -0.12235093 0.022524312 -0.012241466 0.035022058
-0.09170539 -0.015036855 0.016367245 0.020978004 -0.007997789 0.034336608 0.031855952 -0.07212173
0.051824346 0.012248263 0.023410277 -0.0002595986 -0.06372371 0.047759704 -0.055228755 0.00086320756
0.07028463 -0.10429829 -0.0025288211 -0.03372948 0.008410742 0.061643686 -0.042499624 -0.061472125
0.03637683 0.009465882 0.03635642 -0.009132916 -0.033866983 0.04351214 0.062699415 -0.0036548115
0.009204244 -0.000385014 -0.02572732 0.015538095 0.005262559 0.0426463 -0.031958055 -0.027979663
-0.034871858 -0.031058557 -0.038518563 0.014088376 0.064384304 -0.14676115 0.028920421 0.054414194
-0.023947045 0.06190076 0.0060435426 0.018986428 -0.05050983 -0.0228442 0.024472566 0.0100650685
-0.0029709607 -0.021330846 -0.0041935192 0.021891499 0.008935902 0.028510278 0.019132858 -0.06518231
0.046152595 0.03217161 0.030474328 0.025031235 0.017698657 -0.004945029 -0.019201053 -0.045012534
0.017762564 0.012163309 -0.034587856 0.033852022 0.062154192 0.03874305 0.005174184 0.061856408
-0.01759902 0.013715917 -0.013840312 0.03203912 -0.024118539 -0.008316655 -0.05089999 -0.019465962
0.014821991 -0.063531965 0.017043464 -0.04012279 -0.061980028 0.051031623 0.025444632 0.013603954
0.057237554 0.03105626 -0.016494436 0.031891096 0.0827098 -0.04647397 0.051931363 0.030584581
-0.042668957 0.045369342 0.010050505 -0.03802807 -0.03188232 -0.04683531 -0.046495944 0.03484347
0.01855578 0.01926651 -0.010975337 -0.18612176 0.03713988 0.02127224 0.054743372 -0.00050031074
-0.12948821 0.050356742 0.06453342 -0.04466643 -0.0025327597 0.06888423 0.009244802 0.05591859
-0.011533559 -0.041743103 0.04707314 0.055266365 0.010704659 0.021730805 0.052896686 0.015650496
0.0019853646 0.03169244 -0.06864006 -0.049285203 -0.02883141 -0.043917894 0.023907391 -0.033518314
0.015451123 0.05132751 0.0048848963 -0.0019993982 0.061976083 0.041437104 0.0015952518 0.029697627

conv_and_fc.7.bias f4 [10]
00000000: 6ad1 61bd d6c2 0bbc 8ee9 02b9 06ce 44bc
00000010: b328 433d 79cd 433d 11ab 903c 85b6 13bd
00000020: 3eed b63c e68d 193d
-0.055131353 -0.008530339 -0.00012484772 -0.01201201 0.047646236 0.047803376 0.017659696 -0.036062736
0.022329923 0.03748884
