Models/CSNN.pt (torch, 24337 bytes, 11 tensors)

conv_and_fc.0.weight f4 [6, 1, 5, 5]
0.0031990025 -0.06317018 -0.53100544 -0.7665157 -0.8288709 -0.02349274 -0.019198177 -0.3710863
-0.43168664 -0.077538006 0.11694823 0.010873276 -0.009666097 0.19859138 -0.046435315 -0.1339661
0.2251134 0.22782427 -0.17154422 0.067311935 -0.11725033 -0.026903614 0.53750235 0.027495213
0.0014409444 -0.19807597 -0.034947712 -0.049635414 0.12654383 0.13312413 0.012872868 -0.15498546
-0.016667387 0.05544048 0.064174116 0.17681946 0.11196089 -0.2310225 -0.008434696 -0.028404213
0.21318863 0.29539722 -0.19376719 -0.13348763 -0.15298048 0.20173843 0.2521339 0.3482497
-0.17615224 -0.955738 -0.088756345 -0.0409064 0.15432796 -0.13415268 0.036779452 -0.3021363
-0.10543153 -0.17797035 0.039036497 -0.027420323 -0.002023872 -0.13531001 0.11734992 0.13820587
-0.68064624 0.04943744 0.030258909 0.4144035 0.34971863 -0.21168579 -0.27792323 -0.14437829
0.35393775 -0.14154948 -0.36814398 -0.08325686 0.0477479 0.13896102 -0.05345691 0.053450286
-0.38840806 0.27223626 0.10047282 0.03819873 -0.09583661 -0.55601555 0.45437557 0.04125875
0.064104274 0.026226908 -0.47158775 0.52203035 -0.0746272 -0.053927824 0.0008073816 -0.16101103
0.1962563 -0.014562156 0.04264161 -0.04183239 -0.09976989 -0.23618236 -0.044633288 0.1831508
0.28580365 -0.16111806 -0.100553505 0.2039538 0.29705796 -0.100612424 0.045248795 -0.036589727
0.11205794 0.0929339 -0.41468343 -0.033165645 0.24926749 0.2459825 -1.0822281 -0.47727406
0.08187424 0.17634563 -0.28514907 -0.39104694 0.18581644 -0.107548125 -0.16096577 -0.19629979
-0.10177383 0.33603758 0.22091495 0.13261482 -0.2706876 0.24123934 0.1539559 0.085443646
0.18520938 -0.0736452 0.041223425 -0.18570082 -0.5190684 0.11006488 0.477224 0.21924374
-0.098215595 -0.40119213 -0.21170425 0.18990175 0.19231886 0.060295433
00000000: 5ba6 513b 5e5f 81bd f9ef 07bf 5f3a 44bf
00000010: e230 54bf d973 c0bc 7f45 9dbc 06ff bdbe
00000020: 0806 ddbe 3fcc 9ebd 8e82 ef3d d325 323c
00000030: 8d5e 1ebc 8a5b 4b3e f532 3ebd 692e 09be
00000040: 2184 663e c44a 693e 4aa9 2fbe d7da 893d
00000050: f120 f0bd f864 dcbc c199 093f a43d e13c
00000060: 12de bc3a 6dd4 4abe 5525 0fbd 814e 4bbd
00000070: b594 013e b151 083e b9e8 523c 82b4 1ebe
00000080: 0b8a 88bc 8f15 633d b86d 833d 2910 353e
00000090: c04b e53d 2a91 6cbe ae31 0abc f4af e8bc
000000a0: 1f4e 5a3e 4e3e 973e e86a 46be fbb0 08be
000000b0: eaa6 1cbe 8594 4e3e b217 813e c94d b23e
000000c0: 4161 34be 3fab 74bf e3c5 b5bd 788d 27bd
000000d0: 2608 1e3e 525f 09be 0da6 163d 9cb1 9abe
000000e0: 7cec d7bd dc3d 36be bce4 1f3d 96a0 e0bc
000000f0: f0a2 04bb b58e 0abe 2855 f03d d785 0d3e
00000100: d53e 2ebf ea7e 4a3d 88e1 f73c b22c d43e
00000110: 520e b33e 29c4 58be f44b 8ebe e7d7 13be
00000120: 5437 b53e 59f2 10be 5e7d bcbe 9382 aabd
00000130: 4d93 433d cc4b 0e3e a2f5 5abd b0ee 5a3d
00000140: 6cdd c6be 8d62 8b3e b2c4 cd3d 4676 1c3d
00000150: fc45 c4bd 0957 0ebf eaa3 e83e effe 283d
00000160: 1a49 833d d0d9 d63c f373 f1be c8a3 053f
00000170: 25d6 98bd 6ce3 5cbd 76a6 533a 13e0 24be
00000180: 69f7 483e 1c96 6ebc f8a8 2e3d 7158 2bbd
00000190: 2854 ccbd cad9 71be 65d1 36bd e28b 3b3e
000001a0: db54 923e 22fc 24be ffee cdbd 44d9 503e
000001b0: fb17 983e e30d cebd cd56 393d 1cdf 15bd
000001c0: a27e e53d 2154 be3d 6351 d4be b3d8 07bd
000001d0: fa3f 7f3e d6e2 7b3e 7386 8abf 445d f4be
000001e0: aead a73d f393 343e 0fff 91be 4e37 c8be
000001f0: aa46 3e3e 3142 dcbd 36d4 24be d002 49be
00000200: cc6e d0bd 1e0d ac3e 8737 623e 2ecc 073e
00000210: 9197 8abe 7207 773e 9ea6 1d3e 14fd ae3d
00000220: 87a7 3d3e 4bd3 96bd e5d9 283d 5b28 3ebe
00000230: abe1 04bf b269 e13d b456 f43e 6e81 603e
00000240: 4225 c9bd 0e69 cdbe 00c9 58be 9b75 423e
00000250: 3cef 443e 58f8 763d

conv_and_fc.1.weight f4 [6]
3.0911694 1.852403 2.291014 3.157489 2.879825 1.4804385
00000000: b8d5 4540 8b1b ed3f f99f 1240 4d14 4a40
00000010: 0e4f 3840 027f bd3f

conv_and_fc.1.bias f4 [6]
-0.9427519 0.16043033 -0.7864531 0.21615353 -0.87553513 -0.038093556
00000000: 3058 71bf d947 243e fe54 49bf 5a57 5d3e
00000010: 1223 60bf fd07 1cbd

conv_and_fc.1.running_mean f4 [6]
-0.59747875 -0.0922547 -0.31955624 0.018193679 -0.3795893 0.10154577
00000000: 5ef4 18bf 08f0 bcbd e09c a3be e90a 953c
00000010: 8759 c2be 3bf7 cf3d

conv_and_fc.1.running_var f4 [6]
0.63165575 0.11121401 0.14596778 0.07603243 0.2390327 0.075817704
00000000: 31b4 213f 2cc4 e33d 9478 153e e4b6 9b3d
00000010: fdc4 743e 5046 9b3d

conv_and_fc.4.weight f4 [12, 6, 5, 5]
-0.14359409 0.34669518 -0.006553263 0.035514124 -0.03214549 0.23838487 0.2857852 0.23833212
-0.040634792 0.1656014 -0.10687835 0.28417367 -0.55674964 -0.29156548 0.12420582 0.26369083
0.27125227 -0.24769394 0.18797293 0.284094 0.431077 -0.14121807 -0.26277316 0.09189187
0.24789236 -0.39604875 -0.40559202 -0.40091276 0.12247847 0.21350707 -0.09064479 -0.23714602
-0.17714538 0.051714588 -0.13468255 0.026245039 -0.17327201 0.18152197 0.042829987 -0.10595562
0.067278184 -0.002425314 0.12981041 -0.0038763997 -0.2692766 0.3375003 0.119973965 0.06713136
0.121495694 -0.06386998 0.22983447 0.051958878 0.14532308 0.33928135 0.085841954 -0.04097327
0.04636779 0.031454373 0.49917796 -0.6508689 0.18236181 -0.09933416 0.33158574 0.2676944
-0.29321745 -0.041745167 0.12637886 0.080787376 -0.4157837 0.021224108 0.23795035 -0.18315999
-0.25298297 -0.021138806 0.31841397 0.04528539 0.057785794 -0.13346598 -0.25847828 0.08526779
-0.18408638 0.22600266 -0.025532508 0.23752433 0.08669372 0.2601306 0.21826796 0.15756312
0.15008056 0.15175541 0.19835198 0.1051286 0.2723327 0.10214948 -0.19288723 0.16971059
0.24481323 0.08003161 -0.1657696 -0.2860797 -0.2550333 -0.30874097 -0.050877955 0.46498373
0.092183664 -0.1296257 -0.11968085 0.17155375 0.762066 -0.22821103 -0.31379014 -0.22181363
0.015151413 0.2616372 -0.48665366 -0.12157628 -0.22233436 0.21251999 0.21093123 0.056186162
-0.18557353 -0.24716406 0.17438442 -0.014557907 0.18848589 0.08341416 -0.009609509 -0.22988814
-0.35221714 -0.24408372 0.044544175 -0.025545146 -0.07556419 -0.10993499 0.007910828 0.22156233
0.34201595 0.10563672 0.123602666 -0.15856782 0.039105173 0.19438092 -0.091327086 -0.13407284
0.023601308 0.0069177137 0.0126057975 0.024674298 -0.054939047 0.08014337 -0.18054704 0.022866325
-0.015930949 0.46382615 0.3862996 -0.58674675 0.17245294 0.31340218 0.26004893 0.31259313
0.25646853 -0.23254819 -0.5292916 -0.28716075 -0.20873377 -0.12603791 -0.10042799 -0.25058106
-0.26167613 0.26242912 -0.020034106 -0.47843274 -0.051486775 -0.21005419 0.3781956 0.12946725
0.21982649 0.03830652 -0.17531443 0.07652454 0.16100842 -0.11987232 -0.025390852 -0.11734533
0.15350999 -0.16529937 -0.090128414 -0.21855931 -0.14802745 -0.23239979 -0.08335178 -0.020496543
-0.188442 -0.2394945 -0.03352558 0.032708824 0.2375708 -0.24770428 -0.012793623 0.17177066
0.034269713 0.19666506 0.15145302 0.014958544 0.13005362 -0.16598205 0.05191867 -0.29912972
-0.04734851 -0.12946044 0.0621851 -0.021837164 0.051683072 0.097250566 0.0117896665 0.22022349
-0.032884493 -0.03442284 0.059213556 0.086163014 0.14185706 0.080840126 0.2913394 -0.09432767
0.07730687 -0.03474695 -0.027471341 -0.083643086 0.050835494 -0.040417783 -0.020941764 0.04449679
-0.0051972913 0.10610994 0.06469785 -0.016110435 0.14962725 0.10778523 0.173534 0.09349702
-0.03751526 0.071582675 0.019966075 0.42283663 0.072684154 -0.066689916 0.32657632 0.15790226
0.6037728 0.008455122 -0.5281766 0.03366288 0.2088463 -0.015734907 -0.2607741 0.075411595
00000000: 540a 13be 0882 b13e c1bc d6bb 4277 113d
00000010: fdaa 03bd 2a1b 743e 7052 923e 560d 743e
00000020: ab70 26bd 6a93 293e 09e3 dabd 367f 913e
00000030: 2587 0ebf 1248 95be 9f5f fe3d 7c02 873e
00000040: 94e1 8a3e 7ba3 7dbe fa7b 403e c574 913e
00000050: 20b6 dc3e 789b 10be 348a 86be ce31 bc3d
00000060: 7fd7 7d3e e7c6 cabe c2a9 cfbe 7044 cdbe
00000070: fed5 fa3d 99a1 5a3e faa3 b9bd 68d6 72be
00000080: 9965 35be add2 533d 39ea 09be d6ff d63c
00000090: 386e 31be e5e0 393e 7f6e 2f3d 43ff d8bd
000000a0: 25c9 893d 04f2 1ebb 05ed 043e 320b 7ebb
000000b0: 9fde 89be d7cc ac3e e9b4 f53d 2b7c 893d
000000c0: bcd2 f83d 44ce 82bd ba59 6b3e d5d2 543d
000000d0: 93cf 143e 49b6 ad3e e8cd af3d 96d3 27bd
000000e0: 27ec 3d3d 4dd6 003d 4194 ff3e 589f 26bf
000000f0: 0ebd 3a3e b56f cbbd 9bc5 a93e 3e0f 893e
00000100: 9920 96be fbfc 2abd 7669 013e da73 a53d
00000110: 9ae1 d4be 2ede ad3c 42a9 733e 4b8e 3bbe
00000120: fc86 81be 4a2b adbc 2807 a33e 2c7d 393d
00000130: ccb0 6c3d 4eab 08be 4457 84be e1a0 ae3d
00000140: 2481 3cbe 3e6d 673e 8d29 d1bc 9439 733e
00000150: 7a8c b13d d72f 853e a381 5f3e 3a58 213e
00000160: b8ae 193e c565 1b3e c81c 4b3e aa4d d73d
00000170: 316f 8b3e bf33 d13d 3b84 45be 9dc8 2d3e
00000180: 52b0 7a3e 9de7 a33d 82bf 29be 0a79 92be
00000190: ba93 82be 4c13 9ebe 6765 50bd 5912 ee3e
000001a0: caca bc3d 99bc 04be 3c1b f5bd c9ab 2f3e
000001b0: c216 433f 27b0 69be 1aa9 a0be 1d23 63be
000001c0: a23d 783c 50f5 853e ab2a f9be fcfc f8bd
000001d0: 9eab 63be d79e 593e 5bfe 573e 7623 663d
000001e0: fd06 3ebe 9318 7dbe d491 323e 4a84 6ebc
000001f0: 7202 413e 0bd5 aa3d 3471 1dbc cc67 6bbe
00000200: ce55 b4be 15f1 79be f473 363d 0e44 d1bc
00000210: 66c1 9abd 9925 e1bd 6b9c 013c 3ce1 623e
00000220: b71c af3e 1158 d83d 6523 fd3d 9a5f 22be
00000230: bf2c 203d cb0b 473e b209 bbbd 644a 09be
00000240: 8857 c13c fdad e23b 8c88 4e3c c121 ca3c
00000250: c407 61bd 3522 a43d 53e1 38be 2952 bb3c
00000260: 9f81 82bc 9f7a ed3e 10c9 c53e 0935 16bf
00000270: 8197 303e 4076 a03e 2225 853e 350c a03e
00000280: d84f 833e 1d21 6ebe a87f 07bf bc06 93be
00000290: 4ebe 55be 1510 01be 31ad cdbd 294c 80be
000002a0: 6afa 85be 1c5d 863e 911e a4bc 23f5 f4be
000002b0: cce3 52bd 7218 57be dba2 c13e 1093 043e
000002c0: 321a 613e 4ce7 1c3d a085 33be e6b8 9c3d
000002d0: 64df 243e 9e7f f5bd 7a00 d0bc c052 f0bd
000002e0: b931 1d3e 3d44 29be 3f95 b8bd 03ce 5fbe
000002f0: 8294 17be 36fa 6dbe 57b4 aabd 5ee8 a7bc
00000300: f1f6 40be 0c3e 75be 1e52 09bd b0f9 053d
00000310: c345 733e 31a6 7dbe 589c 51bc a6e4 2f3e
00000320: 665e 0c3d 9162 493e 8016 1b3e ae14 753c
00000330: c72c 053e 33f7 29be aca8 543d 8827 99be
00000340: 83f0 41bd 4791 04be ceb5 7e3d dae3 b2bc
00000350: a1b1 533d 4e2b c73d 7229 413c 4482 613e
00000360: e4b1 06bd f7fe 0cbd ea89 723d 3c76 b03d
00000370: fa42 113e 828f a53d 702a 953e de2e c1bd
00000380: 1053 9e3d d152 0ebd 940b e1bc 114d abbd
00000390: e138 503d 1e8d 25bd 108e abbc 4442 363d
000003a0: 0a4e aabb 2b50 d93d 4e80 843d 08fa 83bc
000003b0: e337 193e 81be dc3d e6b2 313e 5e7b bf3d
000003c0: 9aa9 19bd f099 923d e58f a33c 0b7e d83e
000003d0: 6edb 943d b994 88bd 0335 a73e 21b1 213e
000003e0: db90 1a3f 5a87 0a3c 9536 07bf 17e2 093d
000003f0: cedb 553e 7ee6 80bc 2f84 85be 6571 9a3d

conv_and_fc.5.weight f4 [12]
1.6213441 1.7465299 1.6976366 2.2676806 1.6089754 1.7334875 1.847687 1.6866082
1.6569927 1.7610375 1.6196578 1.666634
00000000: 3488 cf3f 4b8e df3f 284c d93f ae21 1140
00000010: e8f2 cd3f ebe2 dd3f 0281 ec3f c7e2 d73f
00000020: 5618 d43f ad69 e13f f250 cf3f 4354 d53f

conv_and_fc.5.bias f4 [12]
-0.95374733 -0.28842697 -0.7530578 -0.6934816 -0.35549206 -0.46897176 -0.40605307 -0.8644022
-0.6467701 -0.6540727 -0.92892665 -0.17024848
00000000: c928 74bf b3ac 93be 65c8 40bf 0388 31bf
00000010: 0e03 b6be 111d f0be 30e6 cfbe 7649 5dbf
00000020: ba92 25bf 4f71 27bf 23ce 6dbf 9e55 2ebe

conv_and_fc.5.running_mean f4 [12]
0.82406014 -0.24683115 -0.048581146 -1.0642225 -1.1338346 -0.46646994 0.025636269 -0.66272396
-0.4799755 -1.2748541 -0.08732141 -0.31576875
00000000: 9bf5 523f 4ec1 7cbe 06fd 46bd 7138 88bf
00000010: 7e21 91bf 26d5 eebe 2703 d23c 47a8 29bf
00000020: 59bf f5be 6b2e a3bf 91d5 b2bd 71ac a1be

conv_and_fc.5.running_var f4 [12]
1.7294974 1.624169 1.673394 2.1980953 1.342027 1.2163712 1.471461 1.6273689
1.4593956 1.5462172 1.2203777 1.0646089
00000000: 2c60 dd3f c5e4 cf3f c631 d63f 98ad 0c40
00000010: 8ac7 ab3f 0db2 9b3f d658 bc3f a04d d03f
00000020: 7acd ba3f 72ea c53f 5635 9c3f 1b45 883f

conv_and_fc.9.weight f4 [10, 300]
-0.025941772 -0.21733199 0.16233425 0.047647446 0.005137599 -0.24759768 -0.267968 -0.04574229
0.14441189 -0.09387251 -0.17004667 -0.4187674 0.06358695 0.124898136 0.20637295 -0.62556916
-0.18096516 0.091538146 -0.17037192 0.017975926 -0.7995523 0.08341075 0.12623355 -0.10537365
0.15008558 0.19391751 -0.047651213 -0.2152189 -0.08122729 0.313071 0.041414477 0.070168965
-0.029811475 -0.026219798 -0.05738884 0.093787536 0.028592201 0.010549481 -0.0760551 -0.079432726
0.017007269 -0.00875242 -0.006313499 0.103939466 -0.3665227 0.022886325 -0.04296591 -0.037097562
-0.043832783 -0.7099824 0.01936275 -0.06317776 -0.15894401 -0.15357178 0.20237139 -0.20070004
-0.0056914296 -0.11255927 -0.19906761 0.040830325 0.12834305 -0.052196845 0.12692854 -0.06417222
0.07235003 -0.03371159 0.035640918 -0.032044556 -0.101160884 0.03600694 0.01712053 0.2018738
-0.14585955 -0.2324953 0.0051371725 -0.12089976 -0.08999849 -0.05236699 -0.14340793 0.007710157
-0.41177732 -0.110175215 0.040795323 -0.021031918 -0.08634379 -0.13366537 -0.02891752 0.025939493
0.28319263 0.06809238 -0.19251911 -0.20919609 0.07851738 0.2715116 0.03723326 -0.2730048
0.03528149 0.26936153 0.037399605 0.046196327 0.016401561 -0.09804119 0.11443603 0.32991475
0.11837334 0.030651988 -0.0056920126 0.04442586 -0.02670979 0.05048413 0.038512513 0.043898318
-0.04523455 -0.08035513 -0.2706654 -0.0009309618 -0.1431633 -0.08435011 -0.056990054 -0.14117368
0.13202474 -0.084702775 -0.017506426 0.022109384 -0.13748959 0.16425969 0.16754493 0.08855468
0.03943542 0.38923123 0.23121537 0.3343619 0.23271996 -0.06935077 0.18466438 -0.051838413
0.098202795 0.13109145 -0.20412846 0.15065113 -0.11194481 0.22877817 0.24128295 -0.08124364
0.19647425 -0.05098644 0.23587793 0.10380912 -0.06858826 -0.10720534 0.053378988 -0.11590885
0.108173795 0.21227409 0.29527014 -0.024830874 -0.055589806 0.1459804 0.0057853158 -0.08579851
-0.075499594 -0.20514068 0.021452585 -0.08929986 -0.41210282 -0.09136803 -0.015641047 0.12812752
-0.031462964 -0.2730858 -0.047851127 -0.093273535 -0.03382295 0.145994 -0.13396987 0.3026454
-0.244019 0.019149346 -0.009173542 -0.20608938 0.16847335 0.11910393 -0.09043232 0.14945664
0.23000075 0.05387539 -0.015235187 -0.19683015 0.20805319 0.01550932 -0.073093064 0.09334762
-0.11564667 -0.18426964 -0.10862243 -0.19341527 0.040164817 -0.24683493 -0.5002144 -0.02794807
0.08733563 0.058349684 -0.23534991 0.046568584 -0.042036936 0.10345737 0.29809636 -0.23648319
0.13019277 -0.14250474 -0.06960018 -0.042709693 0.00010614374 0.17166646 -0.060826868 0.06749053
0.14618385 -0.09879992 0.0109448675 -0.2716422 -0.08528136 0.2485276 0.11460541 -0.038325936
-0.21645269 -0.12367635 0.30257672 -0.07726056 0.24136677 0.041656446 -0.06897934 -0.13241224
0.18704021 -0.044382673 -0.03166586 0.18129805 0.22933722 -0.008002081 0.1814363 0.07200163
-0.0061091674 -0.007249884 0.10964926 -0.013133539 0.03849977 0.11626946 0.09398198 0.18505676
-0.087229006 0.19524056 0.039042145 -0.25635466 0.24347186 -0.16409704 0.05524117 0.41363087
00000000: d783 d4bc 478c 5ebe f33a 263e f829 433d
00000010: 4e59 a83b 3f8a 7dbe 1a33 89be 445c 3bbd
00000020: b6e0 133e 3b40 c0bd b720 2ebe ae68 d6be
00000030: e039 823d 98ca ff3d 6e53 533e 4d25 20bf
00000040: ee4e 39be 5a78 bb3d fa75 2ebe 4042 933c
00000050: 76af 4cbf 41d3 aa3d 5e43 013e 24ce d7bd
00000060: 09b0 193e 5092 463e eb2d 43bd 5862 5cbe
00000070: 7e5a a6bd d84a a03e 3aa2 293d bfb4 8f3d
00000080: 3237 f4bc e7ca d6bc 8f10 6bbd ae13 c03d
00000090: 313a ea3c bbd7 2c3c c7c2 9bbd a0ad a2bd
000000a0: d452 8b3c 4f66 0fbc 78e1 cebb 37de d43d
000000b0: dda8 bbbe 1a7c bb3c 06fd 2fbd 9df3 17bd
000000c0: 018a 33bd 68c1 35bf a19e 9e3c 5763 81bd
000000d0: 38c2 22be ec41 1dbe 723a 4f3e 5084 4dbe
000000e0: 2c7f babb 7985 e6bd 61d8 4bbe b33d 273d
000000f0: 5c6c 033e 5ccc 55bd 8ef9 013e ba6c 83bd
00000100: 412c 943d 2a15 0abd 36fc 113d 2741 03bd
00000110: 702d cfbd 037c 133d 5b40 8c3c 01b8 4e3e
00000120: 355c 15be 3f13 6ebe ba55 a83b 4b9a f7bd
00000130: 2151 b8bd c57e 56bd 87d9 12be 7ca5 fc3b
00000140: 7ad4 d2be 8ba3 e1bd ff18 273d 214b acbc
00000150: 03d5 b0bd 93df 08be 6fe4 ecbc 0f7f d43c
00000160: a0fe 903e 0574 8b3d bb23 45be 8037 56be
00000170: b8cd a03d 9203 8b3e e781 183d 49c7 8bbe
00000180: 5383 103d c1e9 893e 5430 193d 5c38 3d3d
00000190: 915c 863c d2c9 c8bd 705d ea3d 96ea a83e
000001a0: b96d f23d e119 fb3c 1084 babb e4f7 353d
000001b0: 7dce dabc 72c8 4e3d 4cbf 1d3d b9ce 333d
000001c0: dd47 39bd 3b91 a4bd a894 8abe ca0b 74ba
000001d0: 6699 12be c0bf acbd 676e 69bd d58f 10be
000001e0: 7e31 073e a678 adbd a369 8fbc bd1e b53c
000001f0: 12ca 0cbe b133 283e e690 2b3e 285c b53d
00000200: 0987 213d 5149 c73e b9c3 6c3e 7c31 ab3e
00000210: 244e 6e3e c707 8ebd a918 3d3e 8454 54bd
00000220: 8c1e c93d d63c 063e 0d07 51be 4a44 1a3e
00000230: 5243 e5bd d344 6a3e e112 773e 1163 a6bd
00000240: 8c30 493e 28d7 50bd fc89 713e e099 d43d
00000250: 0078 8cbd 798e dbbd eda3 5a3d 9f61 edbd
00000260: 398a dd3d 615e 593e a62d 973e 1e6a cbbc
00000270: 23b2 63bd e37b 153e bf92 bd3b 21b7 afbd
00000280: 889f 9abd 6610 52be 55bd af3c d8e2 b6bd
00000290: 24ff d2be 291f bbbd a721 80bc dc33 033e
000002a0: 4fdf 00bd e7d1 8bbe 8bff 43bd 3206 bfbd
000002b0: ef89 0abd 737f 153e 662f 09be 56f4 9a3e
000002c0: 1ee0 79be 17df 9c3c a04c 16bc 1809 53be
000002d0: 4784 2c3e c3ec f33d 9534 b9bd 290b 193e
000002e0: 5185 6b3e 71ac 5c3d 019d 79bc d88d 49be
000002f0: e50b 553e ce1a 7e3c d1b1 95bd 092d bf3d
00000300: 29d8 ecbd 2eb1 3cbe 7075 debd a70e 46be
00000310: dd83 243d 4cc2 7cbe 0d0e 00bf 5af3 e4bc
00000320: 06dd b23d 1400 6f3d 91ff 70be b3be 3e3d
00000330: ec2e 2cbd 75e1 d33d 16a0 983e a628 72be
00000340: 4151 053e c3ec 11be 8a8a 8ebd 5cf0 2ebd
00000350: 7d99 de38 55c9 2f3e 9825 79bd 7a38 8a3d
00000360: 38b1 153e 9d57 cabd 1a52 333c b014 8bbe
00000370: fea7 aebd 057e 7e3e 3eb6 ea3d a8fb 1cbd
00000380: c6a5 5dbe 074a fdbd 56eb 9a3e c93a 9ebd
00000390: da28 773e f39f 2a3d 0a45 8dbd 1397 07be
000003a0: 7887 3f3e 9bca 35bd 10b4 01bd 32a6 393e
000003b0: 60d7 6a3e 291b 03bc 70ca 393e 9775 933d
000003c0: 692f c8bb 6f90 edbb cb8f e03d 0e2e 57bc
000003d0: efb1 1d3d af1e ee3d a079 c03d 857f 3d3e
000003e0: 1fa5 b2bd 24ed 473e a8ea 1f3d eb40 83be
000003f0: b050 793e 0e09 28be 9144 623d 6dc7 d33e
