Models/LeNET_ann.pt (torch, 255509 bytes, 36 tensors)

c1.weight f4 [6, 1, 5, 5]
00000000: 82a4 a43c 9823 b83e 15ef 32be 6a5a 07bf
00000010: ba3b 46be dd81 e53e bf3f cf3e e954 e73e
00000020: 3204 0abe 8a5e 593c 9a1a 503f fd99 f23e
00000030: 575e 8d3e 6da0 1b3e d298 2b3e 2f9a 503f
00000040: 30b4 fc3e baa9 143f c336 dbbe b0af 4ebf
00000050: 4618 0e3e d868 89be 498d 59bb c6c5 debe
00000060: eae9 38bf 7640 0dbd 543f 08be 0afd 983d
00000070: 4477 ab3e 779c 74be f126 ca3b ea8d 1dbd
00000080: 2c10 f4be 763b b13e 0788 223e e3ff a93e
00000090: 932a 3e3e 8080 a8bf da1a 043f 2658 873e
000000a0: 93c6 993e 31dd c8bd 2115 61bf 5e8c 2a3f
000000b0: 468a 06bd 5a8a 27bd eaff c53c 0b08 00be
000000c0: e7e7 e53e 488e a1be 52dd 0f3f c1ef c33e
000000d0: 810e 9abf 4fdf 15be dff8 063d 76c6 ca3e
000000e0: c1d9 673f 120c d1be 1dba 15bf 2696 e1be
000000f0: 66d0 5e3d 82dd 133f 4a4b 6b3e c5a4 b7be
00000100: 489b 823d 13c6 37be cb92 8abd 9522 9f3e
00000110: 57bf 5abd 2bd3 353d 795d f0bd adbd d9be
00000120: 89cd 68be 0cbe a23e 63cb 8c3e 5b1b c1bd
00000130: 4a5e 90be 0403 b13e 34e3 1c3e 1873 5dbd
00000140: 91e4 54be dfe6 873d 63e8 743e c7fc 603e
00000150: f1ba 0b3d d0c1 fa3e 8361 7c3e afa9 b73e
00000160: 1b3f 4dbd b4d9 babe e4ff fa3e 1236 fb3e
00000170: 083d ad3e e582 6abf 9675 b2bf 642d c7be
00000180: f13d 86be 0554 7dbe 0aa7 97bf f7f3 c7bf
00000190: 6a9e a53e f238 583e a62b 2b3f 2798 043f
000001a0: 056f 58bd 12dd 8d3e 0cf8 1c3c 7856 4c3f
000001b0: 78fb fbbe a31e 10bf 806a a1be 1c9e 103e
000001c0: 4992 9fbe a175 26bf 2da9 b5bd 3e44 bebe
000001d0: f23e b4bc 0bdf b5be 8d3a 17bf a185 573f
000001e0: 70cf 543d 1aeb 08bd 41d5 c7bd 5243 05bf
000001f0: d667 123f 16c2 0ebf 8c83 52bf 4dcd 9e3e
00000200: 6d4f 083f 277e 953e 6ac0 2f3e dd88 0abf
00000210: c65d 063d 4559 f23d 4a14 a33d 6f7c 0f3e
00000220: f569 1a3a 7613 5dbf e282 28bf 114f 85be
00000230: 03e4 633e eaa2 103f 6603 bbbe f51c fdbd
00000240: b98a 69be b34d 5e3d ceb8 513f 416a 0b3f
00000250: 7356 083f b112 54ba
0.020097975 0.35964656 -0.17474015 -0.52872336 -0.19358721 0.4482564 0.40478322 0.4518197
-0.13478163 0.013267169 0.8129059 0.4738311 0.27611038 0.15197916 0.16757515 0.81485265
0.49356222 0.5807148 -0.42815217 -0.8073683 0.13876447 -0.26837802 -0.0033195785 -0.43510264
-0.72231925 -0.034485303 -0.13305408 0.07470138 0.3348943 -0.23887812 0.006169193 -0.038465418
-0.47668588 0.34615678 0.15872203 0.3320304 0.18570928 -1.3164215 0.5160347 0.2643444
0.30034313 -0.09807814 -0.87922865 0.66620433 -0.03284671 -0.040903427 0.02416988 -0.12503068
0.4490349 -0.31553864 0.56197083 0.38268855 -1.2035676 -0.14635967 0.032952186 0.3960454
0.9056664 -0.4082952 -0.5848711 -0.44059867 0.054397963 0.5775987 0.22977939 -0.35867897
0.06377274 -0.17946653 -0.0676628 0.31081071 -0.053405132 0.04439084 -0.117365785 -0.42527524
-0.22734655 0.3178562 0.27498922 -0.09429046 -0.28196937 0.34572613 0.15321046 -0.05406484
-0.20790316 0.06635832 0.23916773 0.21971427 0.034113828 0.48975992 0.24646573 0.35871646
-0.05010901 -0.3649422 0.49023354 0.4906469 0.33835626 -0.9160598 -1.3942134 -0.38901818
-0.26219133 -0.24739082 -1.1847851 -1.5621327 0.32347423 0.21115473 0.6686348 0.51794666
-0.05284025 0.27707726 0.009580623 0.7981944 -0.49215293 -0.5629675 -0.31526566 0.14122814
-0.31166294 -0.6502324 -0.08870158 -0.3716144 -0.02200267 -0.3552173 -0.59073716 0.84188277
0.05195564 -0.033427335 -0.09757472 -0.5205585 0.5718969 -0.557649 -0.82231975 0.31016007
0.53246194 0.2919781 0.17163244 -0.54115087 0.032804273 0.11833433 0.07962854 0.14012311
0.00058904226 -0.8635782 -0.6582471 -0.26036885 0.22254948 0.5649859 -0.3652603 -0.12359039
-0.22806825 0.05427332 0.81922615 0.54459006 0.5325691 -0.00080899434

c1.bias f4 [6]
00000000: 51e8 dbbe cd8f a13e 7276 533e 0b0c af3c
00000010: 298e 143f d5aa 8c3d
-0.4295068 0.31555024 0.20650652 0.021368047 0.5802942 0.06868521

bn1.weight f4 [6]
00000000: 8c25 063f fdc7 9f3f 7f6c 873f 55d5 e73f
00000010: 9495 7d3f 5cb1 503f
0.5240104 1.2482907 1.0579985 1.8111979 0.99056363 0.8152063

bn1.bias f4 [6]
00000000: 8ee9 4dbe 0981 e1bd 2edf 4b3e b2d6 15bf
00000010: 0cd8 733d 0d7b f1bd
-0.20108625 -0.1101094 0.19909355 -0.58530724 0.05953221 -0.11791048

bn1.running_mean f4 [6]
00000000: c2ef 163e 5b11 963e ce6c 443e 7591 7fbf
00000010: ca47 0b3f 5142 583d
0.14739898 0.29310116 0.1918213 -0.99831325 0.54406416 0.05279762

bn1.running_var f4 [6]
00000000: a648 a33f d98a 333e 9b32 783e a6d2 0340
00000010: 2f35 5e3e afe9 5d3e
1.2756546 0.17533435 0.24238054 2.059732 0.21699975 0.21671174

c2.weight f4 [16, 6, 5, 5]
00000000: d8bb 333f 8586 f73c 2763 a3bd ae17 893e
00000010: ff8a 053e 2922 7f3e f8a2 2cbe 9e4e 33bf
00000020: cdd7 17bd 9e15 8abe c5d3 193e 46e7 74be
00000030: d3fd aebe 1111 443e 1e54 c8bc 2145 5c3c
00000040: b0cc 85bd cec1 3c3d 8db5 6a3d 95a3 dbbe
00000050: 9fa9 8f3e 11f4 09be e177 6cbe 630e 4fbe
00000060: 7ba8 96bf 20d4 803e 829c 273f 9dd3 a93e
00000070: fa6e e4bc d665 253a 55f8 0b3d b0df 0a3f
00000080: 649e ba3e 2436 83bd 4952 183e 2c42 cd3e
00000090: 56a1 d23e 467a 81bd 8dc6 6f3a 5e65 8abc
000000a0: cfc8 13bc 331e ccbe 1542 c6be cc76 13bf
000000b0: d815 bfba cf94 cebd e683 93bf 6e31 8fbf
000000c0: 7060 8fbe a133 efbe b0fc 0c3e 2559 9f3e
000000d0: 2a40 293f f424 c4be 1a51 a0be b33b 283f
000000e0: da38 c63e f20a 15be 4378 633f fb3a cabc
000000f0: 2bce 0cbd 4b6b 48be 40a8 b83c 7053 abbd
00000100: 1edf 493f 0475 88be 2481 9cbe ff8b 85be
00000110: 8a1e 3fbf 31e5 00be 7b63 333e 294a 6c3d
00000120: 6cc1 4e3e ae51 70be 8796 553e cbe1 0a3f
00000130: faaf aebd c702 4bbf d892 853e 843b a63e
00000140: 9047 ae3e 28bd 6c3d 09ad b9be 1a4c 06bf
00000150: a71e bcbd 8126 b53e 46d0 963e 06e4 773e
00000160: 2104 a2be 5b85 c9be c00a 57be ba0c a43e
00000170: f5d0 423f 518d b93e 1081 cebd 5428 3cbf
00000180: 0bd0 d5bc bbc7 ae3e 03df 8f3e 4ee4 13bf
00000190: 61d7 bebe 55b5 623f 9e98 c03d 4120 1bbe
000001a0: 64f9 b9be a6c9 b2bd 7fde 59bf 661c dd3e
000001b0: 6842 a7bc b15a 8ebe 8efe 83be 1d1a 22bc
000001c0: 960e 40bd 09ed 7a3e c16d b7bd e468 41bf
000001d0: 7cc4 81bd a639 e83b 654c c33e b9c3 483f
000001e0: 9697 30be 3f04 98bf 480e bcbe 4bb3 963e
000001f0: 4fd4 193f 4621 17bf f8b0 8bbf cc98 63be
00000200: 8f96 953e ee94 14bf bdf2 8cbe 8686 673e
00000210: 244e 023f 609a 0dbf c62b d03e 22ff 54bf
00000220: 2986 c0bd a875 d23e 9f98 053f bf50 2cbe
00000230: 1a65 2cbf 1615 453e cd0f 873e 0cc0 383f
00000240: 540e 443e 74a7 34bf ff60 a7be 5dc7 113f
00000250: 59cd 073f 3e17 91be dc77 25bf acf1 abbe
00000260: 86b2 ab3e 77f4 403e f444 703e ef89 1ebf
00000270: a597 7fbe 7e30 923e f38e 363d 8bef 693e
00000280: b124 b1be 72ec 10be 0729 e43d 7dff a1be
00000290: a6fa adbe 61cb 0dbf 9e78 0bbf f7d1 893d
000002a0: 4934 f63e 912b 413c 3bce 453e 3857 fe3b
000002b0: b261 a03e 9c80 c23f b5a0 d73e e88b e13e
000002c0: 3e2c 1e3e e423 a5bd 19ee 233e f02c 7b3f
000002d0: 1fd4 123d e469 5d3d ac2e 76be efcb fcbe
000002e0: 4a80 cdbe be10 fabe 3c2a eabe d2e8 db3d
000002f0: 379c 59bf 2bd7 a7bf 845e 53be baf5 3a3e
00000300: 9db2 153f 5e7a a5bf 2f95 4abf 707c 623e
00000310: b172 943e 77fa 66be 4bcf 8fbf d182 bebf
00000320: eafc 183f 603f 3a3e ef5d dfbd e443 0d3f
00000330: 75c9 633f c8da bc3d ac7e eabe ef22 25bf
00000340: 2ae7 e73e 006b cb3e de41 81be a9a0 c63d
00000350: 2391 c7be c32a 613c 8c35 36be 2792 83bd
00000360: b077 123f 07d9 eabe f2c0 383e 34a1 7c3d
00000370: 5846 66be 520b c2bc 7dab 4dbf d87b d23e
00000380: 5d3f 3f3e 9652 113c 77f5 7cbd e02b 15be
00000390: 3e2c 2dbf 3b67 29bd 44ae 743e d86f 02be
000003a0: d776 ecbe e1a7 22bf 2118 4b3c dca2 763e
000003b0: f685 a4bd 41c2 b73c 3fc6 bbbe 176d 72bb
000003c0: ce17 043e 3335 b23c 822a 133f 48f1 f53d
000003d0: 78ef f3be 5edb 0cbf a989 0fbe d738 d93e
000003e0: 5efd 503f 8fb5 c6bd b115 04be d9bf b8bd
000003f0: 7c2d a2bc 8ac8 823c d527 93bd 2a8e 1fbe
0.702085 0.030215511 -0.07977896 0.2677588 0.13041304 0.24915375 -0.16859043 -0.70041835
-0.037071038 -0.26969618 0.1502219 -0.23916349 -0.34178028 0.19147135 -0.024454173 0.013444216
-0.06533182 0.046083264 0.057302047 -0.4289824 0.28059098 -0.1347201 -0.23092605 -0.20220332
-1.1770166 0.2516184 0.65473187 0.3316926 -0.027884949 0.0006309425 0.034172375 0.5424757
0.36448967 -0.06406811 0.1487514 0.40089548 0.41138715 -0.0632215 0.0009146713 -0.016894039
-0.0090200445 -0.3986679 -0.38722292 -0.57603145 -0.0014578653 -0.10086977 -1.1524627 -1.118696
-0.28003263 -0.46719077 0.13768268 0.311227 0.6611353 -0.38309443 -0.31311876 0.65716094
0.3871525 -0.14554957 0.8885538 -0.024686327 -0.034376305 -0.19572179 0.022541165 -0.08365524
0.78856075 -0.26651776 -0.30567276 -0.2608337 -0.74655974 -0.1258743 0.17518418 0.057687912
0.20190972 -0.23468658 0.20858203 0.5425078 -0.085296586 -0.7930111 0.26088595 0.32467282
0.34038973 0.05779758 -0.36264828 -0.5245987 -0.09185534 0.3538094 0.29455775 0.24208078
-0.31643775 -0.39359555 -0.21000195 0.3204096 0.76100093 0.36240628 -0.100832105 -0.73499036
-0.02610018 0.34136757 0.28099832 -0.5777024 -0.37273696 0.8855794 0.094041094 -0.15149023
-0.36323082 -0.08729868 -0.8510513 0.4318573 -0.020417407 -0.27803567 -0.25780147 -0.009893921
-0.04688891 0.24504484 -0.08956481 -0.75550675 -0.063363045 0.0070869504 0.38144222 0.7842365
-0.17245325 -1.1876296 -0.36729646 0.29433665 0.6008958 -0.59035146 -1.0913382 -0.22226256
0.2921643 -0.5803975 -0.27528945 0.2260991 0.50900483 -0.5531368 0.40658396 -0.832018
-0.09400589 0.4110539 0.52186006 -0.16827677 -0.6734177 0.19246325 0.26379243 0.7216804
0.19146091 -0.70568013 -0.3269119 0.5694483 0.5304771 -0.28338045 -0.64636016 -0.33582819
0.3353464 0.18843256 0.23463804 -0.6192922 -0.24960192 0.28552622 0.04456992 0.22845285
-0.34598306 -0.14152697 0.11140638 -0.31640235 -0.33980292 -0.55388457 -0.5448092 0.06729501
0.48086765 0.011790172 0.19316952 0.007761862 0.31324536 1.5195498 0.42114797 0.44052052
0.15446565 -0.08063486 0.16008796 0.98115444 0.035846826 0.054056063 -0.24041241 -0.4937434
-0.4013694 -0.48840898 -0.45735347 0.10737766 -0.8500399 -1.3112539 -0.20641524 0.182578
0.5847567 -1.2927969 -0.79133886 0.22117782 0.28993753 -0.22556482 -1.1235136 -1.4883672
0.59760916 0.18188238 -0.10906588 0.5518172 0.88979274 0.09221417 -0.45799768 -0.6450643
0.45293552 0.39730072 -0.25245565 0.09698612 -0.38977918 0.013743105 -0.17793864 -0.06424361
0.5721388 -0.45868704 0.18042353 0.061677173 -0.22487772 -0.023687039 -0.80339795 0.4111011
0.18676515 0.008869788 -0.06175753 -0.14567518 -0.67645633 -0.041358214 0.23894602 -0.12737978
-0.46184418 -0.6353741 0.0123958895 0.24085563 -0.080333635 0.022431495 -0.36674687 -0.0036991292
0.12899706 0.021753883 0.57486737 0.12008911 -0.47643638 -0.5502223 -0.14017357 0.42426178
0.8163661 -0.09702598 -0.128989 -0.09020967 -0.01979708 0.015964765 -0.07185332 -0.15581575

c2.bias f4 [16]
00000000: 2f2a 87be 5c61 0f3d 2598 05be 4588 21be
00000010: 1343 ce3d 9df3 ec3b 6df1 3bbe e530 b33e
00000020: 9700 493e 5178 1abc 5d19 c53d 9bc0 da3d
00000030: 732d 113e ddae 8f3e c52b fc3e 0dde ecbc
-0.2639937 0.03500496 -0.1304632 -0.15774639 0.10071387 0.0072311894 -0.18353815 0.3499824
0.19629131 -0.0094281 0.09623978 0.10681268 0.14177494 0.28063098 0.49252144 -0.028914476

bn2.weight f4 [16]
00000000: 7381 8e3f bde4 a73f 8f6a 8e3f 46ed 823f
00000010: 5592 8d3f fa7c 8f3f 7dfb 883f 8032 913f
00000020: bd5e 7a3f c378 903f 314c 783f 9bba 763f
00000030: 86cd 923f 7d38 8d3f 4528 9e3f d22e 8b3f
1.1133255 1.311668 1.1126269 1.022866 1.1060282 1.1210015 1.0701748 1.1343536
0.9780081 1.1286854 0.9699126 0.9637849 1.1468971 1.1032864 1.2356039 1.0873663

bn2.bias f4 [16]
00000000: 210b 36bf 3c5b 4ebf 4ec9 14bf aa57 10bf
00000010: 4f84 2abf f007 24bf 532e 1bbf f06f 43bf
00000020: 745b 00bf 0a5b 32bf 2500 28bf 6aea e9be
00000030: 4fe6 37bf 6e4f 1cbf 15d9 52bf a940 1dbf
-0.7111073 -0.8060796 -0.58119667 -0.56383765 -0.66608137 -0.6407461 -0.6061756 -0.7634268
-0.50139546 -0.69670165 -0.6562522 -0.45686656 -0.718358 -0.610587 -0.8236249 -0.6142679

bn2.running_mean f4 [16]
00000000: 1731 c0bf 8b53 14c0 cc42 2ec0 361a 05c0
00000010: 97a8 b0bf 1c02 c3bf 9f5a d0bf 3371 33c0
00000020: 01e7 0bc0 d2c0 d9bf 7eb4 81bf dbdd d9be
00000030: ccbd ba3d 56ca ddbf 745e e6bf 5585 a7c0
-1.5014981 -2.317599 -2.722827 -2.0797248 -1.380145 -1.5235019 -1.6277655 -2.8037841
-2.1859744 -1.7011969 -1.0133207 -0.42552075 0.09118232 -1.7327373 -1.7997575 -5.235026

bn2.running_var f4 [16]
00000000: 6da3 bc40 96c2 4541 f44b 3b41 65b9 cf40
00000010: e54f c340 2cea 3d41 441f 1341 d743 0441
00000020: 8eb8 2041 9ca8 2641 2190 c940 730d 0b41
00000030: d74d 2a41 123d 1741 3129 0a41 6a3d 8e41
5.8949494 12.360006 11.706043 6.491381 6.1035028 11.869671 9.195133 8.266562
10.045057 10.416164 6.298844 8.6907835 10.644004 9.45241 8.6350565 17.779987

fc1.weight f4 [120, 400]
00000000: bd5d 063e 8eae 8b3e dfbb 72bf 22f7 6e3e
00000010: 594a c1be c510 973e f4b9 47bf 53c8 24bf
00000020: d3ad efbe 4785 33bf cafd e63e d4ad 9b3e
00000030: 33e9 edbe 0d6f a3bd 5080 88be c33e 473e
00000040: eab0 66bf ade2 b73e cb4c 063f d100 28be
00000050: e90e 8abd a717 04bf 0d07 30be 6d5d 523f
00000060: 1b11 d43e 53cd aebb c4f2 c0bd 5779 063f
00000070: bfc9 173e a38d 293e 969a ba3e 4fd4 a4be
00000080: 9eb5 733e a22b 4f3f b688 30be 5482 e2be
00000090: fca7 97bd 4f8a aebe 1baf 313c b666 fd3c
000000a0: 8440 93be 4fbd a33d 0ca2 5bbe c7a9 88be
000000b0: c196 b3be 7d60 81be dbe1 0c3f fba0 8ebb
000000c0: 90c4 58bd 48ac d9bd 9b09 17bf a07a 2b3f
000000d0: e064 b8be 1e3d 953e 242e f8be 0666 80be
000000e0: 0a58 74bf 2456 6d3d 0646 4dbe 9978 86be
000000f0: 22ac f23d 3a0c 23be 1782 3f3e f814 413e
00000100: 105d c83e 7745 d43e bd7b 21bf 4db6 d4bd
00000110: de7a fe3d f263 a73e 54f2 0f3f 8e13 0b3e
00000120: 300d 5b3f 7f6b babb 2a34 093e 9168 953e
00000130: 8456 5f3e 51ff 013f 3cd2 eebd 82d8 493f
00000140: 48ab da3d e379 fabe 4012 98bd c785 a13e
00000150: 3241 b43e 162c 1c3e a0d3 753e 7dad 11be
00000160: c0c3 f1be 2c85 4fbe 1b3a 38be 327b 62bf
00000170: 236a 783e 1904 7bbe c6d7 2abe 7b4b a4be
00000180: d2be d93e b48e aa3d 6087 e93e 8162 cbbd
00000190: a098 ec3e fd93 6abe 0c4f 003e c4cf cf3d
000001a0: 106e a8bf 521b c73e bb8a 4d3e 3271 413e
000001b0: 1c46 dabe ad2b 5dbe 1391 4fbf 8601 8e3e
000001c0: 58aa f5be 9388 05be fd25 33be d8ed a6be
000001d0: d981 d83e 799d 9a3e 25b0 42bf 00ea 9ebe
000001e0: c830 05ba a527 8bbc 187b 05bd 2562 f7bb
000001f0: 8e28 ba3e 8fe8 673f 2d52 123f 8105 3ebe
00000200: 0b58 bd3e bb12 cdbe 0abb fbbd 5200 463f
00000210: dab7 4cbf 5d9c d6be 700a 45be 9d2e dbbe
00000220: e2e2 cf3e e852 a8bc 3571 813e 368f 9d3d
00000230: 038b b4be 9fd8 1bbe 5edd 6c3f 8046 c0bc
00000240: 3ae5 50be 0fe7 113e d99c 7bbe a733 c93e
00000250: 3e11 853d fb95 633e 1432 723f eb89 053f
00000260: d7bd 853d f71e 203d 6e3d 863e c992 383e
00000270: 3715 8d3d 4f3b b13d 59e1 3cbf 00cd 2abf
00000280: 714c bebe 765e 9fbd 30ad 9d3e b852 e83e
00000290: d3ec 77be c66b 963e 329b edbc 5907 293e
000002a0: 340c 4b3e 83cd ab3e 252b 283f 6233 47be
000002b0: fea3 edbe 64af e3bd 247a 3abd 337a 173e
000002c0: 8488 073f c79d ddbd 4c1c 7ebe 89f2 213e
000002d0: 1518 a5bd 827b d73d ff01 80bd a99f 603f
000002e0: ef78 ac3e 648d 0dbf 0a28 d0be e171 2dbe
000002f0: d2b2 da3e ed1f e8be 5cc4 cdbe 9572 87be
00000300: fd68 343e b27b 553f 700f 88be 653a 7f3d
00000310: e010 40be ed83 2abe 0900 1bbe b84b 96bd
00000320: c731 71bf 116e a43e 7196 883e e85f 393f
00000330: 8687 1abf 29ef d5be 98ac 50be 67b6 b6b9
00000340: 514f ef3e 8838 0c3f 125c 19bf b409 1c3f
00000350: c4f9 a33e 7087 313e 7c9a 253f 5cb8 6a3e
00000360: d1c7 c7be 0b8d efbd 8fd3 5abe fa03 da3e
00000370: 4bb9 033f 3823 4ebe aec0 a0be 3b38 10bf
00000380: 4114 923d c7de fdbe 83ab 463e 4351 d1be
00000390: b7b6 68be c0b5 f53e 0d85 e6bd bcca 553d
000003a0: 1aa1 a23e c7a5 ae3d c414 373f b4ca 3a3f
000003b0: beef d2be 5672 063f d1a9 693e 09cd d8be
000003c0: 6501 9cbd e4ab 8ebd 26ab 213f e084 babd
000003d0: abbe 2ebf 4ec0 f13e 7c0a 85bf dc0d 0e3f
000003e0: 9473 b4be 4fa2 083b 9f92 8c3e 33f5 e53e
000003f0: 3c6a 293e f195 c2be 8604 0b3e c373 d53d
0.13121696 0.27281612 -0.9481792 0.23336461 -0.37752035 0.29504982 -0.78018117 -0.6436817
-0.46812305 -0.7012524 0.451155 0.30406058 -0.4646698 -0.07980166 -0.26660395 0.19457535
-0.901137 0.35915127 0.52460927 -0.16406561 -0.06741125 -0.5159859 -0.1719019 0.82173806
0.414193 -0.005334535 -0.09421304 0.525289 0.14823054 0.16557936 0.36446065 -0.3219323
0.2379975 0.80925953 -0.17239651 -0.44240057 -0.07405087 -0.34089896 0.010844971 0.030932765
-0.2876016 0.07995092 -0.21448535 -0.2669203 -0.35075954 -0.25268927 0.5503213 -0.0043526865
-0.05292183 -0.10628563 -0.5899903 0.66983986 -0.36014462 0.2914819 -0.48472703 -0.25077838
-0.95446837 0.05794348 -0.20046243 -0.26263884 0.11849238 -0.15922633 0.18701969 0.18855655
0.391335 0.41459247 -0.63079435 -0.103863336 0.12425779 0.3269344 0.5622914 0.13581678
0.85567 -0.005689084 0.13398805 0.2918134 0.21810347 0.50780207 -0.11661193 0.7884599
0.106772006 -0.48921117 -0.07425356 0.31547377 0.3520599 0.15251192 0.2400651 -0.14226337
-0.47219658 -0.20265645 -0.17990915 -0.8846923 0.24259238 -0.24513282 -0.16683874 -0.32088837
0.42528397 0.08328 0.45611095 -0.099308975 0.46210194 -0.22908016 0.12530154 0.1014705
-1.3158588 0.3888803 0.20072453 0.18890837 -0.42631614 -0.21598692 -0.8108074 0.27735537
-0.47981524 -0.1304038 -0.1749496 -0.32603335 0.42286566 0.30198267 -0.76050025 -0.31037903
-0.00050808163 -0.016986677 -0.032588094 -0.0075495415 0.36359066 0.9058923 0.5715664 -0.18556787
0.36981234 -0.40053353 -0.12291534 0.7734424 -0.79968035 -0.4191617 -0.19242263 -0.42809
0.40602785 -0.020547345 0.25281683 0.07693331 -0.35262308 -0.15219353 0.9252528 -0.023471117
-0.20399943 0.14248298 -0.24571551 0.3929722 0.06497429 0.22225182 0.94607663 0.5216357
0.0653035 0.03909203 0.26218742 0.18024744 0.06888812 0.0865389 -0.73781353 -0.66719055
-0.37167695 -0.07781689 0.30796194 0.4537561 -0.24211435 0.293791 -0.029004667 0.16506709
0.19828874 0.3355523 0.65690833 -0.19453195 -0.4641418 -0.111174375 -0.04552664 0.14792709
0.5294268 -0.10821109 -0.24815482 0.15815176 -0.08061234 0.10521604 -0.06250381 0.8774362
0.33686015 -0.5529387 -0.40655547 -0.16937973 0.42714554 -0.45336857 -0.40188873 -0.26454607
0.17618175 0.8339187 -0.26574278 0.06231155 -0.18756437 -0.16651888 -0.15136732 -0.07338661
-0.9421658 0.32115224 0.26677278 0.72411966 -0.6036304 -0.41784027 -0.2037834 -0.00034849645
0.467402 0.5477376 -0.59906113 0.60952306 0.32026494 0.17336822 0.6468885 0.2292189
-0.39019635 -0.11696824 -0.21369766 0.4258116 0.5145461 -0.20130622 -0.31397003 -0.563358
0.071327694 -0.49584028 0.19401364 -0.4088231 -0.2272595 0.47990227 -0.11255846 0.052195296
0.31763536 0.08527713 0.7151606 0.7296555 -0.41198534 0.5251821 0.22818686 -0.4234393
-0.076174535 -0.06966379 0.63151777 -0.09107375 -0.68259686 0.4721703 -1.0393825 0.554899
-0.3524443 0.0020848697 0.27455613 0.44913635 0.16544431 -0.3800502 0.13575944 0.104224704

fc1.bias f4 [120]
00000000: 95b4 213b 6060 fc3c 97a8 503d 093e 69be
00000010: 65d4 693e 2f9d 1a3c 08a7 313e 09ab cd3d
00000020: 70de 8d3c e2b7 50be fb53 5bbb 0df9 20be
00000030: d639 74bd 90bd 013e d095 a9bd e9ba 99bb
00000040: 7231 823d 1e8b 743e a759 dfbe 23ff 0abd
00000050: 3a74 aebe e42f 1fbe 2c83 8fbe 66ca 523d
00000060: 6c07 173e 1972 713c 0077 913c 6750 3dbe
00000070: 1552 5abd 3245 bcbe 277e 45bd eaea 883c
00000080: 03a3 bdbe b37e 0f3d e51d c0bd d6f5 4ebe
00000090: edfb e63d 1685 5abd 76a6 483e 4481 7dbe
000000a0: 7854 1fbe 1c70 d1bc bb7c 16be fbbe 78be
000000b0: cfa4 d3bd 1627 b53e 3c5e a53d 7817 b7bd
000000c0: 6160 2abe aff7 de3a 7e7d d7bd 84b9 b33d
000000d0: bbf0 c33d d4a9 84bc bf18 a9bd aaf2 36bd
000000e0: c56e da3c c4f0 9d3e 3601 4abd e8d5 be3d
000000f0: deb1 e63b 8493 acbc 9c34 e7bd dcbc 0dbe
00000100: 40d7 36be 1956 b6bd 3d87 b1bc 2c3b b8bc
00000110: 6519 94bc 929e 23bd 2004 20bd 223c d93d
00000120: 8df0 c7bd 5213 45be 2bbc 2abe 88bf 3bbc
00000130: a6e4 78be 0278 5ebe 5aa8 493d 7f95 ac3e
00000140: 413f 1fbd 7715 883c 51f9 a6bd 3cec 953e
00000150: 8672 adbd 7192 ea3d 19e8 7ebd 3f99 653d
00000160: 9dae 89bd 276e 003c 4751 c83d 48e7 6dbe
00000170: 388a 2e3e 99dc b93b 8e00 113e a591 203e
00000180: 171f 4a3d d955 bbbe 752c 6fbc a7d4 3cbe
00000190: c58d ce3d df45 a73d 4f04 9abd ad91 63be
000001a0: 01e5 223d 444d e0bc 8f7d 713e 45ac 803d
000001b0: fcd0 0ebd 1ad0 1fbe 505c 27bd 95eb c33c
000001c0: 16e5 f63b 12e9 bc3c 50eb 11be 5374 40be
000001d0: 050a dabd 58ae a0bd 6a11 05be 84b2 88be
0.0024674286 0.030807674 0.05094203 -0.22777571 0.22834928 0.00943689 0.17348874 0.10042388
0.01731798 -0.20382646 -0.0033466804 -0.15720005 -0.05962547 0.12669969 -0.082805276 -0.004691471
0.06357087 0.23881194 -0.43623087 -0.033934724 -0.3407305 -0.15545613 -0.28029764 0.051462553
0.14748925 0.014736676 0.017756939 -0.18487702 -0.053300936 -0.36771542 -0.04821601 0.016713578
-0.3703843 0.03503294 -0.09380702 -0.20210966 0.1127852 -0.053349577 0.1959475 -0.24756342
-0.15559566 -0.025566153 -0.14696018 -0.24291603 -0.10334169 0.35381383 0.080746144 -0.08940023
-0.16638328 0.0017011071 -0.105219826 0.08775619 0.095674 -0.016194262 -0.08256673 -0.044665016
0.026664147 0.30847752 -0.04931756 0.09318143 0.0070402464 -0.021066435 -0.11289331 -0.13841575
-0.17855549 -0.089031406 -0.021670932 -0.022489153 -0.018078515 -0.039946146 -0.039066434 0.106071725
-0.09762678 -0.19245651 -0.16673343 -0.011459239 -0.24305972 -0.21725467 0.04923282 0.33707806
-0.038878683 0.016611798 -0.08153022 0.29281795 -0.08469109 0.11453713 -0.062233064 0.05605435
-0.06722758 0.007838762 0.097811274 -0.23232758 0.17044914 0.0056720492 0.14160368 0.15680559
0.049346056 -0.36588934 -0.014598002 -0.18440495 0.10085634 0.08167624 -0.07520353 -0.2222354
0.039769176 -0.027380593 0.23583053 0.06282858 -0.03486727 -0.15606728 -0.04085952 0.023916045
0.0075346334 0.023060355 -0.14249921 -0.18794374 -0.10646442 -0.078457534 -0.12994924 -0.26698697

fc2.weight f4 [84, 120]
00000000: 34fd 473e 5b10 4c3e 3400 943e 9a42 b93e
00000010: dff2 a6be c3d7 97bd 0a66 a7bc bc89 a13e
00000020: dfb2 96bf 334c 1bbf 2d42 453f 90a2 3cbe
00000030: b584 c83e 1f4d e83e 349c 9fbe 5442 813d
00000040: 1964 743d 17b1 07bd f9b2 f7be a713 97be
00000050: 016d c9be cd5f 143f 0252 823e b52b 933e
00000060: 9afa 35be 2196 90bd aba7 9bbd a994 123e
00000070: 20aa adbd 7c94 6bbf 5715 99bc a1c8 d13c
00000080: 9cc9 6ebf 7b41 fa3e 3d83 aabd 1549 c2bd
00000090: 3248 c1be 6cc7 24bf c0b5 023f e832 19bf
000000a0: 7a87 0fbe 7843 883e c639 743e d250 8fbc
000000b0: ce3d 913c c526 323f da74 fa3e 28fe edbd
000000c0: 6d47 25be 977c 19bd 2844 853e 55c9 9fbe
000000d0: c671 14bf 6319 823c 2d24 4b3b f573 0fbc
000000e0: e0b8 bc3d d072 003f bf41 293d 39ee 6cbd
000000f0: 6d49 383d 7563 e0bd 9e60 5dbd 95ca 72bf
00000100: 5ecd 013e 645a 88be 3419 22bd bb90 b13e
00000110: 2076 a23e 8a5b 4d3f 7444 d9bc 5e82 0b3f
00000120: 4d97 7c3e 4dc0 21be 6d27 bc3d c4c2 0cbf
00000130: 6495 a93d 12ce 0ebf cabc 163f 714f 003f
00000140: d8df 073c 558b 3ebe 5e77 80bd d3bd 573e
00000150: f9e3 093e 477d 9c3f c5f7 c8bd 8924 793e
00000160: c087 bfbc 46bb 753f 7e0f 103f 1389 80bf
00000170: b51f f0be 82b7 00bd 8ed6 a43e 66fe 403e
00000180: 3ba6 a0be e448 5dbe b066 a63e 2b76 75bf
00000190: d3e5 c6be 99d1 cdbe a820 7fbe 6564 a93e
000001a0: b38d a3be 31fb 143f 4428 31bf 8fa8 01be
000001b0: 7395 8cbd 2589 d23e 8f0e 3a3d 774a 943e
000001c0: 25bc ad3d 438d cfbe 7625 4dbf e586 a1be
000001d0: 34f1 4dbf b3cb b53d af65 6fbe 2e06 9abe
000001e0: 9512 873e 0c08 973e 2ab4 253f b0d0 073f
000001f0: addf 0fbf ef1c 0ebd b731 3a3d 5c44 b1be
00000200: 2b0d 82bf fb53 c7bf 32eb abbc 001c 41be
00000210: 8347 f83d ccf2 483e 202c cabc d7a2 043d
00000220: a40f 353d 2330 96bc 8227 83bf 64cd 9d3e
00000230: 9162 86bf 58cf 13be 0edf b63e 1fcb 623e
00000240: 2d5c 1ebe 41fe 343b eda4 95bc 6896 62bd
00000250: f597 963c 6a25 78be 81d7 bf3d 10d2 c8be
00000260: f5e6 e4bd 22f1 e33e aaf3 213e df73 5f3b
00000270: 3c25 99bd 3786 9fbe 939b 43bf 9e26 3cbf
00000280: 0828 bfbf 0e70 f73d 2e18 243e f3d1 523d
00000290: 2770 0c3d 5c39 243f fdc8 483d 537e f7bc
000002a0: d6fb 813e 73f5 1c3c c323 893d d01e d93d
000002b0: 94bc 10bf e92c 8abd 422a 6e3e 277f f03c
000002c0: ba05 99be 5e05 1a3f 0ffb 99bd ff7c 82bd
000002d0: 95d0 c83e 9e05 d43c e524 aebf 39f8 8ebf
000002e0: 67ee babe 329d 953d c0b7 cf3d cd40 d03e
000002f0: 14af febe 3920 3dbe 05d7 c83c cad7 ea3e
00000300: 5b6c 293f bd07 52bf d3a1 0f3f 75fa 0dbf
00000310: 11cb 5fbe 88cc 95be 854b e63e 5862 323f
00000320: 3d40 833d 4d6f 383e bd4e 7d3d be4e 12be
00000330: 6dda fe3b 9361 e5be 9cf2 a5bd cbe2 5c3e
00000340: 43ab 4d3d 18d2 58bb d9a6 e53e 19a9 81bf
00000350: a5b7 12bd d7d3 003c 0b99 b2bc ed15 7dbe
00000360: 9742 243d b794 7cbf a1ed 903e 4560 f7be
00000370: ad15 0bbf a62f 0fbe 1055 e0be 2bf4 0c3e
00000380: 72b4 423e ed1a 193f 0488 51bd 0f40 9dbe
00000390: 534d 87bd ff6e d73e 1a37 fabc 337c cf3e
000003a0: 02d8 043d 38d4 c23e 6d8d b6bc a108 e4be
000003b0: 35d8 03bf b825 b1bd b584 b5be 9257 343f
000003c0: 0e96 d03e c1b0 a3bd 06ac 6bbf 87be 14be
000003d0: f216 0f3f 0231 933e 46b1 e83e 0f1c 59be
000003e0: 3eab 223e ce91 d13e 136f 56be 56c4 02bf
000003f0: 648f 22bd cf42 c23e bd09 ee3d 5df0 0b3e
0.19530183 0.19928114 0.28906405 0.36183625 -0.3260717 -0.074142 -0.020434398 0.31550395
-1.1773337 -0.60663146 0.770541 -0.18421388 0.39163747 0.4537134 -0.3117386 0.06311479
0.059665773 -0.03312787 -0.48378733 -0.2950718 -0.39340976 0.5795868 0.25453192 0.28744283
-0.17771378 -0.07059885 -0.076003395 0.14314522 -0.084797144 -0.92023444 -0.018686933 0.025608363
-0.9327638 0.48878083 -0.08325813 -0.094865955 -0.37750393 -0.64366794 0.5105858 -0.598433
-0.14016524 0.26613975 0.23850164 -0.017494593 0.017729666 0.6959041 0.48917276 -0.11620742
-0.16140528 -0.037472334 0.26028562 -0.31208292 -0.57986104 0.015881246 0.0030996904 -0.008755674
0.092149496 0.5017519 0.041322466 -0.057844374 0.0449919 -0.1095647 -0.05404722 -0.94840366
0.12675998 -0.26631463 -0.039574817 0.34680733 0.31730747 0.802178 -0.026521899 0.544958
0.24667092 -0.15796013 0.09187207 -0.5498469 0.08280447 -0.5578319 0.5888182 0.5012122
0.008293115 -0.18607838 -0.062727675 0.21068506 0.13465871 1.2225732 -0.09812883 0.24330343
-0.02338016 0.9598888 0.5627364 -1.0041832 -0.4689919 -0.031425007 0.32194942 0.18847045
-0.31376824 -0.21609837 0.3250022 -0.95883435 -0.38847217 -0.40198973 -0.24914801 0.33084407
-0.31944045 0.5819579 -0.69202065 -0.12661956 -0.06864443 0.41120258 0.04542404 0.28963062
0.08483151 -0.40537462 -0.80135286 -0.3154823 -0.8044617 0.08876743 -0.23378633 -0.3008284
0.26381364 0.29498327 0.64728034 0.53052807 -0.5620068 -0.034695562 0.045457568 -0.34622467
-1.0160269 -1.5572504 -0.020986173 -0.18858337 0.12123015 0.1962387 -0.024679244 0.03238186
0.04420437 -0.0183335 -1.0246432 0.30820763 -1.049883 -0.14434564 0.35717052 0.22147797
-0.1546485 0.0027617367 -0.01826712 -0.05531922 0.018383006 -0.24233022 0.09367276 -0.39222765
-0.11176864 0.44519907 0.15815607 0.0034096164 -0.07477805 -0.31157085 -0.7640926 -0.73496425
-1.4934092 0.120819196 0.16024849 0.051469754 0.034286644 0.64150023 0.049019802 -0.030211603
0.25387448 0.009580004 0.06696274 0.1060158 -0.5653775 -0.06746847 0.23258308 0.029357506
-0.29887182 0.6016444 -0.07518589 -0.06371497 0.39221635 0.025881585 -1.3605009 -1.1169502
-0.36510012 0.07305373 0.101424694 0.4067444 -0.4974295 -0.18469323 0.024516592 0.4586776
0.6618096 -0.8204306 0.561063 -0.5546029 -0.21854807 -0.29257607 0.44979492 0.6968131
0.06408737 0.18011208 0.06184267 -0.1428785 0.007777503 -0.44801006 -0.08102915 0.2157089
0.050212156 -0.003308421 0.44853857 -1.012973 -0.03581967 0.007863007 -0.021801492 -0.24715395
0.040102568 -0.9866442 0.28306296 -0.48315635 -0.5432995 -0.1398302 -0.43814898 0.13765018
0.19014147 0.5980671 -0.051155105 -0.30712935 -0.06606545 0.4207687 -0.030543853 0.40524444
0.032432564 0.38052535 -0.022284234 -0.44537833 -0.5150178 -0.086497724 -0.3545281 0.7044612
0.40739483 -0.079926975 -0.9205936 -0.14525805 0.55894387 0.28748327 0.4544775 -0.2120211
0.15885636 0.40931553 -0.20940809 -0.51080835 -0.03968753 0.37941596 0.11622951 0.1366591

fc2.bias f4 [84]
00000000: 3a6d aa3d d19b b43e fbf6 1dbf df98 e7be
00000010: 919e c83d 0d6f 02bf 91dc e5be c6b8 22be
00000020: 5a6f d4be bb4c b3be b3d6 b03c 4521 9b3d
00000030: ec9a cdbe 2c42 693e 1e60 bfbe fc45 06be
00000040: 7ed5 ed3a 19e1 f6bd 9e5f 853c c437 043f
00000050: adc2 e53e 88ac 133f 1662 7f3d 8018 843e
00000060: 9159 7b3e 1fff 5b3e c2d6 803e e416 c1bd
00000070: 2fc4 e9be 90b4 b13d c18b 5d3e 4f64 913d
00000080: cf43 1e3e 5969 a6bd 667e 4abe 9021 1cbf
00000090: 4bbf 773d 4aeb 56bd dc32 9b3c 4eed 0bbf
000000a0: ea56 253e 3c02 833d 58ec 113d b0f7 0e3e
000000b0: 5c98 a6bd 262e a73d f9ab be3e d965 2dbe
000000c0: 7528 96be 472c 9cbe 0d5c b53a 8c45 42bf
000000d0: 0fe6 38bd 8348 613e 0012 67be 32b3 3fbe
000000e0: 7745 9dbd e856 f0bb 0815 473e 3911 953b
000000f0: a00d b83d 6c83 1f3c a88a 2ebd ac93 44be
00000100: 4dcb 5d3e 44b7 9bbe 189f 70be 6a10 5a3b
00000110: 563d dc3d 1499 083f 9b19 14be 6093 07bf
00000120: 522e 113f 137a e1bd 3f7c 13be 3ab7 be3e
00000130: b466 36bb e380 9abe 1f15 d2be 4e1d 78be
00000140: 624b b8be dce3 25bf 4b7e ec3c f85d 9abe
0.083216146 0.35275128 -0.6170499 -0.4523382 0.09795869 -0.509507 -0.4489484 -0.15890798
-0.41491205 -0.35019478 0.021586752 0.07574705 -0.4015726 0.22779149 -0.3737802 -0.13112634
0.0018145291 -0.12054653 0.016280945 0.5164759 0.44875088 0.57685137 0.0623494 0.25799942
0.24545886 0.2148404 0.25163847 -0.09428194 -0.4565749 0.08677018 0.21635343 0.070992105
0.15455554 -0.08125562 -0.1977478 -0.6098871 0.060485166 -0.052470483 0.01894515 -0.54658973
0.16146436 0.063969105 0.035625786 0.13961673 -0.08134529 0.08163099 0.3724058 -0.16933383
-0.2932774 -0.3050253 0.0013836637 -0.7588737 -0.045141276 0.22000317 -0.2256546 -0.18720701
-0.07679265 -0.007334579 0.19441617 0.0045491722 0.08986974 0.009735923 -0.0426127 -0.19196957
0.21659584 -0.30413258 -0.2349819 0.0033273944 0.107538864 0.5335858 -0.14462893 -0.5295925
0.56711304 -0.11009612 -0.14402865 0.37249166 -0.0027832212 -0.30176458 -0.4103174 -0.24229929
-0.35995013 -0.6480081 0.028868815 -0.30149817

fc3.weight f4 [10, 84]
00000000: 0fef 0cbf 294a 283d 2cf6 c33d 5502 b6bd
00000010: 9874 be3e 6409 4bbf 96de 33be e091 76be
00000020: 8de0 03bf 88f5 433f 07f8 dc3e 2500 c7be
00000030: 072c c23e 059b b0bd d6ba 933c 9466 ee3d
00000040: d5c7 d1be 73ba 4e3d f63a 4abf 137e b3bf
00000050: b3a6 23bf 12a8 b83e a831 583e 2e34 2cbe
00000060: 28d1 99bf 4bbd 50bf ed10 7ebf ec56 f43d
00000070: 2912 1ebf 175d 833e 3aac c33e 89ae 56bf
00000080: bb10 793e 229b 033f b2cd 3c3e 4b94 5ebe
00000090: e118 413e da03 f03d 3b11 813e e9d3 a1bf
000000a0: 8ff1 883e d719 2fbf e674 97bf 92d0 13bf
000000b0: 2414 a7be 8089 a0be 56f3 80bf 6758 503e
000000c0: db4b 92bf 68d2 603e 1da3 48bf 6486 c5be
000000d0: 5400 823e cd44 d3bd b311 acbf 3f08 36be
000000e0: 99b4 843e eabd 14be c3df 933d d75b d1be
000000f0: f8c0 26bf 4389 7b3e 841c b43e b05b 80bf
00000100: 23d5 533e c42c aabf 86a7 b0bd fc5f acbd
00000110: 4c9b ef3d 6378 493e d44c eebe 0910 a73e
00000120: 3be2 10bf b1bb a0be a67f 33bd b658 2abf
00000130: eea0 023e 71b7 33bf f7e6 5e3e 4538 99bf
00000140: 9df9 8fbd 61d9 a63e c2a0 9fbf 3f5d 94bf
00000150: 783e 6cbf 3ab7 94bf 4f93 40be d782 14bf
00000160: d956 05bd f9e9 91bf 2f09 cd3d 724d 14be
00000170: 9e36 09bf a8fb fb3d 9605 5d3e 4df7 303e
00000180: c639 ea3e 2eb9 cebd f1c4 093f ca0a febc
00000190: 7a91 7c3e 5005 bcbe 3772 babf 07fa a1bc
000001a0: c40e bbbd 426c 5d3e 3aa6 ab3c c7ed 91bc
000001b0: affa 8cbf c1b8 d93e 91c8 4abf 0f21 d7be
000001c0: 7836 fdbe 42c2 3e3e b0a1 71be 3354 abbf
000001d0: 555c 27bd 8a5b 82be 94ab 9b3e 4576 943e
000001e0: 0bed e8be cde0 78bf f097 0ebf 6bba 81be
000001f0: 7662 83bf 7795 98be 1525 88be 2643 28bf
00000200: 27e9 33be 5ba8 bf3d be14 9fbf ba85 09bf
00000210: 1cbf 33bf 4e95 2cbf 8a5d 49be cbc9 a5bf
00000220: 49a3 94bf 709e 38bf 596d 88bf 423d bcbf
00000230: d3c3 913e aef9 9b3e 1060 6abe 309e f2be
00000240: 1727 263f 82a1 483e c4ce 06c0 e3e2 073f
00000250: 4e9b 7fbf 721e 843f ca91 aabe 4c39 46bd
00000260: 5182 acbf 841b 813e a0cf 3c3f 8ea2 52bf
00000270: 05b8 8cbd 175d 523f cfa6 123e add4 8abe
00000280: 7f55 bebf 7c32 22bd deac 68bf 810e 4cbf
00000290: 7c23 56bf feff 8cbe 654b ce3e 9106 47bf
000002a0: 58fe 3abd be67 02bf ec77 6e3e 8f34 f43d
000002b0: 7dbf b33e 7a79 bcbf 4375 b4bf 9739 e0bd
000002c0: 1900 db3e eaf0 1bbe 0888 b4be 234c 8fbf
000002d0: e8fb bfbe d680 6c3e 2277 6a3e aa3f 1f3d
000002e0: a9fd 8dbf b419 40be d76b 32bb 4493 8fbe
000002f0: cf6d 2ebf f48f 50bd a1cb 92bf 96cc b9be
00000300: ead0 893e dee3 60bf 964c 4cbf c5c7 3e3d
00000310: 79e2 2bbf d616 95bf 6b4b 8f3e 176b 323e
00000320: 6337 91bd fdbc 2fbd ee21 07bf a5dd 56bd
00000330: 4f54 7cbf c4cd 5b3e b1d0 af3a b4ea 82be
00000340: f855 aa3e 2982 cdbc d945 283f dc91 2b3e
00000350: 2118 043e 6042 e5be e02f 7a3d 825c 89bf
00000360: 6497 193e fe04 05bf 947a 11bf efec fabe
00000370: c4cc 6ebf f22d 6dbf 653a 893d 1096 ac3e
00000380: 1e52 ad3d af04 d23e b942 f3be c229 cf3d
00000390: be89 863c 392a b4bf 9ed4 05be b01f 1e3e
000003a0: eab6 f5bb 973e 0d3f a7ff 71bf 584f f1bd
000003b0: eb0b 16bf d425 4abf bdda 53bf 4c42 c63d
000003c0: 6199 0abf e0c3 233e 4b7c 033f 48e7 cbbc
000003d0: faf1 753e ebbd 0c3f 79bd 803e 579c b63d
000003e0: 3f22 43bc 4861 8ebf f47d f63d 2908 b93e
000003f0: cbc7 b03e 3d7b 6d3e 6fa2 f3bd 609c 0ebe
-0.55052274 0.04108635 0.09568438 -0.088871635 0.3719833 -0.79311204 -0.17565379 -0.24079084
-0.5151451 0.76546526 0.4315798 -0.38867298 0.37924215 -0.08623318 0.018033426 0.11640659
-0.40972772 0.05047078 -0.7899622 -1.402285 -0.6392624 0.36065727 0.21112692 -0.1681678
-1.2016954 -0.8153884 -0.99244577 0.119306415 -0.6174646 0.2565696 0.38217336 -0.8386007
0.24322788 0.5140859 0.18437842 -0.21736257 0.18857147 0.117194846 0.25208458 -1.2642795
0.26746795 -0.68398803 -1.183255 -0.5774013 -0.32632554 -0.31354904 -1.007426 0.20346223
-1.1429399 0.21955264 -0.7837389 -0.38579094 0.25390875 -0.10315857 -1.3442901 -0.17776583
0.25919035 -0.14525571 0.072204135 -0.4089038 -0.65138197 0.2456408 0.35178006 -1.0027981
0.20686774 -1.3294911 -0.086257026 -0.08416745 0.116995424 0.1967483 -0.4654299 0.3262942
-0.565952 -0.31393197 -0.043822907 -0.6654161 0.12756702 -0.70201784 0.21767794 -1.1970297
-0.07030032 0.32587722 -1.2470934 -1.1590956 -0.9228282 -1.1618416 -0.18806194 -0.58012146
-0.032553528 -1.1399528 0.10011517 -0.14482668 -0.53598964 0.12303859 0.21584162 0.17281838
0.45747203 -0.10093914 0.53816134 -0.031011004 0.2466487 -0.36722803 -1.4566106 -0.019772543
-0.09133676 0.21623328 0.020953286 -0.017813576 -1.1014003 0.4252377 -0.7921229 -0.4201741
-0.4945562 0.18628791 -0.23596835 -1.338507 -0.04085954 -0.25460464 0.3040434 0.28996482
-0.4549335 -0.9721802 -0.5570059 -0.25337538 -1.0264423 -0.29801533 -0.2659079 -0.6572746
-0.1756941 0.09358283 -1.2428205 -0.53719676 -0.70213485 -0.6741532 -0.19664589 -1.2952207
-1.1612331 -0.72116756 -1.065837 -1.4706194 0.28469715 0.30463928 -0.22888207 -0.47386312
0.64903396 0.1959286 -2.10637 0.53080577 -0.9984635 1.0321791 -0.33314353 -0.048394486
-1.347727 0.25216305 0.7375431 -0.8227929 -0.068710364 0.82173294 0.14321445 -0.27115384
-1.4869841 -0.039598927 -0.90888774 -0.7970963 -0.83647895 -0.27539057 0.40291896 -0.77744395
-0.045652717 -0.5093955 0.23287934 0.11924087 0.3510703 -1.4724572 -1.4098285 -0.109484844
0.42773512 -0.1522862 -0.35260034 -1.119511 -0.37496877 0.23096022 0.22897008 0.038879074
-1.1093036 -0.18759805 -0.0027224922 -0.28042042 -0.68136305 -0.050918534 -1.1468393 -0.362889
0.269172 -0.878477 -0.7980436 0.046577234 -0.67142445 -1.1647594 0.27987227 0.17423664
-0.07090642 -0.042904843 -0.5278615 -0.05245747 -0.98566145 0.21465212 0.0013413635 -0.2556969
0.33268714 -0.02508648 0.6573158 0.1675486 0.1289983 -0.44777203 0.061080813 -1.0731356
0.14999157 -0.5196074 -0.56827664 -0.4900889 -0.932812 -0.9264823 0.06700591 0.3370824
0.08462928 0.41019198 -0.47511843 0.101153865 0.016423102 -1.4075385 -0.13069388 0.15441775
-0.0074986117 0.5517363 -0.9453072 -0.11782712 -0.58611935 -0.7896397 -0.82755643 0.09680614
-0.5414029 0.15992689 0.5136153 -0.024890557 0.24018088 0.5497729 0.25144556 0.08916538
-0.01191002 -1.1123438 0.120357424 0.36139038 0.3452743 0.23191543 -0.11896216 -0.1392684

fc3.bias f4 [10]
00000000: 379e e4bc b219 40bf a452 d3bd 4662 f13e
00000010: 72c0 8abd 0280 d5be c852 b0bd 07dc ea3c
00000020: e1c2 613c 527e f63d
-0.027907474 -0.7503921 -0.10318497 0.4714529 -0.06774987 -0.41699225 -0.08609539 0.02866937
0.013779373 0.120358124

network.0.weight f4 [6, 1, 5, 5]
00000000: 82a4 a43c 9823 b83e 15ef 32be 6a5a 07bf
00000010: ba3b 46be dd81 e53e bf3f cf3e e954 e73e
00000020: 3204 0abe 8a5e 593c 9a1a 503f fd99 f23e
00000030: 575e 8d3e 6da0 1b3e d298 2b3e 2f9a 503f
00000040: 30b4 fc3e baa9 143f c336 dbbe b0af 4ebf
00000050: 4618 0e3e d868 89be 498d 59bb c6c5 debe
00000060: eae9 38bf 7640 0dbd 543f 08be 0afd 983d
00000070: 4477 ab3e 779c 74be f126 ca3b ea8d 1dbd
00000080: 2c10 f4be 763b b13e 0788 223e e3ff a93e
00000090: 932a 3e3e 8080 a8bf da1a 043f 2658 873e
000000a0: 93c6 993e 31dd c8bd 2115 61bf 5e8c 2a3f
000000b0: 468a 06bd 5a8a 27bd eaff c53c 0b08 00be
000000c0: e7e7 e53e 488e a1be 52dd 0f3f c1ef c33e
000000d0: 810e 9abf 4fdf 15be dff8 063d 76c6 ca3e
000000e0: c1d9 673f 120c d1be 1dba 15bf 2696 e1be
000000f0: 66d0 5e3d 82dd 133f 4a4b 6b3e c5a4 b7be
00000100: 489b 823d 13c6 37be cb92 8abd 9522 9f3e
00000110: 57bf 5abd 2bd3 353d 795d f0bd adbd d9be
00000120: 89cd 68be 0cbe a23e 63cb 8c3e 5b1b c1bd
00000130: 4a5e 90be 0403 b13e 34e3 1c3e 1873 5dbd
00000140: 91e4 54be dfe6 873d 63e8 743e c7fc 603e
00000150: f1ba 0b3d d0c1 fa3e 8361 7c3e afa9 b73e
00000160: 1b3f 4dbd b4d9 babe e4ff fa3e 1236 fb3e
00000170: 083d ad3e e582 6abf 9675 b2bf 642d c7be
00000180: f13d 86be 0554 7dbe 0aa7 97bf f7f3 c7bf
00000190: 6a9e a53e f238 583e a62b 2b3f 2798 043f
000001a0: 056f 58bd 12dd 8d3e 0cf8 1c3c 7856 4c3f
000001b0: 78fb fbbe a31e 10bf 806a a1be 1c9e 103e
000001c0: 4992 9fbe a175 26bf 2da9 b5bd 3e44 bebe
000001d0: f23e b4bc 0bdf b5be 8d3a 17bf a185 573f
000001e0: 70cf 543d 1aeb 08bd 41d5 c7bd 5243 05bf
000001f0: d667 123f 16c2 0ebf 8c83 52bf 4dcd 9e3e
00000200: 6d4f 083f 277e 953e 6ac0 2f3e dd88 0abf
00000210: c65d 063d 4559 f23d 4a14 a33d 6f7c 0f3e
00000220: f569 1a3a 7613 5dbf e282 28bf 114f 85be
00000230: 03e4 633e eaa2 103f 6603 bbbe f51c fdbd
00000240: b98a 69be b34d 5e3d ceb8 513f 416a 0b3f
00000250: 7356 083f b112 54ba
0.020097975 0.35964656 -0.17474015 -0.52872336 -0.19358721 0.4482564 0.40478322 0.4518197
-0.13478163 0.013267169 0.8129059 0.4738311 0.27611038 0.15197916 0.16757515 0.81485265
0.49356222 0.5807148 -0.42815217 -0.8073683 0.13876447 -0.26837802 -0.0033195785 -0.43510264
-0.72231925 -0.034485303 -0.13305408 0.07470138 0.3348943 -0.23887812 0.006169193 -0.038465418
-0.47668588 0.34615678 0.15872203 0.3320304 0.18570928 -1.3164215 0.5160347 0.2643444
0.30034313 -0.09807814 -0.87922865 0.66620433 -0.03284671 -0.040903427 0.02416988 -0.12503068
0.4490349 -0.31553864 0.56197083 0.38268855 -1.2035676 -0.14635967 0.032952186 0.3960454
0.9056664 -0.4082952 -0.5848711 -0.44059867 0.054397963 0.5775987 0.22977939 -0.35867897
0.06377274 -0.17946653 -0.0676628 0.31081071 -0.053405132 0.04439084 -0.117365785 -0.42527524
-0.22734655 0.3178562 0.27498922 -0.09429046 -0.28196937 0.34572613 0.15321046 -0.05406484
-0.20790316 0.06635832 0.23916773 0.21971427 0.034113828 0.48975992 0.24646573 0.35871646
-0.05010901 -0.3649422 0.49023354 0.4906469 0.33835626 -0.9160598 -1.3942134 -0.38901818
-0.26219133 -0.24739082 -1.1847851 -1.5621327 0.32347423 0.21115473 0.6686348 0.51794666
-0.05284025 0.27707726 0.009580623 0.7981944 -0.49215293 -0.5629675 -0.31526566 0.14122814
-0.31166294 -0.6502324 -0.08870158 -0.3716144 -0.02200267 -0.3552173 -0.59073716 0.84188277
0.05195564 -0.033427335 -0.09757472 -0.5205585 0.5718969 -0.557649 -0.82231975 0.31016007
0.53246194 0.2919781 0.17163244 -0.54115087 0.032804273 0.11833433 0.07962854 0.14012311
0.00058904226 -0.8635782 -0.6582471 -0.26036885 0.22254948 0.5649859 -0.3652603 -0.12359039
-0.22806825 0.05427332 0.81922615 0.54459006 0.5325691 -0.00080899434

network.0.bias f4 [6]
00000000: 51e8 dbbe cd8f a13e 7276 533e 0b0c af3c
00000010: 298e 143f d5aa 8c3d
-0.4295068 0.31555024 0.20650652 0.021368047 0.5802942 0.06868521

network.1.weight f4 [6]
00000000: 8c25 063f fdc7 9f3f 7f6c 873f 55d5 e73f
00000010: 9495 7d3f 5cb1 503f
0.5240104 1.2482907 1.0579985 1.8111979 0.99056363 0.8152063

network.1.bias f4 [6]
00000000: 8ee9 4dbe 0981 e1bd 2edf 4b3e b2d6 15bf
00000010: 0cd8 733d 0d7b f1bd
-0.20108625 -0.1101094 0.19909355 -0.58530724 0.05953221 -0.11791048

network.1.running_mean f4 [6]
00000000: c2ef 163e 5b11 963e ce6c 443e 7591 7fbf
00000010: ca47 0b3f 5142 583d
0.14739898 0.29310116 0.1918213 -0.99831325 0.54406416 0.05279762

network.1.running_var f4 [6]
00000000: a648 a33f d98a 333e 9b32 783e a6d2 0340
00000010: 2f35 5e3e afe9 5d3e
1.2756546 0.17533435 0.24238054 2.059732 0.21699975 0.21671174

network.4.weight f4 [16, 6, 5, 5]
00000000: d8bb 333f 8586 f73c 2763 a3bd ae17 893e
00000010: ff8a 053e 2922 7f3e f8a2 2cbe 9e4e 33bf
00000020: cdd7 17bd 9e15 8abe c5d3 193e 46e7 74be
00000030: d3fd aebe 1111 443e 1e54 c8bc 2145 5c3c
00000040: b0cc 85bd cec1 3c3d 8db5 6a3d 95a3 dbbe
00000050: 9fa9 8f3e 11f4 09be e177 6cbe 630e 4fbe
00000060: 7ba8 96bf 20d4 803e 829c 273f 9dd3 a93e
00000070: fa6e e4bc d665 253a 55f8 0b3d b0df 0a3f
00000080: 649e ba3e 2436 83bd 4952 183e 2c42 cd3e
00000090: 56a1 d23e 467a 81bd 8dc6 6f3a 5e65 8abc
000000a0: cfc8 13bc 331e ccbe 1542 c6be cc76 13bf
000000b0: d815 bfba cf94 cebd e683 93bf 6e31 8fbf
000000c0: 7060 8fbe a133 efbe b0fc 0c3e 2559 9f3e
000000d0: 2a40 293f f424 c4be 1a51 a0be b33b 283f
000000e0: da38 c63e f20a 15be 4378 633f fb3a cabc
000000f0: 2bce 0cbd 4b6b 48be 40a8 b83c 7053 abbd
00000100: 1edf 493f 0475 88be 2481 9cbe ff8b 85be
00000110: 8a1e 3fbf 31e5 00be 7b63 333e 294a 6c3d
00000120: 6cc1 4e3e ae51 70be 8796 553e cbe1 0a3f
00000130: faaf aebd c702 4bbf d892 853e 843b a63e
00000140: 9047 ae3e 28bd 6c3d 09ad b9be 1a4c 06bf
00000150: a71e bcbd 8126 b53e 46d0 963e 06e4 773e
00000160: 2104 a2be 5b85 c9be c00a 57be ba0c a43e
00000170: f5d0 423f 518d b93e 1081 cebd 5428 3cbf
00000180: 0bd0 d5bc bbc7 ae3e 03df 8f3e 4ee4 13bf
00000190: 61d7 bebe 55b5 623f 9e98 c03d 4120 1bbe
000001a0: 64f9 b9be a6c9 b2bd 7fde 59bf 661c dd3e
000001b0: 6842 a7bc b15a 8ebe 8efe 83be 1d1a 22bc
000001c0: 960e 40bd 09ed 7a3e c16d b7bd e468 41bf
000001d0: 7cc4 81bd a639 e83b 654c c33e b9c3 483f
000001e0: 9697 30be 3f04 98bf 480e bcbe 4bb3 963e
000001f0: 4fd4 193f 4621 17bf f8b0 8bbf cc98 63be
00000200: 8f96 953e ee94 14bf bdf2 8cbe 8686 673e
00000210: 244e 023f 609a 0dbf c62b d03e 22ff 54bf
00000220: 2986 c0bd a875 d23e 9f98 053f bf50 2cbe
00000230: 1a65 2cbf 1615 453e cd0f 873e 0cc0 383f
00000240: 540e 443e 74a7 34bf ff60 a7be 5dc7 113f
00000250: 59cd 073f 3e17 91be dc77 25bf acf1 abbe
00000260: 86b2 ab3e 77f4 403e f444 703e ef89 1ebf
00000270: a597 7fbe 7e30 923e f38e 363d 8bef 693e
00000280: b124 b1be 72ec 10be 0729 e43d 7dff a1be
00000290: a6fa adbe 61cb 0dbf 9e78 0bbf f7d1 893d
000002a0: 4934 f63e 912b 413c 3bce 453e 3857 fe3b
000002b0: b261 a03e 9c80 c23f b5a0 d73e e88b e13e
000002c0: 3e2c 1e3e e423 a5bd 19ee 233e f02c 7b3f
000002d0: 1fd4 123d e469 5d3d ac2e 76be efcb fcbe
000002e0: 4a80 cdbe be10 fabe 3c2a eabe d2e8 db3d
000002f0: 379c 59bf 2bd7 a7bf 845e 53be baf5 3a3e
00000300: 9db2 153f 5e7a a5bf 2f95 4abf 707c 623e
00000310: b172 943e 77fa 66be 4bcf 8fbf d182 bebf
00000320: eafc 183f 603f 3a3e ef5d dfbd e443 0d3f
00000330: 75c9 633f c8da bc3d ac7e eabe ef22 25bf
00000340: 2ae7 e73e 006b cb3e de41 81be a9a0 c63d
00000350: 2391 c7be c32a 613c 8c35 36be 2792 83bd
00000360: b077 123f 07d9 eabe f2c0 383e 34a1 7c3d
00000370: 5846 66be 520b c2bc 7dab 4dbf d87b d23e
00000380: 5d3f 3f3e 9652 113c 77f5 7cbd e02b 15be
00000390: 3e2c 2dbf 3b67 29bd 44ae 743e d86f 02be
000003a0: d776 ecbe e1a7 22bf 2118 4b3c dca2 763e
000003b0: f685 a4bd 41c2 b73c 3fc6 bbbe 176d 72bb
000003c0: ce17 043e 3335 b23c 822a 133f 48f1 f53d
000003d0: 78ef f3be 5edb 0cbf a989 0fbe d738 d93e
000003e0: 5efd 503f 8fb5 c6bd b115 04be d9bf b8bd
000003f0: 7c2d a2bc 8ac8 823c d527 93bd 2a8e 1fbe
0.702085 0.030215511 -0.07977896 0.2677588 0.13041304 0.24915375 -0.16859043 -0.70041835
-0.037071038 -0.26969618 0.1502219 -0.23916349 -0.34178028 0.19147135 -0.024454173 0.013444216
-0.06533182 0.046083264 0.057302047 -0.4289824 0.28059098 -0.1347201 -0.23092605 -0.20220332
-1.1770166 0.2516184 0.65473187 0.3316926 -0.027884949 0.0006309425 0.034172375 0.5424757
0.36448967 -0.06406811 0.1487514 0.40089548 0.41138715 -0.0632215 0.0009146713 -0.016894039
-0.0090200445 -0.3986679 -0.38722292 -0.57603145 -0.0014578653 -0.10086977 -1.1524627 -1.118696
-0.28003263 -0.46719077 0.13768268 0.311227 0.6611353 -0.38309443 -0.31311876 0.65716094
0.3871525 -0.14554957 0.8885538 -0.024686327 -0.034376305 -0.19572179 0.022541165 -0.08365524
0.78856075 -0.26651776 -0.30567276 -0.2608337 -0.74655974 -0.1258743 0.17518418 0.057687912
0.20190972 -0.23468658 0.20858203 0.5425078 -0.085296586 -0.7930111 0.26088595 0.32467282
0.34038973 0.05779758 -0.36264828 -0.5245987 -0.09185534 0.3538094 0.29455775 0.24208078
-0.31643775 -0.39359555 -0.21000195 0.3204096 0.76100093 0.36240628 -0.100832105 -0.73499036
-0.02610018 0.34136757 0.28099832 -0.5777024 -0.37273696 0.8855794 0.094041094 -0.15149023
-0.36323082 -0.08729868 -0.8510513 0.4318573 -0.020417407 -0.27803567 -0.25780147 -0.009893921
-0.04688891 0.24504484 -0.08956481 -0.75550675 -0.063363045 0.0070869504 0.38144222 0.7842365
-0.17245325 -1.1876296 -0.36729646 0.29433665 0.6008958 -0.59035146 -1.0913382 -0.22226256
0.2921643 -0.5803975 -0.27528945 0.2260991 0.50900483 -0.5531368 0.40658396 -0.832018
-0.09400589 0.4110539 0.52186006 -0.16827677 -0.6734177 0.19246325 0.26379243 0.7216804
0.19146091 -0.70568013 -0.3269119 0.5694483 0.5304771 -0.28338045 -0.64636016 -0.33582819
0.3353464 0.18843256 0.23463804 -0.6192922 -0.24960192 0.28552622 0.04456992 0.22845285
-0.34598306 -0.14152697 0.11140638 -0.31640235 -0.33980292 -0.55388457 -0.5448092 0.06729501
0.48086765 0.011790172 0.19316952 0.007761862 0.31324536 1.5195498 0.42114797 0.44052052
0.15446565 -0.08063486 0.16008796 0.98115444 0.035846826 0.054056063 -0.24041241 -0.4937434
-0.4013694 -0.48840898 -0.45735347 0.10737766 -0.8500399 -1.3112539 -0.20641524 0.182578
0.5847567 -1.2927969 -0.79133886 0.22117782 0.28993753 -0.22556482 -1.1235136 -1.4883672
0.59760916 0.18188238 -0.10906588 0.5518172 0.88979274 0.09221417 -0.45799768 -0.6450643
0.45293552 0.39730072 -0.25245565 0.09698612 -0.38977918 0.013743105 -0.17793864 -0.06424361
0.5721388 -0.45868704 0.18042353 0.061677173 -0.22487772 -0.023687039 -0.80339795 0.4111011
0.18676515 0.008869788 -0.06175753 -0.14567518 -0.67645633 -0.041358214 0.23894602 -0.12737978
-0.46184418 -0.6353741 0.0123958895 0.24085563 -0.080333635 0.022431495 -0.36674687 -0.0036991292
0.12899706 0.021753883 0.57486737 0.12008911 -0.47643638 -0.5502223 -0.14017357 0.42426178
0.8163661 -0.09702598 -0.128989 -0.09020967 -0.01979708 0.015964765 -0.07185332 -0.15581575

network.4.bias f4 [16]
00000000: 2f2a 87be 5c61 0f3d 2598 05be 4588 21be
00000010: 1343 ce3d 9df3 ec3b 6df1 3bbe e530 b33e
00000020: 9700 493e 5178 1abc 5d19 c53d 9bc0 da3d
00000030: 732d 113e ddae 8f3e c52b fc3e 0dde ecbc
-0.2639937 0.03500496 -0.1304632 -0.15774639 0.10071387 0.0072311894 -0.18353815 0.3499824
0.19629131 -0.0094281 0.09623978 0.10681268 0.14177494 0.28063098 0.49252144 -0.028914476

network.5.weight f4 [16]
00000000: 7381 8e3f bde4 a73f 8f6a 8e3f 46ed 823f
00000010: 5592 8d3f fa7c 8f3f 7dfb 883f 8032 913f
00000020: bd5e 7a3f c378 903f 314c 783f 9bba 763f
00000030: 86cd 923f 7d38 8d3f 4528 9e3f d22e 8b3f
1.1133255 1.311668 1.1126269 1.022866 1.1060282 1.1210015 1.0701748 1.1343536
0.9780081 1.1286854 0.9699126 0.9637849 1.1468971 1.1032864 1.2356039 1.0873663

network.5.bias f4 [16]
00000000: 210b 36bf 3c5b 4ebf 4ec9 14bf aa57 10bf
00000010: 4f84 2abf f007 24bf 532e 1bbf f06f 43bf
00000020: 745b 00bf 0a5b 32bf 2500 28bf 6aea e9be
00000030: 4fe6 37bf 6e4f 1cbf 15d9 52bf a940 1dbf
-0.7111073 -0.8060796 -0.58119667 -0.56383765 -0.66608137 -0.6407461 -0.6061756 -0.7634268
-0.50139546 -0.69670165 -0.6562522 -0.45686656 -0.718358 -0.610587 -0.8236249 -0.6142679

network.5.running_mean f4 [16]
00000000: 1731 c0bf 8b53 14c0 cc42 2ec0 361a 05c0
00000010: 97a8 b0bf 1c02 c3bf 9f5a d0bf 3371 33c0
00000020: 01e7 0bc0 d2c0 d9bf 7eb4 81bf dbdd d9be
00000030: ccbd ba3d 56ca ddbf 745e e6bf 5585 a7c0
-1.5014981 -2.317599 -2.722827 -2.0797248 -1.380145 -1.5235019 -1.6277655 -2.8037841
-2.1859744 -1.7011969 -1.0133207 -0.42552075 0.09118232 -1.7327373 -1.7997575 -5.235026

network.5.running_var f4 [16]
00000000: 6da3 bc40 96c2 4541 f44b 3b41 65b9 cf40
00000010: e54f c340 2cea 3d41 441f 1341 d743 0441
00000020: 8eb8 2041 9ca8 2641 2190 c940 730d 0b41
00000030: d74d 2a41 123d 1741 3129 0a41 6a3d 8e41
5.8949494 12.360006 11.706043 6.491381 6.1035028 11.869671 9.195133 8.266562
10.045057 10.416164 6.298844 8.6907835 10.644004 9.45241 8.6350565 17.779987
