Models/SingleLayer_SNN.pt (torch, 32323 bytes, 1 tensors)

layer1.0.weight f4 [10, 784]
00000000: 6801 d43b 4893 edbc da3b c13c 087a 6c3c
00000010: e227 ba3c b725 87bc eeb8 67bc 009c d83b
00000020: 708d 48bb ec71 c8bc 7e2a 8c3c 2a5a 5ebc
00000030: 101c 3f3b e053 493b 7050 933b aaf8 3dbc
00000040: dc58 fbbc 2e3f 17bc 9d09 48bd 805e 193c
00000050: 18d4 4fbc 26ac e53c f4f6 743c 98c9 d1bc
00000060: 5caf 5b3c 80a9 32bc 7020 1a3b 82d3 e93c
00000070: d058 3fbb 8088 92b9 5295 dd3c d638 e43c
00000080: 1dbd 023d 1ce4 523c 1077 cc3c 050b adbc
00000090: 6e23 a63c 3c29 b8bc cc07 9cbc 7cf6 653e
000000a0: 7b67 523e 1bfa 4f3e ddb0 c0bd 3563 423d
000000b0: 0538 d63d bd73 383e a955 cabc 709b c53c
000000c0: b0e8 c63b 4884 813c 4862 c03c 7090 c1bc
000000d0: 4032 983a 13fe e3bc dcff 7ebc 2654 73bc
000000e0: 2352 05bd c0b2 bd3c a02f 203c 8e67 ed3d
000000f0: 21be 183e 4ae0 d0bd 32e1 80be 6438 b3bd
00000100: 32be 6cbe 403c b9be dabd acbe 02fd 73be
00000110: a50a 90be 2227 89be 2a38 c9be 8498 f6be
00000120: f89b c4be 0f2c 21bf 2919 09bf d379 b6be
00000130: ff7d 23bf 72a4 d9be 5dc5 f0bd c0f0 c3bb
00000140: 4368 a3bc dc86 efbb 5810 8fbb 3ec3 803c
00000150: 4886 513c b821 d3bc 788f a2bb 6da7 183e
00000160: 6e22 2d3d 9b90 c7bd 228d afbe 2dfb 23be
00000170: 52bd 41be 75b9 d0be e65c eebe 6004 86be
00000180: 3851 54be a925 acbd 1045 34be aeb5 55be
00000190: 52c8 d6bd 07cd debd 2618 87be 8442 4fbe
000001a0: bdcc 25be d50e bebe d04f ccbe a568 39be
000001b0: b724 8a3c ad15 06be a86d 1ebe 38ea 43bc
000001c0: 6019 21bc 2660 70bc e467 e3bb 58b0 24be
000001d0: 168d 54be b381 d9be 9606 77be d395 8dbe
000001e0: 59b1 b83d 452f f6bc 601f bdbd 6bd2 4dba
000001f0: 2d8b e1bd 5bbb e03c afbe 87bc 6b9c 083d
00000200: 2a3b 0fbe c25d 0c3c df4f 093c e87f 263c
00000210: 1057 253b 522a febd c408 d5bb 1c48 c83c
00000220: 3c22 83be ee85 a5be 1a2a 51be 60dc df3b
00000230: 84c1 363c be93 d53c 8095 fabd dfce d9bc
00000240: a1ca 4bbe 418e bcbe 77b5 86bc 3c63 2dbe
00000250: 5272 60bc 47e0 a3bd 0d4e 9d3d e629 3c3d
00000260: a2fc 8dbd 003f 763d 98d2 093e 0fbe 8b3d
00000270: 93cd 623d 4123 e93c ac85 253d 2002 6abd
00000280: 7dc9 29bd aefa 90bd d282 2ebd 11c4 123b
00000290: 74c2 8fbe 98a4 fcbe 9219 98be a12c 30be
000002a0: 5066 793b 5415 b7bb 0a1c 1ebe 05f4 47bd
000002b0: 66b6 39be 81fc 17bc 75b4 98bd c5fb 93bd
000002c0: bf04 7bbd 2749 80be c588 74bd 01a9 d1bc
000002d0: 356c c5bd b948 f13c 695e c63a 0a1c 223d
000002e0: 41c4 12bc c085 963d 5ce4 583d 6a57 943a
000002f0: 7cd9 45bc 7adf d83d dfa1 983d a708 a0bd
00000300: 964d adbe 325a 3dbf d29c 11bf fbfd 95be
00000310: 007d 9cb9 d866 c63c 3dd7 75bd 9ac5 3abe
00000320: 8477 ccbe 3111 b93d d41e a73d 32af 1e3c
00000330: a16a 32be be25 f1bc bf63 cebc a33d 7ebc
00000340: 1310 58bd e27f 3e3d d736 f03b 3376 933b
00000350: a546 a03c a292 093e d80f 183e 30ae da3d
00000360: bd81 083d eee6 d83c afc8 dbbb 7042 8ebd
00000370: 3b98 b3be b140 febe 1545 20bf 3157 c6bd
00000380: 161f 503e 185d 80bb bd41 163e 5bc2 103d
00000390: 4f17 c5be f537 94bd c0b8 463d ef85 ba3b
000003a0: 6497 1ebd f065 973c 3407 2e3c 2b65 c7bc
000003b0: 2c92 853d 1dc1 1cba 0133 a53d e0a7 f23d
000003c0: e09d 623e f7ec 1a3e 97b8 b63d 9788 6d3d
000003d0: 7afa 8e3c 5c01 b03c c197 e5bb ce7c fb3d
000003e0: 4d7b c1be e080 43bf 5dbe f4be 4b7a 14be
000003f0: 6030 00bc 6046 d13b 48e2 1d3e 713a 64bd
0.006469894 -0.029000893 0.02358811 0.014433391 0.022724096 -0.016497476 -0.014143212 0.0066103935
-0.0030601881 -0.024468385 0.017110106 -0.0135713015 0.0029161014 0.003072016 0.004495673 -0.011594931
-0.03068202 -0.009231372 -0.048837293 0.009360909 -0.012684844 0.028036188 0.014951456 -0.025608823
0.013408508 -0.01090467 0.002351787 0.028543238 -0.0029197223 -0.0002794899 0.02704874 0.027859133
0.031918634 0.012871768 0.024959117 -0.021123419 0.020280566 -0.0224806 -0.019046687 0.22457308
0.20547287 0.20310251 -0.09408734 0.047457892 0.10459904 0.180129 -0.02469905 0.02412197
0.006070219 0.015810147 0.023484364 -0.023628443 0.0011611655 -0.027831113 -0.015563931 -0.0148516055
-0.032549035 0.023156524 0.00977698 0.11592017 0.14916278 -0.1019903 -0.2517181 -0.0875099
-0.23119429 -0.3617878 -0.33738595 -0.23826984 -0.2813312 -0.26787668 -0.39300662 -0.48163235
-0.38400245 -0.62957853 -0.53554016 -0.3563982 -0.6386413 -0.42508274 -0.11756394 -0.0059796274
-0.019947177 -0.0073097777 -0.004365962 0.015718099 0.012788363 -0.025772914 -0.0049609505 0.14907618
0.042269163 -0.09744378 -0.34287363 -0.16013785 -0.18919876 -0.40766492 -0.4655525 -0.26175213
-0.20734107 -0.084056206 -0.1760447 -0.20870087 -0.10487427 -0.108789496 -0.2638561 -0.20240217
-0.16191383 -0.3712069 -0.39904642 -0.18106325 0.01686321 -0.13094206 -0.15471518 -0.011957698
-0.00983271 -0.014671361 -0.006939875 -0.16082895 -0.20756945 -0.42481765 -0.24123606 -0.2765337
0.090182014 -0.030051837 -0.092345 -0.0007851484 -0.11012874 0.027433088 -0.016570417 0.033352297
-0.13987413 0.0085672755 0.008380859 0.010162331 0.0025228895 -0.12410416 -0.006501289 0.024448447
-0.25612056 -0.32328743 -0.20426217 0.0068316907 0.011154536 0.026071426 -0.12235546 -0.026587902
-0.19901516 -0.3682728 -0.016443951 -0.16932386 -0.013699131 -0.08001762 0.07680903 0.045938395
-0.069329515 0.060118675 0.13459241 0.0682336 0.055371832 0.028459193 0.040410683 -0.057130933
-0.04145192 -0.07079063 -0.04260523 0.0022394697 -0.28078043 -0.49344325 -0.2970701 -0.17204525
0.0038055368 -0.0055872593 -0.15440384 -0.0488167 -0.18135986 -0.00927651 -0.074562944 -0.072257556
-0.061283823 -0.2505581 -0.059700746 -0.025593283 -0.096397795 0.029453622 0.0015134338 0.03957752
-0.008957923 0.073497295 0.052952155 0.0011317555 -0.012075778 0.105895 0.074527495 -0.0781415
-0.33848256 -0.7396575 -0.56879914 -0.29295334 -0.0002984777 0.024218962 -0.06001972 -0.18239442
-0.39934933 0.09036482 0.08160177 0.0096853245 -0.17423488 -0.029436942 -0.025194047 -0.015517625
-0.052749705 0.046508677 0.007330756 0.0045001744 0.019564936 0.13434842 0.14849794 0.10677755
0.033326853 0.026477303 -0.006707273 -0.06946266 -0.3507708 -0.4965873 -0.6260541 -0.09684599
0.20324358 -0.0039173476 0.14673515 0.0353416 -0.38494346 -0.072372355 0.048516035 0.0056922357
-0.038718596 0.018481225 0.010621835 -0.024340233 0.06522021 -0.0005979704 0.08066369 0.11848426
0.22130537 0.15129457 0.089219265 0.05799159 0.01745342 0.021485023 -0.007006616 0.12279664
-0.37789384 -0.7636852 -0.47801486 -0.14499776 -0.0078240335 0.006386563 0.1541835 -0.055719797
