Models/SingleLayer_SNN.pt (torch, 32323 bytes, 1 tensors)

layer1.0.weight f4 [10, 784]
0	0xbcf0e565	-0.029406259
1	0x3c023634	0.007947493
2	0xbd0a203c	-0.033722147
3	0xbcc626c8	-0.024188414
4	0xbcdd6bd8	-0.027028963
5	0x3c64cbf0	0.013964638
6	0x3c996940	0.018726945
7	0x3c9ad45c	0.018900089
8	0x3ca5a572	0.020220492
9	0x3c5e6150	0.013573006
10	0xba9ce4c0	-0.0011970028
11	0xbc902e17	-0.017600102
12	0xbb45fde0	-0.0030211136
13	0x3d107dd9	0.035276268
14	0x38423c00	4.6309084e-05
15	0xbb9b64d4	-0.0047422443
16	0xbc6d0cc0	-0.014468372
17	0xbcf859b3	-0.03031621
18	0xbcf38f5e	-0.029731449
19	0x3ccb5c6c	0.024824344
20	0x3c31139c	0.010807898
21	0x3c0f2114	0.008735914
22	0xbc1b7bf8	-0.009490006
23	0x3cec00e6	0.028809022
24	0xbcaad1f3	-0.020852065
25	0x3ca9e709	0.020740049
26	0x3d12350d	0.035695124
27	0x3be61338	0.007021334
28	0x3aa6bf60	0.0012721829
29	0xbd042e48	-0.0322707
30	0xbcd00e1e	-0.025397357
31	0x3c78d924	0.015188489
32	0xbd0603bc	-0.032718405
33	0xbb06c770	-0.0020565651
34	0xbc5ba426	-0.013405835
35	0xbc9f9040	-0.019477963
36	0x3cdf861e	0.027285632
37	0xbd049678	-0.03237006
38	0xbde158d6	-0.11003272
39	0x3e6b7585	0.22994049
40	0x3e4ead98	0.20183408
41	0x3e7abfab	0.24487178
42	0xbe004392	-0.12525776
43	0x3d1689c7	0.03675249
44	0x3e009331	0.12556149
45	0x3dffeaa2	0.124959245
46	0xbc373ce6	-0.011183953
47	0xbd0ab15f	-0.03386056
48	0x3a176e40	0.00057766214
49	0x3bb55e62	0.005534933
50	0x3c6c5358	0.014424168
51	0x3d00a09b	0.031403165
52	0xbbebf814	-0.007201204
53	0x3c9250a8	0.017860726
54	0xbbd0abc8	-0.006368134
55	0x3bafaf30	0.00536146
56	0xbc9957c5	-0.01871861
57	0xbc86015a	-0.016358066
58	0xbd56befe	-0.052428238
59	0x3e0c88f9	0.13724126
60	0x3e585e82	0.21129802
61	0x3c8e30b1	0.017357202
62	0xbe58ef68	-0.21185076
63	0xbd29a93d	-0.041421164
64	0xbe9c460e	-0.30522197
65	0xbeb85b73	-0.3600727
66	0xbed006d9	-0.40630224
67	0xbe88d779	-0.26726893
68	0xbe9800e1	-0.2968817
69	0xbea3c5d8	-0.3198688
70	0xbeda18c7	-0.4259703
71	0xbf13c919	-0.57728726
72	0xbec4e3cc	-0.38455045
73	0xbf1a6aed	-0.60319406
74	0xbf0b4cd6	-0.5441412
75	0xbeaf4d6c	-0.34238756
76	0xbef04af8	-0.46932197
77	0xbec96852	-0.39337403
78	0xbe254092	-0.16137913
79	0xbdac2bcf	-0.08406793
80	0xbd456cb0	-0.048199356
81	0xbc5dc723	-0.013536247
82	0xbd2ae9f0	-0.041727006
83	0x3d115f4d	0.035491277
84	0xbcee5155	-0.029091517
85	0xbc86d2ec	-0.016457997
86	0xbccdaec5	-0.02510775
87	0x3d28e64f	0.041235264
88	0xbd8babec	-0.06819901
89	0xbdc9393e	-0.09825371
90	0xbeb45338	-0.3521974
91	0xbe65dc89	-0.22447409
92	0xbe1f2623	-0.15541892
93	0xbec59f0b	-0.38597903
94	0xbebea471	-0.37234834
95	0xbe317da5	-0.17333086
96	0xbe4d0f5a	-0.20025387
97	0xbd917cff	-0.07103919
98	0xbdf570e7	-0.11984425
99	0xbe4d45bd	-0.20046134
100	0xbdfa367d	-0.12217424
101	0xbe1edb6b	-0.15513389
102	0xbea8e5c7	-0.32987806
103	0xbe6944b6	-0.22780117
104	0xbe608dfa	-0.2192916
105	0xbeccf345	-0.4002935
106	0xbeb1746f	-0.34659144
107	0xbe0f54e9	-0.13997234
108	0xbca396fe	-0.01996946
109	0xbe326e14	-0.17424804
110	0xbe6cea48	-0.23136246
111	0x3c96b03a	0.018394578
112	0x3cacd7ce	0.021098997
113	0x3ca7a090	0.020462304
114	0x3cb5496e	0.02212974
115	0xbe2c99a5	-0.16855486
116	0xbea740ca	-0.32666618
117	0xbecb29de	-0.3968038
118	0xbea44daa	-0.32090503
119	0xbe8f2bb3	-0.27963027
120	0x3cebf306	0.028802406
121	0x3d16a1b0	0.03677529
122	0xbd83a2c7	-0.06427532
123	0xbc68577d	-0.014181015
124	0xbdb5c004	-0.08874515
125	0x3cbddb7d	0.02317595
126	0xbce4baa7	-0.027921034
127	0x3ce02781	0.027362587
128	0xbe260920	-0.16214418
129	0x3ca5e5eb	0.020251235
130	0x3cdd934f	0.027047781
131	0x3b03aa9c	0.0020090705
132	0x3a8ab869	0.0010583523
133	0xbdad0ba7	-0.08449488
134	0x3b433bfc	0.0029790392
135	0xbc7ef8fa	-0.01556229
136	0xbe782fa2	-0.2423692
137	0xbeba6eef	-0.3641276
138	0xbe428084	-0.18994337
139	0x3d08e061	0.03341711
140	0xbc9d7047	-0.019218577
141	0x3c997b8c	0.01873567
142	0xbe8dadea	-0.27671748
143	0xbde3aad8	-0.1111657
144	0xbe81893b	-0.2530001
145	0xbed5ee18	-0.41783214
146	0xbd35745c	-0.044300422
147	0xbe001254	-0.12506992
148	0xbc4ce67a	-0.012506122
149	0xbd56bb64	-0.052424803
150	0x3d7bb90a	0.061455764
151	0x3b72f39a	0.0037071467
152	0xbd82155a	-0.06351729
153	0x3d63f242	0.055650957
154	0x3daf5748	0.085615695
155	0x3d866df5	0.065639414
156	0x3d9d4940	0.07679987
157	0x3d469d01	0.048489574
158	0x3d83045f	0.06397318
159	0xbd688b2a	-0.056773342
160	0xbd12ed52	-0.035870858
161	0xbdce3d96	-0.1007034
162	0xbd8de990	-0.06929314
163	0xbcd27783	-0.025691753
164	0xbe826c18	-0.25473094
165	0xbeff3361	-0.49843886
166	0xbea55d31	-0.32297662
167	0xbe1f515e	-0.15558383
168	0xbc210b98	-0.009829424
169	0xbb1e51b0	-0.0024157576
170	0xbe1e7234	-0.15473253
171	0xbca25771	-0.019817086
172	0xbe0ec86f	-0.13943647
173	0xbd8a7850	-0.06761229
174	0xbd83b716	-0.06431405
175	0xbd5e6dc0	-0.054303885
176	0xbd8580b6	-0.0651869
177	0xbe7fbb35	-0.24973758
178	0xbd019a1c	-0.03164111
179	0xbdb8e50e	-0.09028064
180	0xbdbd60ad	-0.09246955
181	0xbb6e369e	-0.0036348472
182	0x3d1f378f	0.038871344
183	0x3c659608	0.014012821
184	0xbcc0543e	-0.02347767
185	0x3d893dce	0.067012414
186	0x3d482b52	0.04886944
187	0x3d370665	0.044683833
188	0xbd39d0db	-0.045365196
189	0x3dcb35b6	0.09922354
190	0x3de4c089	0.11169536
191	0xbda78e7c	-0.081814736
192	0xbee0026b	-0.43751845
193	0xbf36cc5b	-0.7140557
194	0xbf127d06	-0.5722202
195	0xbe8c23bb	-0.2737101
196	0xbc67f07c	-0.014156457
197	0xbc2ebf12	-0.010665672
198	0xbd9b717b	-0.07590004
199	0xbe418b01	-0.18900682
200	0xbebfcd62	-0.37461382
201	0x3d936db2	0.07198657
202	0x3d747ca7	0.05968919
203	0xbcf494e2	-0.02985615
204	0xbe3ecee5	-0.18633612
205	0xbb1fe851	-0.0024399946
206	0xbbf53f1c	-0.00748433
207	0xbca4e138	-0.020126924
208	0xbd2d7917	-0.04235181
209	0x3d71b985	0.059014816
210	0x3ba86026	0.005138415
211	0x3c38006f	0.011230572
212	0x3d005bd2	0.031337567
213	0x3e139a58	0.14414346
214	0x3e22da1e	0.15903518
215	0x3def6ab2	0.116902724
216	0x3ce73779	0.028224694
217	0x3c9d3929	0.019192295
218	0xbc6dbd42	-0.014510455
219	0xbd073a8c	-0.03301482
220	0xbebe2aad	-0.37141934
221	0xbf062037	-0.52392906
222	0xbf0d9529	-0.55305725
223	0xbe0a696e	-0.1351678
224	0x3e5e5117	0.21710621
225	0x3d024473	0.03180356
226	0x3ddf8634	0.10914269
227	0x3ca3ab88	0.019979253
228	0xbed6b062	-0.41931444
229	0xbd57a760	-0.052649856
230	0x3d9b4142	0.07580806
231	0xbc18f6ea	-0.009336213
232	0xbb369d4d	-0.0027864755
233	0x3c0ea89c	0.008707192
234	0x3cb7da6b	0.022443017
235	0xbcdd63b3	-0.02702508
236	0x3d97b63c	0.07407805
237	0xbc0d4877	-0.008623234
238	0x3ddebcb2	0.108758345
239	0x3e14c699	0.14528884
240	0x3e835144	0.25647938
241	0x3e053cc4	0.13011461
242	0x3da31c33	0.07964363
243	0x3d930a6f	0.071797244
244	0x3ceb8023	0.028747624
245	0xbc2b3315	-0.010449191
246	0xbd109deb	-0.035306852
247	0x3df6c5c7	0.12049442
248	0xbea789e7	-0.327224
249	0xbf46fc8e	-0.7772912
250	0xbf0873cd	-0.533017
251	0xbe12c212	-0.14331844
252	0xbc0fd14a	-0.008777926
253	0x3d0996f3	0.033591222
254	0x3e8e4521	0.27787116
255	0xbe072ccc	-0.13200682
