Models/Single_MLP.pt (torch, 32499 bytes, 2 tensors)

fc1.weight f4 [10, 784]
000000 2a ac ab 3c aa 32 f6 3c 00 bf 26 3b 00 92 10 bc
       0.020956118 0.030053455 0.0025443435 -0.008823872
000010 59 5c 10 3d 20 1a d1 bc 3a 0b cc bc 94 7b f4 bb
       0.03524432 -0.025525153 -0.024907697 -0.0074610207
000020 f7 c2 11 bd 90 d5 fb 3b ea 7b c5 bc 28 32 22 3c
       -0.035586324 0.0076853707 -0.024106938 0.0098996535
000030 a5 3f 01 3e 90 db b8 3d 7a 25 74 bd 2c a0 f4 bc
       0.12621935 0.09026253 -0.059606053 -0.029861532
000040 7e 0c a2 bc 6a 5c eb 3c 7e 96 d5 3c 60 bf 0e bc
       -0.019781347 0.02873059 0.026072737 -0.00871262
000050 b0 72 2d 3b b8 ed ae 3c 65 30 ed bc ec 62 fb bc
       0.0026466064 0.021353588 -0.02895374 -0.030686818
000060 30 aa 85 bc 70 66 9d bb be 66 b2 bc 9c d5 96 bb
       -0.016316503 -0.0048034713 -0.021777507 -0.004603101
000070 2b d4 0f 3d c0 b1 76 3a 20 b4 e4 ba cc 2a 80 bc
       0.03511445 0.0009410642 -0.0017448701 -0.015645407
000080 1e bf 52 bd 60 ea 17 be 85 35 90 3d e4 38 99 3d
       -0.051451795 -0.148355 0.07041458 0.07481554
000090 18 51 49 3d f7 8a 02 bb 1d 74 21 3d 84 00 79 3d
       0.049149603 -0.0019919255 0.039417375 0.060791507
0000a0 1b 5c e3 bc 5c ec 0c 3e 94 9b a0 bd 10 e1 d7 3c
       -0.02775388 0.13762039 -0.07842174 0.026352435
0000b0 9b 8d a4 bb cb db 1a 3d 0a f4 30 bd 9e 0d 1a 3b
       -0.0050217635 0.037807267 -0.043201484 0.0023506652
0000c0 7e b5 13 3d bf 0a 48 bd 20 1d de 3d a5 c5 44 3d
       0.036061756 -0.048838373 0.10845399 0.04804005
0000d0 b6 4f f5 3c 3a dc 11 bd c0 b9 03 bc 70 f0 aa bb
       0.029945236 -0.035610415 -0.008039892 -0.0052166507
0000e0 8a f1 0d bd c0 2a 8d bb 44 05 ac be 97 1a 23 3f
       -0.034654178 -0.0043080747 -0.33597767 0.6371245
0000f0 23 5c 84 3e 68 23 bb be e4 51 b6 bd ed 0b 2f 3d
       0.25851545 -0.3655045 -0.08902338 0.042735983
000100 aa 1b cc bc d5 4c 1d bd 41 af 1c bd d8 30 de 3c
       -0.024915535 -0.03840335 -0.038253073 0.0271229
000110 9c fb e5 bc 03 7b 29 bc e4 c4 98 bc 93 df 7a 3a
       -0.028074078 -0.01034427 -0.018648572 0.00095700583
000120 df 0f 3f bd 89 59 f1 bb 33 50 b0 bc ca ca de bc
       -0.046645995 -0.0073654098 -0.021522617 -0.027196307
000130 ff ae 53 bd 50 e1 4a 3d 2c 94 a4 bd bb 7e 18 3d
       -0.05168056 0.04953128 -0.08036074 0.037230235
000140 92 25 9c bd 3d 35 e3 3d b6 a4 c3 3c 99 15 01 3d
       -0.076243535 0.11094139 0.023882251 0.031514738
000150 f2 e8 38 bc e8 d5 88 3c 4d 04 88 3e 84 05 2d be
       -0.011286007 0.016703561 0.2656578 -0.16896635
000160 91 80 ee bd c6 1b 02 bd df c2 de bc 0a a4 a4 3a
       -0.11645616 -0.031764768 -0.027192531 0.0012561094
000170 88 da 82 3c c0 96 be bc c3 8d 4c bc 3f 3f dd 3c
       0.015973344 -0.023265243 -0.0124849705 0.027007697
000180 fe af ea bc bb 77 c0 3c 80 b1 a7 bc 1f c1 4b bc
       -0.028648373 0.023494592 -0.02047038 -0.01243618
000190 76 d7 85 ba 28 bd 56 bc 0f 0c 5e bd f8 3a d6 bc
       -0.0010211307 -0.013106622 -0.05421072 -0.026151165
0001a0 d0 ef 80 bd d6 ed 74 bd 75 0e 25 bd df 47 0d bd
       -0.062957406 -0.05979713 -0.04029699 -0.03449237
0001b0 f3 f5 22 3d dc a3 51 bc 12 09 b5 3d 20 ea d2 3b
       0.039785337 -0.012795415 0.08839621 0.0064366013
0001c0 00 e3 c2 3c 69 69 a8 3e bd 17 88 3e 71 05 49 be
       0.023789883 0.32892922 0.2658061 -0.19630982
0001d0 13 5d 5b 3d 1c 24 dc bb 86 50 1e bc f0 67 a1 bc
       0.05355556 -0.0067181718 -0.009662753 -0.019702882
0001e0 a9 7a a9 3c 8c 1c 9c bc 78 21 55 bc ff 99 8b bc
       0.020688372 -0.019056581 -0.013008468 -0.017041204
0001f0 45 a6 eb 39 1b 7c 79 3c 00 23 a8 bc 01 65 93 3c
       0.00044946573 0.015227343 -0.020524502 0.017992498
000200 36 3c 35 bc 5a 33 46 3a f2 bd 0a bb c9 17 7a 3c
       -0.011061719 0.00075607526 -0.0021170345 0.01526446
000210 47 f6 07 39 24 5b 28 3c 93 56 9d bc bd 89 06 bd
       0.00012966349 0.010275636 -0.01920632 -0.0328462
000220 0a b9 c4 bc 07 7d bc bc e9 76 e4 bd 55 97 02 3f
       -0.024014015 -0.023008836 -0.11155493 0.51012164
000230 16 27 f4 3c ee 84 0b bc 2a 9a f8 be e5 fa c4 b9
       0.029803794 -0.00851558 -0.48555118 -0.00037570964
000240 27 f1 3e bc 00 10 c3 bc e1 26 a3 3c c3 cc 00 bc
       -0.011654175 -0.02381134 0.019916 -0.007861319
000250 b4 c7 64 bc e6 1a 4a bc f6 92 08 bc 17 2a a6 39
       -0.013963629 -0.012335515 -0.0083358195 0.00031693347
000260 77 9e 1b bc 19 02 94 3c eb ba 84 3a 9f 26 42 3c
       -0.00949823 0.018067406 0.0010126507 0.011850028
000270 a8 32 c1 3b 24 47 f6 3b 65 47 e3 bb ac b2 5c 3c
       0.0058959313 0.007515805 -0.006936001 0.013470333
000280 11 26 0f bc da 6c bd bb a7 4e cb bc f2 b6 d5 bc
       -0.008737103 -0.0057807984 -0.024817778 -0.026088212
000290 8c 04 3c bc 59 2c 07 bc f0 b3 71 bd 07 36 a3 be
       -0.011475693 -0.008250319 -0.059009492 -0.31877157
0002a0 90 d4 4f 3b 28 c1 b0 bd 44 97 b7 3d 86 41 c2 3a
       0.003171239 -0.08630592 0.089643985 0.0014820553
0002b0 2e b3 34 3c ec 23 f1 bb f1 d7 1e 3c 2c 8f 03 bc
       0.011029048 -0.0073590185 0.009695039 -0.00802974
0002c0 b2 ec 28 3c 70 57 48 bc 06 4c 48 bc 53 67 04 bc
       0.010310339 -0.012227878 -0.012225157 -0.008081275
0002d0 7e db 8b bb 1e ec 2c 3c 51 bf 5b 3b a1 5c 25 ba
       -0.004268109 0.010554342 0.0033530782 -0.0006308053
0002e0 81 25 e3 3b b7 c0 0f ba bd d4 a5 3b 19 7d 14 bc
       0.006931961 -0.0005483734 0.005060761 -0.009063029
0002f0 53 36 fd 3a 63 75 2d 3c c9 9f a5 3b 81 24 86 bc
       0.0019318558 0.010587069 0.0050544483 -0.016374828
000300 80 c6 4b bd 4a 48 82 bc d8 24 11 bd d9 a7 92 bd
       -0.04974985 -0.01590361 -0.035435528 -0.07160921
000310 74 67 28 bf 75 f3 c4 bd 5f 11 1f be d2 21 ac 3c
       -0.65782857 -0.09616748 -0.1553397 0.02101222
000320 b0 42 87 3b 66 b1 50 3c 7e a6 9b 3b bc 1f 9d 3b
       0.004127823 0.012737608 0.004750072 0.004795043
000330 0b 7c 45 bc d5 7f 97 3c 47 b9 da bb 66 d1 cf 3b
       -0.0120535 0.018493572 -0.006674919 0.006342101
000340 0f 08 c2 3b 79 96 dd 3b 4a 0a 92 3c eb 52 77 3c
       0.005921371 0.0067623225 0.017827172 0.015095453
000350 d8 80 fe b6 6c df a1 3c 6d d1 1a 3c 91 3c ba 3b
       -7.5847893e-06 0.019759856 0.009449345 0.0056834896
000360 c5 18 3b bc fd 14 38 bb 55 f2 bb 3a 0e 02 04 bc
       -0.01141948 -0.0028088682 0.0014339188 -0.0080571305
000370 da 5b 51 bd 09 f5 6a bc 01 44 d6 bb 26 bb a6 3d
       -0.051112987 -0.0143406475 -0.0065388684 0.081411645
000380 c1 f1 01 3f 95 5a 24 3d a8 bd 54 3a 7a 2d 81 bc
       0.5075951 0.04012545 0.0008115419 -0.015768755
000390 76 5c 1c 3b a8 18 20 b8 15 8f af 3c ee 81 95 bb
       0.0023858822 -3.8169936e-05 0.021430532 -0.004562608
0003a0 98 1d c6 3a 81 23 29 bb a6 3c 7b 3b 73 0d 76 bb
       0.0015115021 -0.0025808515 0.003833571 -0.0037544637
0003b0 3a 45 e8 3b f4 b5 0b 3b 12 87 12 3c 88 fe 04 3c
       0.0070883306 0.002131817 0.008943336 0.008117326
0003c0 42 68 d2 3c 55 cd e5 3b aa 44 d7 3b bc 89 10 ba
       0.02568448 0.007013003 0.0065694647 -0.0005513688
0003d0 60 8f 81 3c 53 e2 59 bc f4 97 98 3b ae d3 fd ba
       0.015815437 -0.013298589 0.004656786 -0.0019365454
0003e0 54 1c 61 bd 73 73 56 bd 6e e6 f7 bb a1 71 11 bd
       -0.054958656 -0.052356195 -0.007565311 -0.035508756
0003f0 5c 70 9f be 20 83 78 3d f4 c8 c2 bc ac c8 72 ba
       -0.3114041 0.060671926 -0.023777463 -0.000926147

fc1.bias f4 [10]
000000 af f8 21 3e eb 54 76 3e 49 90 44 3d 85 69 ac 3c
       0.15817522 0.24055831 0.047989164 0.02104641
000010 8b 95 54 3e d5 c2 42 3e 87 34 92 3d 0f 9f 10 3e
       0.20760171 0.19019635 0.07138925 0.14123176
000020 c9 62 fd bd ce 4e 3c 3d
       -0.123723574 0.04597359
