Models/SingleLayer_SNN.pt (torch, 32323 bytes, 1 tensors)

layer1.0.weight f4 [10, 784]
0.02087481 -0.013498882 -0.0025270171 0.02930158 0.011277534 0.003318023 -0.009055346 0.023930542
0.028782528 0.02646054 -0.007866144 -0.032912236 -0.032761484 0.019004676 0.028115127 0.022896264
-0.026742421 0.03232449 -0.008371707 0.017220762 -0.018362392 -0.019481396 0.034406733 0.034558136
0.020733908 0.0060035214 0.030105319 -0.033421118 0.0063679405 0.029390227 -0.023672232 0.017416958
0.0030674078 -0.006379187 0.03308047 0.011855844 0.034686822 0.034748305 -0.048563633 0.18437496
0.19151562 0.15948926 -0.026105244 0.11216652 0.09984743 0.08340883 0.0023627542 -0.027526077
-0.016461173 -0.0017024353 0.035470452 -0.0075430535 -0.02025925 -0.035307705 -0.008468661 0.03246564
0.012202658 0.018091053 0.031987395 0.13910444 0.0616145 -0.012866944 -0.17180625 -0.1297842
-0.26929522 -0.3072313 -0.26690322 -0.19850522 -0.29299808 -0.25996977 -0.37567207 -0.4740849
-0.3836742 -0.5934493 -0.5293098 -0.20387302 -0.43179148 -0.252173 -0.14889993 -0.06618442
-0.05308791 0.010830656 0.023057465 -0.018936098 -0.009963734 0.03171247 0.0007526912 0.038368624
-0.03861071 -0.09469627 -0.3406498 -0.23433948 -0.1573427 -0.29189444 -0.3784878 -0.21771629
-0.21612075 -0.04136324 -0.12594767 -0.19565521 -0.08308935 -0.11338007 -0.25704306 -0.22612914
-0.2007355 -0.32472584 -0.27794084 -0.1557402 -0.049443908 -0.12302636 -0.1616439 -0.027842246
-0.010733349 -0.027406672 0.023972388 -0.18003517 -0.1576845 -0.29126692 -0.2023694 -0.20918418
0.05675827 -0.028291764 -0.04575346 -0.0058251307 -0.09764728 0.07155846 -0.030712938 0.011227366
-0.123077326 0.04236511 -0.008662605 0.03025925 0.0193535 -0.064689115 -0.009589055 -0.0011988075
-0.24010766 -0.30839825 -0.23401584 -0.011020875 -0.02767342 0.026476622 -0.12070403 -0.111147895
-0.27650362 -0.4441236 -0.057330903 -0.10621031 -0.024356212 -0.09955049 0.04036262 0.0019594934
-0.017060965 0.07429776 0.10841909 0.058169153 0.043470927 0.034373466 0.033427585 -0.011595217
-0.06657765 -0.10306412 -0.04367327 -0.010728966 -0.25759554 -0.46736163 -0.23367056 -0.20858805
0.027811687 -0.02167704 0.021912124 0.017263759 -0.21064873 -0.1691599 -0.05345788 -0.030503826
-0.10480916 -0.2426123 -0.008104632 -0.09038244 -0.068205066 0.040719885 0.019368598 0.023420565
0.0080797635 0.050777964 0.035349492 0.00803607 0.009168876 0.10876774 0.08531474 -0.021234713
-0.35094836 -0.57505435 -0.43077296 -0.19740117 -0.007050041 0.030184012 0.0080337925 -0.18582281
-0.33037823 0.0878252 0.073683485 0.017488223 -0.14193244 -0.0041295355 0.023820179 0.012219146
-0.036433946 0.058303084 0.009585558 0.02010325 0.01979398 0.116497 0.13363 0.119772464
0.03157087 0.011489443 0.030733643 0.003926652 -0.2991035 -0.44266886 -0.41553843 -0.09127258
0.105767295 -0.00058216974 0.07715073 0.006528382 -0.33453506 -0.077723406 0.041293766 -0.041217886
-0.016003108 0.022144007 0.057127915 -0.028186824 0.011724256 0.0013451164 0.096693374 0.08963236
0.25934 0.13709891 0.120427266 0.049221862 0.03310783 -0.0018296769 -0.04009166 0.094088584
-0.3068168 -0.65579134 -0.46727055 -0.12038003 0.017436463 -0.026507962 0.10624639 -0.088806875
00000000: a601 ab3c 6a2a 5dbc 509c 25bb de09 f03c
00000010: 68c5 383c 3073 593b e05c 14bc fc09 c43c
00000020: 56c9 eb3c c6c3 d83c 00e1 00bc fbce 06bd
00000030: e830 06bd b2af 9b3c b251 e63c f290 bb3c
00000040: ec12 dbbc af66 043d 7c29 09bc 8e12 8d3c
00000050: ba6c 96bc 7397 9fbc 13ee 0c3d d58c 0d3d
00000060: 28da a93c 30b9 c43b 6e9f f63c 95e4 08bd
00000070: 28aa d03b c6c3 f03c 45ec c1bc 02ae 8e3c
00000080: 9006 493b 8008 d1bb 637f 073d 043f 423c
00000090: c513 0e3d 3d54 0e3d a9ea 46bd cacc 3c3e
000000a0: ac1c 443e 2751 233e aada d5bc 8fb7 e53d
000000b0: cf7c cc3d 40d2 aa3d 70d8 1a3b 5e7e e1bc
000000c0: 95d9 86bc 4024 dfba 7749 113d b82b f7bb
000000d0: baf6 a5bc d09e 10bd 24c0 0abc b1fa 043d
000000e0: a8ed 473c b033 943c 3705 033d 6571 0e3e
000000f0: 7c5f 7c3d e0cf 52bc faed 2fbe 26e6 04be
00000100: 10e1 89be 6c4d 9dbe 8aa7 88be f444 4bbe
00000110: d803 96be c21a 85be 1758 c0be 42bb f2be
00000120: f270 c4be 4bec 17bf d980 07bf 17c4 50be
00000130: c613 ddbe d21c 81be 3979 18be b28b 87bd
00000140: b572 59bd 1073 313c 02e3 bc3c e01f 9bbc
00000150: ee3e 23bc efe4 013d 4050 453a 6b28 1d3d
00000160: 4426 1ebd 1ef0 c1bd a769 aebe b0f6 6fbe
00000170: 721e 21be 3073 95be 27c9 c1be 05f1 5ebe
00000180: c24e 5dbe 806c 29bd 6df8 00be d759 48be
00000190: c02a aabd cf33 e8bd 269b 83be 668e 67be
000001a0: 9b8d 4dbe 7742 a6be 434e 8ebe 5c7a 1fbe
000001b0: b285 4abd 3ff5 fbbd fb85 25be 6c15 e4bc
000001c0: eeda 2fbc f583 e0bc be61 c43c 245b 38be
000001d0: 0c78 21be f020 95be ed39 4fbe 6134 56be
000001e0: 5c7b 683d 21c4 e7bc fb67 3bbd bde0 bebb
000001f0: 4cfb c7bd 3e8d 923d b399 fbbc fcf2 373c
00000200: f70f fcbd 0a87 2d3d 99ed 0dbc 3fe2 f73c
00000210: 3b8b 9e3c ba7b 84bd 691b 1dbc 4e21 9dba
00000220: c8de 75be 60e6 9dbe d9a1 6fbe e690 34bc
00000230: 5eb3 e2bc 80e5 d83c ad33 f7bd 82a1 e3bd
00000240: e291 8dbe 2b64 e3be cfd3 6abd ca84 d9bd
00000250: ae86 c7bc 21e1 cbbd 4653 253d d86a 003b
00000260: 70c3 8bbc 6d29 983d d40a de3d c742 6e3d
00000270: 920e 323d 31cb 0c3d 5deb 083d ddf9 3dbc
00000280: dd59 88bd 4813 d3bd bee2 32bd 8cc8 2fbc
00000290: 90e3 83be 064a efbe 5647 6fbe 1b98 55be
000002a0: 56d5 e33c 0c94 b1bc 0e81 b33c ba6c 8d3c
000002b0: 4db4 57be 4138 2dbe a6f6 5abd 29e3 f9bc
000002c0: 2fa6 d6bd 5c6f 78be 4ac9 04bc 6e1a b9bd
000002d0: 19af 8bbd e5c9 263d e5aa 9e3c 7cdc bf3c
000002e0: fc60 043c 8efc 4f3d a1ca 103d b8a9 033c
000002f0: 0e39 163c 9fc1 de3d 7fb9 ae3d 6cf4 adbc
00000300: 81af b3be c336 13bf 468e dcbe 8823 4abe
00000310: 0804 e7bb 7644 f73c 2ba0 033c 5648 3ebe
00000320: 5627 a9be b3dd b33d 5ee7 963d 7643 8f3c
00000330: bd56 11be 0e51 87bb 8922 c33c d032 483c
00000340: c33b 15bd 37cf 6e3d bf0c 1d3c 92af a43c
00000350: fc26 a23c fb95 ee3d 4dd6 083e 444b f53d
00000360: 7550 013d 373e 3c3c 1fc5 fb3c 25ab 803b
00000370: 1824 99be 7ea5 e2be 74c1 d4be 1eed babd
00000380: 869c d83d c09c 18ba 3401 9e3d 0aec d53b
00000390: 2e48 abbe 732d 9fbd a723 293d 16d4 28bd
000003a0: f318 83bc 5967 b53c f6fe 693d 0ee8 e6bc
000003b0: 1817 403c 9e4e b03a 2d07 c63d 2c91 b73d
000003c0: 36c8 843e a863 0c3e 92a2 f63d dd9c 493d
000003d0: 139c 073d c5d1 efba 2737 24bd 84b1 c03d
000003e0: 1717 9dbe f1e1 27bf 163e efbe ce89 f6bd
000003f0: ead6 8e3c 3a27 d9bc b597 d93d 61e0 b5bd
