Models/SingleLayer_SNN.pt (torch, 32323 bytes, 1 tensors)

layer1.0.weight f4 [10, 784]
00000000: 2e67 04bd 8807 833c 408b 53ba 153e c8bc
00000010: 8021 973c 2a10 5dbc e600 e93c be75 acbc
00000020: 640c 6d3c 6011 c63c b895 fdbb 30e7 7ebb
00000030: b8fc bb3b d5fa 97bc 4ed4 68bc dabb a93c
00000040: e1a4 0c3d 941b 763c 004a b2ba 9cde af3c
00000050: d3b6 8ebc 6e80 32bc 4fde 09bd 6e6a 5ebc
00000060: 30fe aabc 4e46 c53c b19c f1bc fc2c 5dbc
00000070: 8510 a8bc bc74 d0bc 7c63 6fbc 8032 1bbc
00000080: 805b 28bc 4864 c3bb e547 94bc b2f6 e23c
00000090: d564 083d 7f32 50bd 0f10 c5bd 1b47 3c3e
000000a0: 622c 533e 3635 563e a9c2 a4bd 97eb 433d
000000b0: cafa aa3d e2b4 193e d9a7 0a3d 66a9 55bc
000000c0: b821 5a3c 5e95 f8bc 5a5a e53c 08c0 c2bc
000000d0: 82ca e53c 2074 39bb 68fe d4bc 80c3 7cbc
000000e0: 002a 673c 96a1 f43c 58b4 693c 7492 d13d
000000f0: 52a0 213e 23f3 50bd 445b 8bbe 16aa f7bd
00000100: bed9 b4be c7b9 cbbe 4e59 d3be aaf8 5dbe
00000110: 34f6 8fbe 47c2 90be c1db c6be 56f3 0abf
00000120: 8732 adbe e9f3 2bbf f339 16bf 76fb b2be
00000130: ff73 febe 0b95 afbe bc7c 00be 65ee 0cbd
00000140: 4cfd 8dbc 7a1e b13c e068 c33c 2428 013c
00000150: 58a8 8bbb 477e 043d 00f7 e9ba b9db a9bc
00000160: 10f2 9abd 5f04 08be f074 c4be 4fb7 a4be
00000170: e5b9 1abe 1b7a d2be d15c ddbe 8e8a 6fbe
00000180: c3c9 60be 1d6e 87bd 383c 22be f3f4 4cbe
00000190: b76e fcbd 0915 d9bd 0b01 95be 99a5 53be
000001a0: f222 7fbe 442a cbbe e5f9 ecbe a179 1bbe
000001b0: ac36 4dbd 574d e5bd 4f0a 83be 2e38 fb3c
000001c0: f3b4 cfbc 003a be38 5f2a 09bd ddc5 23be
000001d0: 562d 80be 5ee7 f9be 887c 9bbe cbf9 93be
000001e0: c0e9 22bc 0184 483d 8a38 23bd d783 98bc
000001f0: c110 9cbd 9e45 4d3d 865d 6dbc a89c 053d
00000200: bb70 4abe 3324 143d 587a 883c 30bb 6f3c
00000210: 28c2 c5ba be37 82bd 9fb0 e23c 7089 15bd
00000220: 4c6e a9be 4c91 dbbe 57b2 42be 5ec7 00bd
00000230: 0862 d13b e032 333b 4f12 5dbe 5acb 8ebd
00000240: 3da0 83be c09f c6be d9a1 f23c 12d5 07be
00000250: fea7 23bd e10a bdbd f144 983d 7fdf a33b
00000260: 07e1 7fbc 111c 233d e91a b93d 95b3 a53d
00000270: 2839 fd3c f780 d93c 1128 263d 4d26 dfbc
00000280: 455d 33bd fed6 b5bd 8f13 6dbd 9958 16bd
00000290: 7260 a3be 7046 22bf fd25 9ebe 6061 16be
000002a0: 2664 e43c 72e3 b23c 3056 a7bd 4559 f8bc
000002b0: aff1 75be f79d 0abe 1921 adbd c464 4dbd
000002c0: 4308 b3bd 64ff 83be 8ba7 87bd e9ac 8bbd
000002d0: 5e73 9ebd 918a b53c e480 0f3c 4975 193d
000002e0: aa98 4abc 9746 7a3d b9c0 e23d 0cca 2e3c
000002f0: 3684 5abc be11 8e3d ad72 ed3d 090a 5dbd
00000300: 2c36 c4be a2fa 4abf 3f4f 10bf 1764 95be
00000310: 5f3b 003d f87f 8b3c 5fbd f2bc 90ab 4bbe
00000320: a8b3 b8be 7d86 c23c 15ba 98bb d9d5 fcbb
00000330: 0580 3ebe 0b2c b3bc c689 85bb 7e72 c1bc
00000340: 249e efbc d2fc 513d 110d db3c 960d 58bc
00000350: 57fd 5c3d b555 2e3e a65c 2d3e 18fd 043e
00000360: 0a6c c93c 46df bd3c b4c0 013b ce48 72bd
00000370: d817 b9be 7de9 0cbf ec5d 17bf c0b0 f8bd
00000380: 0ae6 933e 6826 f9bc beb7 d43d 54e0 cdbc
00000390: dd1f cfbe 9332 d3bd 2fee 603c 80c1 98bc
000003a0: a2bd 833c d1af 3e3c 74ac fd3c 751e febc
000003b0: 83ec 9f3d 659a 0639 1bb3 f53d e0b3 023e
000003c0: 3b1f 863e 10c8 153e 9a3c e33d 3a0f 503d
000003d0: 1649 f73b 4d48 e1bc b396 8bbb 35b0 e93d
000003e0: 7874 9fbe fca6 63bf 5ed6 0abf 01de a7bd
000003f0: 1ef8 04bd 66e4 60bc 14e1 323e ef61 4bbd
-0.032324962 0.015994802 -0.0008069761 -0.024443666 0.018448591 -0.013492623 0.028442811 -0.021052238
0.014468286 0.024178207 -0.007738795 -0.0038895123 0.0057369135 -0.018552223 -0.014210774 0.020719457
0.03433693 0.015021224 -0.0013602376 0.021468453 -0.017421162 -0.010894878 -0.033659276 -0.0135751795
-0.02087316 0.024081375 -0.029493662 -0.013499495 -0.02051569 -0.025446288 -0.014611121 -0.009472489
-0.010275722 -0.005962882 -0.018100688 0.027705524 0.033299286 -0.050829407 -0.096222036 0.183865
0.206224 0.20918736 -0.08044941 0.047832098 0.083486155 0.15010408 0.03385148 -0.013040876
0.013313703 -0.030344661 0.027997185 -0.023773208 0.028050665 -0.0028297976 -0.026000217 -0.01542747
0.014109135 0.029862206 0.014264189 0.10233012 0.15783814 -0.051013123 -0.27218068 -0.12092988
-0.35322374 -0.39790174 -0.41279072 -0.21676889 -0.28117526 -0.28273222 -0.38839534 -0.5427755
-0.33827612 -0.6716905 -0.58682173 -0.34957474 -0.49697873 -0.34293398 -0.12547582 -0.03440704
-0.017332695 0.021620978 0.02385372 0.007883105 -0.0042620115 0.03234699 -0.0017850101 -0.020734655
-0.07565701 -0.13282917 -0.38370466 -0.32171103 -0.15109976 -0.41108784 -0.43234876 -0.23392698
-0.21951966 -0.06612799 -0.15843284 -0.20015316 -0.12325805 -0.10599715 -0.29102358 -0.20668639
-0.24915674 -0.39680684 -0.46284404 -0.15183116 -0.050100967 -0.11196392 -0.25593802 0.030666437
-0.025354838 9.070709e-05 -0.033487674 -0.15993448 -0.2503459 -0.48809332 -0.30368447 -0.28901514
-0.009943426 0.048954014 -0.03984884 -0.018617554 -0.07620383 0.05011522 -0.01448763 0.032620102
-0.19769566 0.036167335 0.0166599 0.014632031 -0.001508777 -0.06358288 0.02767211 -0.036508024
-0.33091962 -0.4288429 -0.19013344 -0.03144013 0.00638986 0.0027343556 -0.21589015 -0.0697238
-0.2570819 -0.38793755 0.02961819 -0.13264874 -0.03995513 -0.092305906 0.074350245 0.005001008
-0.015617616 0.039821688 0.09038336 0.08090893 0.030911043 0.026550753 0.040565554 -0.027239943
-0.04379012 -0.08878897 -0.05787998 -0.036705587 -0.3190952 -0.6338873 -0.30888358 -0.14685583
0.027879786 0.02183697 -0.08170736 -0.030316005 -0.24017976 -0.13536821 -0.084535785 -0.050144926
-0.0874181 -0.25780785 -0.06623753 -0.06820089 -0.07736848 0.0221608 0.008758757 0.037465367
-0.0123654995 0.061102476 0.11071915 0.010668289 -0.013337186 0.06936978 0.11594138 -0.05396465
-0.3832258 -0.79288685 -0.5637092 -0.29177925 0.03130662 0.017028794 -0.029631315 -0.19889665
-0.36074567 0.02374577 -0.0046608546 -0.0077159223 -0.18603523 -0.021871587 -0.0040752618 -0.023614164
-0.029250212 0.0512665 0.026739629 -0.013186833 0.05395254 0.17024882 0.16929874 0.12987173
0.02458765 0.023177754 0.0019798698 -0.059151463 -0.36151004 -0.55043775 -0.5912769 -0.121430874
0.28886443 -0.030413821 0.103866085 -0.025131382 -0.40453997 -0.10312381 0.013728662 -0.018646955
0.016081635 0.011638598 0.030966021 -0.031020382 0.07808783 0.00012836752 0.11997052 0.1276393
0.26195702 0.14627099 0.11095543 0.05079577 0.0075465543 -0.027500296 -0.004259908 0.11410562
-0.31143546 -0.8892667 -0.5423335 -0.08196641 -0.032463185 -0.013726329 0.17468673 -0.049653944
